…
      sampler {
        min_scale: 0.3
        max_scale: 1
        min_aspect_ratio: 0.5
        max_aspect_ratio: 2
      }
      sample_constraint {
        min_jaccard_overlap: 0.9
      }
      max_sample: 1
      max_trials: 50
    }
    batch_sampler {
      sampler {
        min_scale: 0.3
        max_scale: 1
        min_aspect_ratio: 0.5
        max_aspect_ratio: 2
      }
      sample_constraint {
        max_jaccard_overlap: 1
      }
      max_sample: 1
      max_trials: 50
    }
    label_map_file: "data/VOC0712/labelmap_voc.prototxt"
  }
}
layer {
  name: "conv1_1"
  type: "Convolution"
  bottom: "data"
  top: "conv1_1"
  param {
    lr_mult: 1
    decay_mult: 1
  }
  param {
    lr_mult: 2
    decay_mult: 0
  }
  convolution_param {
    num_output: 64
    pad: 1
    kernel_size: 3
    weight_filler {
      type: "xavier"
    }
    bias_filler {
      type: "constant"
      value: 0
    }
  }
}
layer {
  name: "relu1_1"
  type: "ReLU"
  bottom: "conv1_1"
  top: "conv1_1"
}
layer {
  name: "conv1_2"
  type: "Convolution"
  bottom: "conv1_1"
  top: "conv1_2"
  param {
    lr_mult: 1
    decay_mult: 1
  }
  param {
    lr_mult: 2
    decay_mult: 0
  }
  convolution_param {
    num_output: 64
    pad: 1
    kernel_size: 3
    weight_filler {
      type: "xavier"
    }
    bias_filler {
      type: "constant"
      value: 0
    }
  }
}
layer {
  name: "relu1_2"
  type: "ReLU"
  bottom: "conv1_2"
  top: "conv1_2"
}
layer {
  name: "pool1"
  type: "Pooling"
  bottom: "conv1_2"
  top: "pool1"
  pooling_param {
    pool: MAX
    kernel_size: 2
    stride: 2
  }
}
layer {
  name: "conv2_1"
  type: "Convolution"
  bottom: "pool1"
  top: "conv2_1"
  param {
    lr_mult: 1
    decay_mult: 1
  }
  param {
    lr_mult: 2
    decay_mult: 0
  }
  convolution_param {
    num_output: 128
    pad: 1
    kernel_size: 3
    weight_filler {
      type: "xavier"
    }
    bias_filler {
      type: "constant"
      value: 0
    }
  }
}
layer {
  name: "relu2_1"
  type: "ReLU"
  bottom: "conv2_1"
  top: "conv2_1"
}
layer {
  name: "conv2_2"
  type: "Convolution"
  bottom: "conv2_1"
  top: "conv2_2"
  param {
    lr_mult: 1
    decay_mult: 1
  }
  param {
    lr_mult: 2
    decay_mult: 0
  }
  convolution_param {
    num_output: 128
    pad: 1
    kernel_size: 3
    weight_filler {
      type: "xavier"
    }
    bias_filler {
      type: "constant"
      value: 0
    }
  }
}
layer {
  name: "relu2_2"
  type: "ReLU"
  bottom: "conv2_2"
  top: "conv2_2"
}
layer {
  name: "pool2"
  type: "Pooling"
  bottom: "conv2_2"
  top: "pool2"
  pooling_param {
    pool: MAX
    kernel_size: 2
    stride: 2
  }
}
layer {
  name: "conv3_1"
  type: "Convolution"
  bottom: "pool2"
  top: "conv3_1"
  param {
    lr_mult: 1
    decay_mult: 1
  }
  param {
    lr_mult: 2
    decay_mult: 0
  }
  convolution_param {
    num_output: 256
    pad: 1
    kernel_size: 3
    weight_filler {
      type: "xavier"
    }
    bias_filler {
      type: "constant"
      value: 0
    }
  }
}
layer {
  name: "relu3_1"
  type: "ReLU"
  bottom: "conv3_1"
  top: "conv3_1"
}
layer {
  name: "conv3_2"
  type: "Convolution"
  bottom: "conv3_1"
  top: "conv3_2"
  param {
    lr_mult: 1
    decay_mult: 1
  }
  param {
    lr_mult: 2
    decay_mult: 0
  }
  convolution_param {
    num_output: 256
    pad: 1
    kernel_size: 3
    weight_filler {
      type: "xavier"
    }
    bias_filler {
      type: "constant"
      value: 0
    }
  }
}
layer {
  name: "relu3_2"
  type: "ReLU"
  bottom: "conv3_2"
  top: "conv3_2"
}
layer {
  name: "conv3_3"
  type: "Convolution"
  bottom: "conv3_2"
  top: "conv3_3"
  param {
    lr_mult: 1
    decay_mult: 1
  }
  param {
    lr_mult: 2
    decay_mult: 0
  }
  convolution_param {
    num_output: 256
    pad: 1
    kernel_size: 3
    weight_filler {
      type: "xavier"
    }
    bias_filler {
      type: "constant"
      value: 0
    }
  }
}
layer {
  name: "relu3_3"
  type: "ReLU"
  bottom: "conv3_3"
  top: "conv3_3"
}
layer {
  name: "pool3"
  type: "Pooling"
  bottom: "conv3_3"
  top: "pool3"
  pooling_param {
    pool: MAX
    kernel_size: 2
    stride: 2
  }
}
layer {
  name: "conv4_1"
  type: "Convolution"
  bottom: "pool3"
  top: "conv4_1"
  param {
    lr_mult: 1
    decay_mult: 1
  }
  param {
    lr_mult: 2
    decay_mult: 0
  }
  convolution_param {
    num_output: 512
    pad: 1
    kernel_size: 3
    weight_filler {
      type: "xavier"
    }
    bias_filler {
      type: "constant"
      value: 0
    }
  }
}
layer {
  name: "relu4_1"
  type: "ReLU"
  bottom: "conv4_1"
  top: "conv4_1"
}
layer {
  name: "conv4_2"
  type: "Convolution"
  bottom: "conv4_1"
  top: "conv4_2"
  param {
    lr_mult: 1
    decay_mult: 1
  }
  param {
    lr_mult: 2
    decay_mult: 0
  }
  convolution_param {
    num_output: 512
    pad: 1
    kernel_size: 3
    weight_filler {
      type: "xavier"
    }
    bias_filler {
      type: "constant"
      value: 0
    }
  }
}
layer {
  name: "relu4_2"
  type: "ReLU"
  bottom: "conv4_2"
  top: "conv4_2"
}
layer {
  name: "conv4_3"
  type: "Convolution"
  bottom: "conv4_2"
  top: "conv4_3"
  param {
    lr_mult: 1
    decay_mult: 1
  }
  param {
    lr_mult: 2
    decay_mult: 0
  }
  convolution_param {
    num_output: 512
    pad: 1
    kernel_size: 3
    weight_filler {
      type: "xavier"
    }
    bias_filler {
      type: "constant"
      value: 0
    }
  }
}
layer {
  name: "relu4_3"
  type: "ReLU"
  bottom: "conv4_3"
  top: "conv4_3"
}
layer {
  name: "pool4"
  type: "Pooling"
  bottom: "conv4_3"
  top: "pool4"
  pooling_param {
    pool: MAX
    kernel_size: 2
    stride: 2
  }
}
layer {
  name: "conv5_1"
  type: "Convolution"
  bottom: "pool4"
  top: "conv5_1"
  param {
    lr_mult: 1
    decay_mult: 1
  }
  param {
    lr_mult: 2
    decay_mult: 0
  }
  convolution_param {
    num_output: 512
    pad: 1
    kernel_size: 3
    weight_filler {
      type: "xavier"
    }
    bias_filler {
      type: "constant"
      value: 0
    }
    dilation: 1
  }
}
layer {
  name: "relu5_1"
  type: "ReLU"
  bottom: "conv5_1"
  top: "conv5_1"
}
layer {
  name: "conv5_2"
  type: "Convolution"
  bottom: "conv5_1"
  top: "conv5_2"
  param {
    lr_mult: 1
    decay_mult: 1
  }
  param {
    lr_mult: 2
    decay_mult: 0
  }
  convolution_param {
    num_output: 512
    pad: 1
    kernel_size: 3
    weight_filler {
      type: "xavier"
    }
    bias_filler {
      type: "constant"
      value: 0
    }
    dilation: 1
  }
}
layer {
  name: "relu5_2"
  type: "ReLU"
  bottom: "conv5_2"
  top: "conv5_2"
}
layer {
  name: "conv5_3"
  type: "Convolution"
  bottom: "conv5_2"
  top: "conv5_3"
  param {
    lr_mult: 1
    decay_mult: 1
  }
  param {
    lr_mult: 2
    decay_mult: 0
  }
  convolution_param {
    num_output: 512
    pad: 1
    kernel_size: 3
    weight_filler {
      type: "xavier"
    }
    bias_filler {
      type: "constant"
      value: 0
    }
    dilation: 1
  }
}
layer {
  name: "relu5_3"
  type: "ReLU"
  bottom: "conv5_3"
  top: "conv5_3"
}
layer {
  name: "pool5"
  type: "Pooling"
  bottom: "conv5_3"
  top: "pool5"
  pooling_param {
    pool: MAX
    kernel_size: 3
    stride: 1
    pad: 1
  }
}
layer {
  name: "fc6"
  type: "Convolution"
  bottom: "pool5"
  top: "fc6"
  param {
    lr_mult: 1
    decay_mult: 1
  }
  param {
    lr_mult: 2
    decay_mult: 0
  }
  convolution_param {
    num_output: 1024
    pad: 6
    kernel_size: 3
    weight_filler {
      type: "xavier"
    }
    bias_filler {
      type: "constant"
      value: 0
    }
    dilation: 6
  }
}
layer {
  name: "relu6"
  type: "ReLU"
  bottom: "fc6"
  top: "fc6"
}
layer {
  name: "fc7"
  type: "Convolution"
  bottom: "fc6"
  top: "fc7"
  param {
    lr_mult: 1
    decay_mult: 1
  }
  param {
    lr_mult: 2
    decay_mult: 0
  }
  convolution_param {
    num_output: 1024
    kernel_size: 1
    weight_filler {
      type: "xavier"
    }
    bias_filler {
      type: "constant"
      value: 0
    }
  }
}
layer {
  name: "relu7"
  type: "ReLU"
  bottom: "fc7"
  top: "fc7"
}
layer {
  name: "conv6_1"
  type: "Convolution"
  bottom: "fc7"
  top: "conv6_1"
  param {
    lr_mult: 1
    decay_mult: 1
  }
  param {
    lr_mult: 2
    decay_mult: 0
  }
  convolution_param {
    num_output: 256
    pad: 0
    kernel_size: 1
    stride: 1
    weight_filler {
      type: "xavier"
    }
    bias_filler {
      type: "constant"
      value: 0
    }
  }
}
layer {
  name: "conv6_1_relu"
  type: "ReLU"
  bottom: "conv6_1"
  top: "conv6_1"
}
layer {
  name: "conv6_2"
  type: "Convolution"
  bottom: "conv6_1"
  top: "conv6_2"
  param {
    lr_mult: 1
    decay_mult: 1
  }
  param {
    lr_mult: 2
    decay_mult: 0
  }
  convolution_param {
    num_output: 512
    pad: 1
    kernel_size: 3
    stride: 2
    weight_filler {
      type: "xavier"
    }
    bias_filler {
      type: "constant"
      value: 0
    }
  }
}
layer {
  name: "conv6_2_relu"
  type: "ReLU"
  bottom: "conv6_2"
  top: "conv6_2"
}
layer {
  name: "conv7_1"
  type: "Convolution"
  bottom: "conv6_2"
  top: "conv7_1"
  param {
    lr_mult: 1
    decay_mult: 1
  }
  param {
    lr_mult: 2
    decay_mult: 0
  }
  convolution_param {
    num_output: 128
    pad: 0
    kernel_size: 1
    stride: 1
    weight_filler {
      type: "xavier"
    }
    bias_filler {
      type: "constant"
      value: 0
    }
  }
}
layer {
  name: "conv7_1_relu"
  type: "ReLU"
  bottom: "conv7_1"
  top: "conv7_1"
}
layer {
  name: "conv7_2"
  type: "Convolution"
  bottom: "conv7_1"
  top: "conv7_2"
  param {
    lr_mult: 1
    decay_mult: 1
  }
  param {
    lr_mult: 2
    decay_mult: 0
  }
  convolution_param {
    num_output: 256
    pad: 1
    kernel_size: 3
    stride: 2
    weight_filler {
      type: "xavier"
    }
    bias_filler {
      type: "constant"
      value: 0
    }
  }
}
layer {
  name: "conv7_2_relu"
  type: "ReLU"
  bottom: "conv7_2"
  top: "conv7_2"
}
layer {
  name: "conv8_1"
  type: "Convolution"
  bottom: "conv7_2"
  top: "conv8_1"
  param {
    lr_mult: 1
    decay_mult: 1
  }
  param {
    lr_mult: 2
    decay_mult: 0
  }
  convolution_param {
    num_output: 128
    pad: 0
    kernel_size: 1
    stride: 1
    weight_filler {
      type: "xavier"
    }
    bias_filler {
      type: "constant"
      value: 0
    }
  }
}
layer {
  name: "conv8_1_relu"
  type: "ReLU"
  bottom: "conv8_1"
  top: "conv8_1"
}
layer {
  name: "conv8_2"
  type: "Convolution"
  bottom: "conv8_1"
  top: "conv8_2"
  param {
    lr_mult: 1
    decay_mult: 1
  }
  param {
    lr_mult: 2
    decay_mult: 0
  }
  convolution_param {
    num_output: 256
    pad: 0
    kernel_size: 3
    stride: 1
    weight_filler {
      type: "xavier"
    }
    bias_filler {
      type: "constant"
      value: 0
    }
  }
}
layer {
  name: "conv8_2_relu"
  type: "ReLU"
  bottom: "conv8_2"
  top: "conv8_2"
}
layer {
  name: "conv9_1"
  type: "Convolution"
  bottom: "conv8_2"
  top: "conv9_1"
  param {
    lr_mult: 1
    decay_mult: 1
  }
  param {
    lr_mult: 2
    decay_mult: 0
  }
  convolution_param {
    num_output: 128
    pad: 0
    kernel_size: 1
    stride: 1
    weight_filler {
      type: "xavier"
    }
    bias_filler {
      type: "constant"
      value: 0
    }
  }
}
layer {
  name: "conv9_1_relu"
  type: "ReLU"
  bottom: "conv9_1"
  top: "conv9_1"
}
layer {
  name: "conv9_2"
  type: "Convolution"
  bottom: "conv9_1"
  top: "conv9_2"
  param {
    lr_mult: 1
    decay_mult: 1
  }
  param {
    lr_mult: 2
    decay_mult: 0
  }
  convolution_param {
    num_output: 256
    pad: 0
    kernel_size: 3
    stride: 1
    weight_filler {
      type: "xavier"
    }
    bias_filler {
      type: "constant"
      value: 0
    }
  }
}
layer {
  name: "conv9_2_relu"
  type: "ReLU"
  bottom: "conv9_2"
  top: "conv9_2"
}
layer {
  name: "conv4_3_norm"
  type: "Normalize"
  bottom: "conv4_3"
  top: "conv4_3_norm"
  norm_param {
    across_spatial: false
    scale_filler {
      type: "constant"
      value: 20
    }
    channel_shared: false
  }
}
layer {
  name: "conv4_3_norm_mbox_loc"
  type: "Convolution"
  bottom: "conv4_3_norm"
  top: "conv4_3_norm_mbox_loc"
  param {
    lr_mult: 1
    decay_mult: 1
  }
  param {
    lr_mult: 2
    decay_mult: 0
  }
  convolution_param {
    num_output: 16
    pad: 1
    kernel_size: 3
    stride: 1
    weight_filler {
      type: "xavier"
    }
    bias_filler {
      type: "constant"
      value: 0
    }
  }
}
layer {
  name: "conv4_3_norm_mbox_loc_perm"
  type: "Permute"
  bottom: "conv4_3_norm_mbox_loc"
  top: "conv4_3_norm_mbox_loc_perm"
  permute_param {
    order: 0
    order: 2
    order: 3
    order: 1
  }
}
layer {
  name: "conv4_3_norm_mbox_loc_flat"
  type: "Flatten"
  bottom: "conv4_3_norm_mbox_loc_perm"
  top: "conv4_3_norm_mbox_loc_flat"
  flatten_param {
    axis: 1
  }
}
layer {
  name: "conv4_3_norm_mbox_conf"
  type: "Convolution"
  bottom: "conv4_3_norm"
  top: "conv4_3_norm_mbox_conf"
  param {
    lr_mult: 1
    decay_mult: 1
  }
  param {
    lr_mult: 2
    decay_mult: 0
  }
  convolution_param {
    num_output: 84
    pad: 1
    kernel_size: 3
    stride: 1
    weight_filler {
      type: "xavier"
    }
    bias_filler {
      type: "constant"
      value: 0
    }
  }
}
layer {
  name: "conv4_3_norm_mbox_conf_perm"
  type: "Permute"
  bottom: "conv4_3_norm_mbox_conf"
  top: "conv4_3_norm_mbox_conf_perm"
  permute_param {
    order: 0
    order: 2
    order: 3
    order: 1
  }
}
layer {
  name: "conv4_3_norm_mbox_conf_flat"
  type: "Flatten"
  bottom: "conv4_3_norm_mbox_conf_perm"
  top: "conv4_3_norm_mbox_conf_flat"
  flatten_param {
    axis: 1
  }
}
layer {
  name: "conv4_3_norm_mbox_priorbox"
  type: "PriorBox"
  bottom: "conv4_3_norm"
  bottom: "data"
  top: "conv4_3_norm_mbox_priorbox"
  prior_box_param {
    min_size: 30
    max_size: 60
    aspect_ratio: 2
    flip: true
    clip: false
    variance: 0.1
    variance: 0.1
    variance: 0.2
    variance: 0.2
    step: 8
    offset: 0.5
  }
}
layer {
  name: "fc7_mbox_loc"
  type: "Convolution"
  bottom: "fc7"
  top: "fc7_mbox_loc"
  param {
    lr_mult: 1
    decay_mult: 1
  }
  param {
    lr_mult: 2
    decay_mult: 0
  }
  convolution_param {
    num_output: 24
    pad: 1
    kernel_size: 3
    stride: 1
    weight_filler {
      type: "xavier"
    }
    bias_filler {
      type: "constant"
      value: 0
    }
  }
}
layer {
  name: "fc7_mbox_loc_perm"
  type: "Permute"
  bottom: "fc7_mbox_loc"
  top: "fc7_mbox_loc_perm"
  permute_param {
    order: 0
    order: 2
    order: 3
    order: 1
  }
}
layer {
  name: "fc7_mbox_loc_flat"
  type: "Flatten"
  bottom: "fc7_mbox_loc_perm"
  top: "fc7_mbox_loc_flat"
  flatten_param {
    axis: 1
  }
}
layer {
  name: "fc7_mbox_conf"
  type: "Convolution"
  bottom: "fc7"
  top: "fc7_mbox_conf"
  param {
    lr_mult: 1
    decay_mult: 1
  }
  param {
    lr_mult: 2
    decay_mult: 0
  }
  convolution_param {
    num_output: 126
    pad: 1
    kernel_size: 3
    stride: 1
    weight_filler {
      type: "xavier"
    }
    bias_filler {
      type: "constant"
      value: 0
    }
  }
}
layer {
  name: "fc7_mbox_conf_perm"
  type: "Permute"
  bottom: "fc7_mbox_conf"
  top: "fc7_mbox_conf_perm"
  permute_param {
    order: 0
    order: 2
    order: 3
    order: 1
  }
}
layer {
  name: "fc7_mbox_conf_flat"
  type: "Flatten"
  bottom: "fc7_mbox_conf_perm"
  top: "fc7_mbox_conf_flat"
  flatten_param {
    axis: 1
  }
}
layer {
  name: "fc7_mbox_priorbox"
  type: "PriorBox"
  bottom: "fc7"
  bottom: "data"
  top: "fc7_mbox_priorbox"
  prior_box_param {
    min_size: 60
    max_size: 111
    aspect_ratio: 2
    aspect_ratio: 3
    flip: true
    clip: false
    variance: 0.1
    variance: 0.1
    variance: 0.2
    variance: 0.2
    step: 16
    offset: 0.5
  }
}
layer {
  name: "conv6_2_mbox_loc"
  type: "Convolution"
  bottom: "conv6_2"
  top: "conv6_2_mbox_loc"
  param {
    lr_mult: 1
    decay_mult: 1
  }
  param {
    lr_mult: 2
    decay_mult: 0
  }
  convolution_param {
    num_output: 24
    pad: 1
    kernel_size: 3
    stride: 1
    weight_filler {
      type: "xavier"
    }
    bias_filler {
      type: "constant"
      value: 0
    }
  }
}
layer {
  name: "conv6_2_mbox_loc_perm"
  type: "Permute"
  bottom: "conv6_2_mbox_loc"
  top: "conv6_2_mbox_loc_perm"
  permute_param {
    order: 0
    order: 2
    order: 3
    order: 1
  }
}
layer {
  name: "conv6_2_mbox_loc_flat"
  type: "Flatten"
  bottom: "conv6_2_mbox_loc_perm"
  top: "conv6_2_mbox_loc_flat"
  flatten_param {
    axis: 1
  }
}
layer {
  name: "conv6_2_mbox_conf"
  type: "Convolution"
  bottom: "conv6_2"
  top: "conv6_2_mbox_conf"
  param {
    lr_mult: 1
    decay_mult: 1
  }
  param {
    lr_mult: 2
    decay_mult: 0
  }
  convolution_param {
    num_output: 126
    pad: 1
    kernel_size: 3
    stride: 1
    weight_filler {
      type: "xavier"
    }
    bias_filler {
      type: "constant"
      value: 0
    }
  }
}
layer {
  name: "conv6_2_mbox_conf_perm"
  type: "Permute"
  bottom: "conv6_2_mbox_conf"
  top: "conv6_2_mbox_conf_perm"
  permute_param {
    order: 0
    order: 2
    order: 3
    order: 1
  }
}
layer {
  name: "conv6_2_mbox_conf_flat"
  type: "Flatten"
  bottom: "conv6_2_mbox_conf_perm"
  top: "conv6_2_mbox_conf_flat"
  flatten_param {
    axis: 1
  }
}
layer {
  name: "conv6_2_mbox_priorbox"
  type: "PriorBox"
  bottom: "conv6_2"
  bottom: "data"
  top: "conv6_2_mbox_priorbox"
  prior_box_param {
    min_size: 111
    max_size: 162
    aspect_ratio: 2
    aspect_ratio: 3
    flip: true
    clip: false
    variance: 0.1
    variance: 0.1
    variance: 0.2
    variance: 0.2
    step: 32
    offset: 0.5
  }
}
layer {
  name: "conv7_2_mbox_loc"
  type: "Convolution"
  bottom: "conv7_2"
  top: "conv7_2_mbox_loc"
  param {
    lr_mult: 1
    decay_mult: 1
  }
  param {
    lr_mult: 2
    decay_mult: 0
  }
  convolution_param {
    num_output: 24
    pad: 1
    kernel_size: 3
    stride: 1
    weight_filler {
      type: "xavier"
    }
    bias_filler {
      type: "constant"
      value: 0
    }
  }
}
layer {
  name: "conv7_2_mbox_loc_perm"
  type: "Permute"
  bottom: "conv7_2_mbox_loc"
  top: "conv7_2_mbox_loc_perm"
  permute_param {
    order: 0
    order: 2
    order: 3
    order: 1
  }
}
layer {
  name: "conv7_2_mbox_loc_flat"
  type: "Flatten"
  bottom: "conv7_2_mbox_loc_perm"
  top: "conv7_2_mbox_loc_flat"
  flatten_param {
    axis: 1
  }
}
layer {
  name: "conv7_2_mbox_conf"
  type: "Convolution"
  bottom: "conv7_2"
  top: "conv7_2_mbox_conf"
  param {
    lr_mult: 1
    decay_mult: 1
  }
  param {
    lr_mult: 2
    decay_mult: 0
  }
  convolution_param {
    num_output: 126
    pad: 1
    kernel_size: 3
    stride: 1
    weight_filler {
      type: "xavier"
    }
    bias_filler {
      type: "constant"
      value: 0
    }
  }
}
layer {
  name: "conv7_2_mbox_conf_perm"
  type: "Permute"
  bottom: "conv7_2_mbox_conf"
  top: "conv7_2_mbox_conf_perm"
  permute_param {
    order: 0
    order: 2
    order: 3
    order: 1
  }
}
layer {
  name: "conv7_2_mbox_conf_flat"
  type: "Flatten"
  bottom: "conv7_2_mbox_conf_perm"
  top: "conv7_2_mbox_conf_flat"
  flatten_param {
    axis: 1
  }
}
layer {
  name: "conv7_2_mbox_priorbox"
  type: "PriorBox"
  bottom: "conv7_2"
  bottom: "data"
  top: "conv7_2_mbox_priorbox"
  prior_box_param {
    min_size: 162
    max_size: 213
    aspect_ratio: 2
    aspect_ratio: 3
    flip: true
    clip: false
    variance: 0.1
    variance: 0.1
    variance: 0.2
    variance: 0.2
    step: 64
    offset: 0.5
  }
}
layer {
  name: "conv8_2_mbox_loc"
  type: "Convolution"
  bottom: "conv8_2"
  top: "conv8_2_mbox_loc"
  param {
    lr_mult: 1
    decay_mult: 1
  }
  param {
    lr_mult: 2
    decay_mult: 0
  }
  convolution_param {
    num_output: 16
    pad: 1
    kernel_size: 3
    stride: 1
    weight_filler {
      type: "xavier"
    }
    bias_filler {
      type: "constant"
      value: 0
    }
  }
}
layer {
  name: "conv8_2_mbox_loc_perm"
  type: "Permute"
  bottom: "conv8_2_mbox_loc"
  top: "conv8_2_mbox_loc_perm"
  permute_param {
    order: 0
    order: 2
    order: 3
    order: 1
  }
}
layer {
  name: "conv8_2_mbox_loc_flat"
  type: "Flatten"
  bottom: "conv8_2_mbox_loc_perm"
  top: "conv8_2_mbox_loc_flat"
  flatten_param {
    axis: 1
  }
}
layer {
  name: "conv8_2_mbox_conf"
  type: "Convolution"
  bottom: "conv8_2"
  top: "conv8_2_mbox_conf"
  param {
    lr_mult: 1
    decay_mult: 1
  }
  param {
    lr_mult: 2
    decay_mult: 0
  }
  convolution_param {
    num_output: 84
    pad: 1
    kernel_size: 3
    stride: 1
    weight_filler {
      type: "xavier"
    }
    bias_filler {
      type: "constant"
      value: 0
    }
  }
}
layer {
  name: "conv8_2_mbox_conf_perm"
  type: "Permute"
  bottom: "conv8_2_mbox_conf"
  top: "conv8_2_mbox_conf_perm"
  permute_param {
    order: 0
    order: 2
    order: 3
    order: 1
  }
}
layer {
  name: "conv8_2_mbox_conf_flat"
  type: "Flatten"
  bottom: "conv8_2_mbox_conf_perm"
  top: "conv8_2_mbox_conf_flat"
  flatten_param {
    axis: 1
  }
}
layer {
  name: "conv8_2_mbox_priorbox"
  type: "PriorBox"
  bottom: "conv8_2"
  bottom: "data"
  top: "conv8_2_mbox_priorbox"
  prior_box_param {
    min_size: 213
    max_size: 264
    aspect_ratio: 2
    flip: true
    clip: false
    variance: 0.1
    variance: 0.1
    variance: 0.2
    variance: 0.2
    step: 100
    offset: 0.5
  }
}
layer {
  name: "conv9_2_mbox_loc"
  type: "Convolution"
  bottom: "conv9_2"
  top: "conv9_2_mbox_loc"
  param {
    lr_mult: 1
    decay_mult: 1
  }
  param {
    lr_mult: 2
    decay_mult: 0
  }
  convolution_param {
    num_output: 16
    pad: 1
    kernel_size: 3
    stride: 1
    weight_filler {
      type: "xavier"
    }
    bias_filler {
      type: "constant"
      value: 0
    }
  }
}
layer {
  name: "conv9_2_mbox_loc_perm"
  type: "Permute"
  bottom: "conv9_2_mbox_loc"
  top: "conv9_2_mbox_loc_perm"
  permute_param {
    order: 0
    order: 2
    order: 3
    order: 1
  }
}
layer {
  name: "conv9_2_mbox_loc_flat"
  type: "Flatten"
  bottom: "conv9_2_mbox_loc_perm"
  top: "conv9_2_mbox_loc_flat"
  flatten_param {
    axis: 1
  }
}
layer {
  name: "conv9_2_mbox_conf"
  type: "Convolution"
  bottom: "conv9_2"
  top: "conv9_2_mbox_conf"
  param {
    lr_mult: 1
    decay_mult: 1
  }
  param {
    lr_mult: 2
    decay_mult: 0
  }
  convolution_param {
    num_output: 84
    pad: 1
    kernel_size: 3
    stride: 1
    weight_filler {
      type: "xavier"
    }
    bias_filler {
      type: "constant"
      value: 0
    }
  }
}
layer {
  name: "conv9_2_mbox_conf_perm"
  type: "Permute"
  bottom: "conv9_2_mbox_conf"
  top: "conv9_2_mbox_conf_perm"
  permute_param {
    order: 0
    order: 2
    order: 3
    order: 1
  }
}
layer {
  name: "conv9_2_mbox_conf_flat"
  type: "Flatten"
  bottom: "conv9_2_mbox_conf_perm"
  top: "conv9_2_mbox_conf_flat"
  flatten_param {
    axis: 1
  }
}
layer {
  name: "conv9_2_mbox_priorbox"
  type: "PriorBox"
  bottom: "conv9_2"
  bottom: "data"
  top: "conv9_2_mbox_priorbox"
  prior_box_param {
    min_size: 264
    max_size: 315
    aspect_ratio: 2
    flip: true
    clip: false
    variance: 0.1
    variance: 0.1
    variance: 0.2
    variance: 0.2
    step: 300
    offset: 0.5
  }
}
layer {
  name: "mbox_loc"
  type: "Concat"
  bottom: "conv4_3_norm_mbox_loc_flat"
  bottom: "fc7_mbox_loc_flat"
  bottom: "conv6_2_mbox_loc_flat"
  bottom: "conv7_2_mbox_loc_flat"
  bottom: "conv8_2_mbox_loc_flat"
  bottom: "conv9_2_mbox_loc_flat"
  top: "mbox_loc"
  concat_param {
    axis: 1
  }
}
layer {
  name: "mbox_conf"
  type: "Concat"
  bottom: "conv4_3_norm_mbox_conf_flat"
  bottom: "fc7_mbox_conf_flat"
  bottom: "conv6_2_mbox_conf_flat"
  bottom: "conv7_2_mbox_conf_flat"
  bottom: "conv8_2_mbox_conf_flat"
  bottom: "conv9_2_mbox_conf_flat"
  top: "mbox_conf"
  concat_param {
    axis: 1
  }
}
layer {
  name: "mbox_priorbox"
  type: "Concat"
  bottom: "conv4_3_norm_mbox_priorbox"
  bottom: "fc7_mbox_priorbox"
  bottom: "conv6_2_mbox_priorbox"
  bottom: "conv7_2_mbox_priorbox"
  bottom: "conv8_2_mbox_priorbox"
  bottom: "conv9_2_mbox_priorbox"
  top: "mbox_priorbox"
  concat_param {
    axis: 2
  }
}
layer {
  name: "mbox_loss"
  type: "MultiBoxLoss"
  bottom: "mbox_loc"
  bottom: "mbox_conf"
  bottom: "mbox_priorbox"
  bottom: "label"
  top: "mbox_loss"
  include {
    phase: TRAIN
  }
  propagate_down: true
  propagate_down: true
  propagate_down: false
  propagate_down: false
  loss_param {
    normalization: VALID
  }
  multibox_loss_param {
    loc_loss_type: SMOOTH_L1
    conf_loss_type: SOFTMAX
    loc_weight: 1
    num_classes: 21
    share_location: true
    match_type: PER_PREDICTION
    overlap_threshold: 0.5
    use_prior_for_matching: true
    background_label_id: 0
    use_difficult_gt: true
    neg_pos_ratio: 3
    neg_overlap: 0.5
    code_type: CENTER_SIZE
    ignore_cross_boundary_bbox: false
    mining_type: MAX_NEGATIVE
  }
}
I0726 06:57:17.117556 51095 layer_factory.hpp:77] Creating layer data
I0726 06:57:17.119930 51120 db_lmdb.cpp:35] Opened lmdb examples/VOC0712/VOC0712_trainval_lmdb
I0726 06:57:17.121112 51095 layer_factory.hpp:77] Creating layer data
I0726 06:57:17.121270 51095 net.cpp:92] Creating Layer data
I0726 06:57:17.121315 51095 net.cpp:444] data -> data
I0726 06:57:17.121387 51095 net.cpp:444] data -> label
I0726 06:57:17.124521 51121 db_lmdb.cpp:35] Opened lmdb examples/VOC0712/VOC0712_trainval_lmdb
I0726 06:57:17.164872 51095 annotated_data_layer.cpp:62] output data size: 32,3,300,300
I0726 06:57:17.198240 51095 net.cpp:142] Setting up data
I0726 06:57:17.198321 51095 net.cpp:149] Top shape: 32 3 300 300 (8640000)
I0726 06:57:17.198436 51095 net.cpp:149] Top shape: 1 1 2 8 (16)
I0726 06:57:17.198453 51095 net.cpp:157] Memory required for data: 34560064
I0726 06:57:17.198552 51095 layer_factory.hpp:77] Creating layer data_data_0_split
I0726 06:57:17.198602 51095 layer_factory.hpp:77] Creating layer data_data_0_split
I0726 06:57:17.198837 51095 net.cpp:92] Creating Layer data_data_0_split
I0726 06:57:17.198881 51095 net.cpp:470] data_data_0_split <- data
I0726 06:57:17.199002 51095 net.cpp:444] data_data_0_split -> data_data_0_split_0
I0726 06:57:17.199092 51095 net.cpp:444] data_data_0_split -> data_data_0_split_1
I0726 06:57:17.199299 51095 net.cpp:444] data_data_0_split -> data_data_0_split_2
I0726 06:57:17.199430 51095 net.cpp:444] data_data_0_split -> data_data_0_split_3
I0726 06:57:17.199605 51095 net.cpp:444] data_data_0_split -> data_data_0_split_4
I0726 06:57:17.199704 51095 net.cpp:444] data_data_0_split -> data_data_0_split_5
I0726 06:57:17.199800 51095 net.cpp:444] data_data_0_split -> data_data_0_split_6
I0726 06:57:17.200006 51095 net.cpp:142] Setting up data_data_0_split
I0726 06:57:17.200141 51095 net.cpp:149] Top shape: 32 3 300 300 (8640000)
I0726 06:57:17.200321 51095 net.cpp:149] Top shape: 32 3 300 300 (8640000)
I0726 06:57:17.200492 51095 net.cpp:149] Top shape: 32 3 300 300 (8640000)
I0726 06:57:17.200561 51095 net.cpp:149] Top shape: 32 3 300 300 (8640000)
I0726 06:57:17.200722 51095 net.cpp:149] Top shape: 32 3 300 300 (8640000)
I0726 06:57:17.200785 51095 net.cpp:149] Top shape: 32 3 300 300 (8640000)
I0726 06:57:17.200929 51095 net.cpp:149] Top shape: 32 3 300 300 (8640000)
I0726 06:57:17.201104 51095 net.cpp:157] Memory required for data: 276480064
I0726 06:57:17.201339 51095 layer_factory.hpp:77] Creating layer conv1_1
I0726 06:57:17.201627 51095 layer_factory.hpp:77] Creating layer conv1_1
I0726 06:57:17.201933 51095 net.cpp:92] Creating Layer conv1_1
I0726 06:57:17.202028 51095 net.cpp:470] conv1_1 <- data_data_0_split_0
I0726 06:57:17.202221 51095 net.cpp:444] conv1_1 -> conv1_1
I0726 06:57:17.202806 51095 net.cpp:142] Setting up conv1_1
I0726 06:57:17.202955 51095 net.cpp:149] Top shape: 32 64 300 300 (184320000)
I0726 06:57:17.203171 51095 net.cpp:157] Memory required for data: 1013760064
I0726 06:57:17.203279 51095 layer_factory.hpp:77] Creating layer relu1_1
I0726 06:57:17.203332 51095 layer_factory.hpp:77] Creating layer relu1_1
I0726 06:57:17.203392 51095 net.cpp:92] Creating Layer relu1_1
I0726 06:57:17.203544 51095 net.cpp:470] relu1_1 <- conv1_1
I0726 06:57:17.203670 51095 net.cpp:431] relu1_1 -> conv1_1 (in-place)
I0726 06:57:17.203769 51095 net.cpp:142] Setting up relu1_1
I0726 06:57:17.204098 51095 net.cpp:149] Top shape: 32 64 300 300 (184320000)
I0726 06:57:17.204219 51095 net.cpp:157] Memory required for data: 1751040064
I0726 06:57:17.204288 51095 layer_factory.hpp:77] Creating layer conv1_2
I0726 06:57:17.204417 51095 layer_factory.hpp:77] Creating layer conv1_2
I0726 06:57:17.204571 51095 net.cpp:92] Creating Layer conv1_2
I0726 06:57:17.204643 51095 net.cpp:470] conv1_2 <- conv1_1
I0726 06:57:17.204768 51095 net.cpp:444] conv1_2 -> conv1_2
I0726 06:57:17.205304 51095 net.cpp:142] Setting up conv1_2
I0726 06:57:17.205435 51095 net.cpp:149] Top shape: 32 64 300 300 (184320000)
I0726 06:57:17.205512 51095 net.cpp:157] Memory required for data: 2488320064
I0726 06:57:17.205664 51095 layer_factory.hpp:77] Creating layer relu1_2
I0726 06:57:17.205844 51095 layer_factory.hpp:77] Creating layer relu1_2
I0726 06:57:17.205875 51095 net.cpp:92] Creating Layer relu1_2
I0726 06:57:17.206060 51095 net.cpp:470] relu1_2 <- conv1_2
I0726 06:57:17.206159 51095 net.cpp:431] relu1_2 -> conv1_2 (in-place)
I0726 06:57:17.206465 51095 net.cpp:142] Setting up relu1_2
I0726 06:57:17.206516 51095 net.cpp:149] Top shape: 32 64 300 300 (184320000)
I0726 06:57:17.206871 51095 net.cpp:157] Memory required for data: 3225600064
I0726 06:57:17.206924 51095 layer_factory.hpp:77] Creating layer pool1
I0726 06:57:17.207176 51095 layer_factory.hpp:77] Creating layer pool1
I0726 06:57:17.207239 51095 net.cpp:92] Creating Layer pool1
I0726 06:57:17.207392 51095 net.cpp:470] pool1 <- conv1_2
I0726 06:57:17.207527 51095 net.cpp:444] pool1 -> pool1
I0726 06:57:17.209712 51095 net.cpp:142] Setting up pool1
I0726 06:57:17.209774 51095 net.cpp:149] Top shape: 32 64 150 150 (46080000)
I0726 06:57:17.209810 51095 net.cpp:157] Memory required for data: 3409920064
I0726 06:57:17.209828 51095 layer_factory.hpp:77] Creating layer conv2_1
I0726 06:57:17.209990 51095 layer_factory.hpp:77] Creating layer conv2_1
I0726 06:57:17.210161 51095 net.cpp:92] Creating Layer conv2_1
I0726 06:57:17.210220 51095 net.cpp:470] conv2_1 <- pool1
I0726 06:57:17.210355 51095 net.cpp:444] conv2_1 -> conv2_1
I0726 06:57:17.211165 51095 net.cpp:142] Setting up conv2_1
I0726 06:57:17.211441 51095 net.cpp:149] Top shape: 32 128 150 150 (92160000)
I0726 06:57:17.211472 51095 net.cpp:157] Memory required for data: 3778560064
I0726 06:57:17.211616 51095 layer_factory.hpp:77] Creating layer relu2_1
I0726 06:57:17.211984 51095 layer_factory.hpp:77] Creating layer relu2_1
I0726 06:57:17.212052 51095 net.cpp:92] Creating Layer relu2_1
I0726 06:57:17.212085 51095 net.cpp:470] relu2_1 <- conv2_1
I0726 06:57:17.212268 51095 net.cpp:431] relu2_1 -> conv2_1 (in-place)
I0726 06:57:17.212322 51095 net.cpp:142] Setting up relu2_1
I0726 06:57:17.212548 51095 net.cpp:149] Top shape: 32 128 150 150 (92160000)
I0726 06:57:17.212664 51095 net.cpp:157] Memory required for data: 4147200064
I0726 06:57:17.212885 51095 layer_factory.hpp:77] Creating layer conv2_2
I0726 06:57:17.213006 51095 layer_factory.hpp:77] Creating layer conv2_2
I0726 06:57:17.213110 51095 net.cpp:92] Creating Layer conv2_2
I0726 06:57:17.213223 51095 net.cpp:470] conv2_2 <- conv2_1
I0726 06:57:17.213308 51095 net.cpp:444] conv2_2 -> conv2_2
I0726 06:57:17.214169 51095 net.cpp:142] Setting up conv2_2
I0726 06:57:17.214380 51095 net.cpp:149] Top shape: 32 128 150 150 (92160000)
I0726 06:57:17.214457 51095 net.cpp:157] Memory required for data: 4515840064
I0726 06:57:17.214529 51095 layer_factory.hpp:77] Creating layer relu2_2
I0726 06:57:17.214960 51095 layer_factory.hpp:77] Creating layer relu2_2
I0726 06:57:17.215245 51095 net.cpp:92] Creating Layer relu2_2
I0726 06:57:17.215343 51095 net.cpp:470] relu2_2 <- conv2_2
I0726 06:57:17.215613 51095 net.cpp:431] relu2_2 -> conv2_2 (in-place)
I0726 06:57:17.215739 51095 net.cpp:142] Setting up relu2_2
I0726 06:57:17.215775 51095 net.cpp:149] Top shape: 32 128 150 150 (92160000)
I0726 06:57:17.215905 51095 net.cpp:157] Memory required for data: 4884480064
I0726 06:57:17.216099 51095 layer_factory.hpp:77] Creating layer pool2
I0726 06:57:17.216189 51095 layer_factory.hpp:77] Creating layer pool2
I0726 06:57:17.216329 51095 net.cpp:92] Creating Layer pool2
I0726 06:57:17.216428 51095 net.cpp:470] pool2 <- conv2_2
I0726 06:57:17.216612 51095 net.cpp:444] pool2 -> pool2
I0726 06:57:17.217031 51095 net.cpp:142] Setting up pool2
I0726 06:57:17.217180 51095 net.cpp:149] Top shape: 32 128 75 75 (23040000)
I0726 06:57:17.217337 51095 net.cpp:157] Memory required for data: 4976640064
I0726 06:57:17.217589 51095 layer_factory.hpp:77] Creating layer conv3_1
I0726 06:57:17.217730 51095 layer_factory.hpp:77] Creating layer conv3_1
I0726 06:57:17.217895 51095 net.cpp:92] Creating Layer conv3_1
I0726 06:57:17.217949 51095 net.cpp:470] conv3_1 <- pool2
I0726 06:57:17.218093 51095 net.cpp:444] conv3_1 -> conv3_1
I0726 06:57:17.220862 51095 net.cpp:142] Setting up conv3_1
I0726 06:57:17.220952 51095 net.cpp:149] Top shape: 32 256 75 75 (46080000)
I0726 06:57:17.221002 51095 net.cpp:157] Memory required for data: 5160960064
I0726 06:57:17.221042 51095 layer_factory.hpp:77] Creating layer relu3_1
I0726 06:57:17.221132 51095 layer_factory.hpp:77] Creating layer relu3_1
I0726 06:57:17.221246 51095 net.cpp:92] Creating Layer relu3_1
I0726 06:57:17.221282 51095 net.cpp:470] relu3_1 <- conv3_1
I0726 06:57:17.221357 51095 net.cpp:431] relu3_1 -> conv3_1 (in-place)
I0726 06:57:17.221411 51095 net.cpp:142] Setting up relu3_1
I0726 06:57:17.221529 51095 net.cpp:149] Top shape: 32 256 75 75 (46080000)
I0726 06:57:17.221654 51095 net.cpp:157] Memory required for data: 5345280064
I0726 06:57:17.221835 51095 layer_factory.hpp:77] Creating layer conv3_2
I0726 06:57:17.221997 51095 layer_factory.hpp:77] Creating layer conv3_2
I0726 06:57:17.222182 51095 net.cpp:92] Creating Layer conv3_2
I0726 06:57:17.222271 51095 net.cpp:470] conv3_2 <- conv3_1
I0726 06:57:17.222398 51095 net.cpp:444] conv3_2 -> conv3_2
I0726 06:57:17.226080 51095 net.cpp:142] Setting up conv3_2
I0726 06:57:17.226135 51095 net.cpp:149] Top shape: 32 256 75 75 (46080000)
I0726 06:57:17.226161 51095 net.cpp:157] Memory required for data: 5529600064
I0726 06:57:17.226181 51095 layer_factory.hpp:77] Creating layer relu3_2
I0726 06:57:17.226202 51095 layer_factory.hpp:77] Creating layer relu3_2
I0726 06:57:17.226279 51095 net.cpp:92] Creating Layer relu3_2
I0726 06:57:17.226346 51095 net.cpp:470] relu3_2 <- conv3_2
I0726 06:57:17.226426 51095 net.cpp:431] relu3_2 -> conv3_2 (in-place)
I0726 06:57:17.226467 51095 net.cpp:142] Setting up relu3_2
I0726 06:57:17.226927 51095 net.cpp:149] Top shape: 32 256 75 75 (46080000)
I0726 06:57:17.227047 51095 net.cpp:157] Memory required for data: 5713920064
I0726 06:57:17.227088 51095 layer_factory.hpp:77] Creating layer conv3_3
I0726 06:57:17.227255 51095 layer_factory.hpp:77] Creating layer conv3_3
I0726 06:57:17.227427 51095 net.cpp:92] Creating Layer conv3_3
I0726 06:57:17.227556 51095 net.cpp:470] conv3_3 <- conv3_2
I0726 06:57:17.227615 51095 net.cpp:444] conv3_3 -> conv3_3
I0726 06:57:17.231609 51095 net.cpp:142] Setting up conv3_3
I0726 06:57:17.231673 51095 net.cpp:149] Top shape: 32 256 75 75 (46080000)
I0726 06:57:17.231712 51095 net.cpp:157] Memory required for data: 5898240064
I0726 06:57:17.231745 51095 layer_factory.hpp:77] Creating layer relu3_3
I0726 06:57:17.231784 51095 layer_factory.hpp:77] Creating layer relu3_3
I0726 06:57:17.231861 51095 net.cpp:92] Creating Layer relu3_3
I0726 06:57:17.231915 51095 net.cpp:470] relu3_3 <- conv3_3
I0726 06:57:17.232010 51095 net.cpp:431] relu3_3 -> conv3_3 (in-place)
I0726 06:57:17.232141 51095 net.cpp:142] Setting up relu3_3
I0726 06:57:17.232357 51095 net.cpp:149] Top shape: 32 256 75 75 (46080000)
I0726 06:57:17.232442 51095 net.cpp:157] Memory required for data: 6082560064
I0726 06:57:17.232509 51095 layer_factory.hpp:77] Creating layer pool3
I0726 06:57:17.232585 51095 layer_factory.hpp:77] Creating layer pool3
I0726 06:57:17.233697 51095 net.cpp:92] Creating Layer pool3
I0726 06:57:17.233836 51095 net.cpp:470] pool3 <- conv3_3
I0726 06:57:17.234004 51095 net.cpp:444] pool3 -> pool3
I0726 06:57:17.235016 51095 net.cpp:142] Setting up pool3
I0726 06:57:17.235241 51095 net.cpp:149] Top shape: 32 256 38 38 (11829248)
I0726 06:57:17.235291 51095 net.cpp:157] Memory required for data: 6129877056
I0726 06:57:17.235399 51095 layer_factory.hpp:77] Creating layer conv4_1
I0726 06:57:17.235885 51095 layer_factory.hpp:77] Creating layer conv4_1
I0726 06:57:17.236029 51095 net.cpp:92] Creating Layer conv4_1
I0726 06:57:17.236065 51095 net.cpp:470] conv4_1 <- pool3
I0726 06:57:17.236254 51095 net.cpp:444] conv4_1 -> conv4_1
I0726 06:57:17.243582 51095 net.cpp:142] Setting up conv4_1
I0726 06:57:17.243619 51095 net.cpp:149] Top shape: 32 512 38 38 (23658496)
I0726 06:57:17.243628 51095 net.cpp:157] Memory required for data: 6224511040
I0726 06:57:17.243647 51095 layer_factory.hpp:77] Creating layer relu4_1
I0726 06:57:17.243712 51095 layer_factory.hpp:77] Creating layer relu4_1
I0726 06:57:17.243744 51095 net.cpp:92] Creating Layer relu4_1
I0726 06:57:17.243789 51095 net.cpp:470] relu4_1 <- conv4_1
I0726 06:57:17.243847 51095 net.cpp:431] relu4_1 -> conv4_1 (in-place)
I0726 06:57:17.243906 51095 net.cpp:142] Setting up relu4_1
I0726 06:57:17.244010 51095 net.cpp:149] Top shape: 32 512 38 38 (23658496)
I0726 06:57:17.244065 51095 net.cpp:157] Memory required for data: 6319145024
I0726 06:57:17.244163 51095 layer_factory.hpp:77] Creating layer conv4_2
I0726 06:57:17.244230 51095 layer_factory.hpp:77] Creating layer conv4_2
I0726 06:57:17.244307 51095 net.cpp:92] Creating Layer conv4_2
I0726 06:57:17.244442 51095 net.cpp:470] conv4_2 <- conv4_1
I0726 06:57:17.244514 51095 net.cpp:444] conv4_2 -> conv4_2
I0726 06:57:17.255575 51095 net.cpp:142] Setting up conv4_2
I0726 06:57:17.255610 51095 net.cpp:149] Top shape: 32 512 38 38 (23658496)
I0726 06:57:17.255623 51095 net.cpp:157] Memory required for data: 6413779008
I0726 06:57:17.255652 51095 layer_factory.hpp:77] Creating layer relu4_2
I0726 06:57:17.255697 51095 layer_factory.hpp:77] Creating layer relu4_2
I0726 06:57:17.255715 51095 net.cpp:92] Creating Layer relu4_2
I0726 06:57:17.255745 51095 net.cpp:470] relu4_2 <- conv4_2
I0726 06:57:17.255826 51095 net.cpp:431] relu4_2 -> conv4_2 (in-place)
I0726 06:57:17.255867 51095 net.cpp:142] Setting up relu4_2
I0726 06:57:17.255930 51095 net.cpp:149] Top shape: 32 512 38 38 (23658496)
I0726 06:57:17.255970 51095 net.cpp:157] Memory required for data: 6508412992
I0726 06:57:17.256033 51095 layer_factory.hpp:77] Creating layer conv4_3
I0726 06:57:17.256119 51095 layer_factory.hpp:77] Creating layer conv4_3
I0726 06:57:17.256209 51095 net.cpp:92] Creating Layer conv4_3
I0726 06:57:17.256276 51095 net.cpp:470] conv4_3 <- conv4_2
I0726 06:57:17.256412 51095 net.cpp:444] conv4_3 -> conv4_3
I0726 06:57:17.267858 51095 net.cpp:142] Setting up conv4_3
I0726 06:57:17.267916 51095 net.cpp:149] Top shape: 32 512 38 38 (23658496)
I0726 06:57:17.267943 51095 net.cpp:157] Memory required for data: 6603046976
I0726 06:57:17.267966 51095 layer_factory.hpp:77] Creating layer relu4_3
I0726 06:57:17.268015 51095 layer_factory.hpp:77] Creating layer relu4_3
I0726 06:57:17.268085 51095 net.cpp:92] Creating Layer relu4_3
I0726 06:57:17.268142 51095 net.cpp:470] relu4_3 <- conv4_3
I0726 06:57:17.268241 51095 net.cpp:431] relu4_3 -> conv4_3 (in-place)
I0726 06:57:17.268296 51095 net.cpp:142] Setting up relu4_3
I0726 06:57:17.268412 51095 net.cpp:149] Top shape: 32 512 38 38 (23658496)
I0726 06:57:17.268512 51095 net.cpp:157] Memory required for data: 6697680960
I0726 06:57:17.268736 51095 layer_factory.hpp:77] Creating layer conv4_3_relu4_3_0_split
I0726 06:57:17.268925 51095 layer_factory.hpp:77] Creating layer conv4_3_relu4_3_0_split
I0726 06:57:17.269170 51095 net.cpp:92] Creating Layer conv4_3_relu4_3_0_split
I0726 06:57:17.269227 51095 net.cpp:470] conv4_3_relu4_3_0_split <- conv4_3
I0726 06:57:17.269461 51095 net.cpp:444] conv4_3_relu4_3_0_split -> conv4_3_relu4_3_0_split_0
I0726 06:57:17.269610 51095 net.cpp:444] conv4_3_relu4_3_0_split -> conv4_3_relu4_3_0_split_1
I0726 06:57:17.269934 51095 net.cpp:142] Setting up conv4_3_relu4_3_0_split
I0726 06:57:17.270051 51095 net.cpp:149] Top shape: 32 512 38 38 (23658496)
I0726 06:57:17.270114 51095 net.cpp:149] Top shape: 32 512 38 38 (23658496)
I0726 06:57:17.270222 51095 net.cpp:157] Memory required for data: 6886948928
I0726 06:57:17.270285 51095 layer_factory.hpp:77] Creating layer pool4
I0726 06:57:17.270551 51095 layer_factory.hpp:77] Creating layer pool4
I0726 06:57:17.270965 51095 net.cpp:92] Creating Layer pool4
I0726 06:57:17.271028 51095 net.cpp:470] pool4 <- conv4_3_relu4_3_0_split_0
I0726 06:57:17.271095 51095 net.cpp:444] pool4 -> pool4
I0726 06:57:17.271420 51095 net.cpp:142] Setting up pool4
I0726 06:57:17.271487 51095 net.cpp:149] Top shape: 32 512 19 19 (5914624)
I0726 06:57:17.271541 51095 net.cpp:157] Memory required for data: 6910607424
I0726 06:57:17.271595 51095 layer_factory.hpp:77] Creating layer conv5_1
I0726 06:57:17.271834 51095 layer_factory.hpp:77] Creating layer conv5_1
I0726 06:57:17.272086 51095 net.cpp:92] Creating Layer conv5_1
I0726 06:57:17.272145 51095 net.cpp:470] conv5_1 <- pool4
I0726 06:57:17.272248 51095 net.cpp:444] conv5_1 -> conv5_1
I0726 06:57:17.283565 51095 net.cpp:142] Setting up conv5_1
I0726 06:57:17.283623 51095 net.cpp:149] Top shape: 32 512 19 19 (5914624)
I0726 06:57:17.283650 51095 net.cpp:157] Memory required for data: 6934265920
I0726 06:57:17.283673 51095 layer_factory.hpp:77] Creating layer relu5_1
I0726 06:57:17.283722 51095 layer_factory.hpp:77] Creating layer relu5_1
I0726 06:57:17.283785 51095 net.cpp:92] Creating Layer relu5_1
I0726 06:57:17.283921 51095 net.cpp:470] relu5_1 <- conv5_1
I0726 06:57:17.283984 51095 net.cpp:431] relu5_1 -> conv5_1 (in-place)
I0726 06:57:17.284092 51095 net.cpp:142] Setting up relu5_1
I0726 06:57:17.284142 51095 net.cpp:149] Top shape: 32 512 19 19 (5914624)
I0726 06:57:17.284303 51095 net.cpp:157] Memory required for data: 6957924416
I0726 06:57:17.284435 51095 layer_factory.hpp:77] Creating layer conv5_2
I0726 06:57:17.284605 51095 layer_factory.hpp:77] Creating layer conv5_2
I0726 06:57:17.284759 51095 net.cpp:92] Creating Layer conv5_2
I0726 06:57:17.284867 51095 net.cpp:470] conv5_2 <- conv5_1
I0726 06:57:17.285037 51095 net.cpp:444] conv5_2 -> conv5_2
I0726 06:57:17.296279 51095 net.cpp:142] Setting up conv5_2
I0726 06:57:17.296317 51095 net.cpp:149] Top shape: 32 512 19 19 (5914624)
I0726 06:57:17.296331 51095 net.cpp:157] Memory required for data: 6981582912
I0726 06:57:17.296345 51095 layer_factory.hpp:77] Creating layer relu5_2
I0726 06:57:17.296368 51095 layer_factory.hpp:77] Creating layer relu5_2
I0726 06:57:17.296408 51095 net.cpp:92] Creating Layer relu5_2
I0726 06:57:17.296435 51095 net.cpp:470] relu5_2 <- conv5_2
I0726 06:57:17.296507 51095 net.cpp:431] relu5_2 -> conv5_2 (in-place)
I0726 06:57:17.296543 51095 net.cpp:142] Setting up relu5_2
I0726 06:57:17.296588 51095 net.cpp:149] Top shape: 32 512 19 19 (5914624)
I0726 06:57:17.296638 51095 net.cpp:157] Memory required for data: 7005241408
I0726 06:57:17.296723 51095 layer_factory.hpp:77] Creating layer conv5_3
I0726 06:57:17.296800 51095 layer_factory.hpp:77] Creating layer conv5_3
I0726 06:57:17.296881 51095 net.cpp:92] Creating Layer conv5_3
I0726 06:57:17.296975 51095 net.cpp:470] conv5_3 <- conv5_2
I0726 06:57:17.297075 51095 net.cpp:444] conv5_3 -> conv5_3
I0726 06:57:17.308034 51095 net.cpp:142] Setting up conv5_3
I0726 06:57:17.308075 51095 net.cpp:149] Top shape: 32 512 19 19 (5914624)
I0726 06:57:17.308089 51095 net.cpp:157] Memory required for data: 7028899904
I0726 06:57:17.308104 51095 layer_factory.hpp:77] Creating layer relu5_3
I0726 06:57:17.308125 51095 layer_factory.hpp:77] Creating layer relu5_3
I0726 06:57:17.308176 51095 net.cpp:92] Creating Layer relu5_3
I0726 06:57:17.308202 51095 net.cpp:470] relu5_3 <- conv5_3
I0726 06:57:17.308244 51095 net.cpp:431] relu5_3 -> conv5_3 (in-place)
I0726 06:57:17.308343 51095 net.cpp:142] Setting up relu5_3
I0726 06:57:17.308357 51095 net.cpp:149] Top shape: 32 512 19 19 (5914624)
I0726 06:57:17.308439 51095 net.cpp:157] Memory required for data: 7052558400
I0726 06:57:17.308506 51095 layer_factory.hpp:77] Creating layer pool5
I0726 06:57:17.308573 51095 layer_factory.hpp:77] Creating layer pool5
I0726 06:57:17.308636 51095 net.cpp:92] Creating Layer pool5
I0726 06:57:17.308681 51095 net.cpp:470] pool5 <- conv5_3
I0726 06:57:17.308799 51095 net.cpp:444] pool5 -> pool5
I0726 06:57:17.308897 51095 net.cpp:142] Setting up pool5
I0726 06:57:17.309001 51095 net.cpp:149] Top shape: 32 512 19 19 (5914624)
I0726 06:57:17.309064 51095 net.cpp:157] Memory required for data: 7076216896
I0726 06:57:17.309092 51095 layer_factory.hpp:77] Creating layer fc6
I0726 06:57:17.309114 51095 layer_factory.hpp:77] Creating layer fc6
I0726 06:57:17.309312 51095 net.cpp:92] Creating Layer fc6
I0726 06:57:17.309379 51095 net.cpp:470] fc6 <- pool5
I0726 06:57:17.309582 51095 net.cpp:444] fc6 -> fc6
I0726 06:57:17.331063 51095 net.cpp:142] Setting up fc6
I0726 06:57:17.331122 51095 net.cpp:149] Top shape: 32 1024 19 19 (11829248)
I0726 06:57:17.331149 51095 net.cpp:157] Memory required for data: 7123533888
I0726 06:57:17.331171 51095 layer_factory.hpp:77] Creating layer relu6
I0726 06:57:17.331254 51095 layer_factory.hpp:77] Creating layer relu6
I0726 06:57:17.331344 51095 net.cpp:92] Creating Layer relu6
I0726 06:57:17.331372 51095 net.cpp:470] relu6 <- fc6
I0726 06:57:17.331447 51095 net.cpp:431] relu6 -> fc6 (in-place)
I0726 06:57:17.331524 51095 net.cpp:142] Setting up relu6
I0726 06:57:17.331624 51095 net.cpp:149] Top shape: 32 1024 19 19 (11829248)
I0726 06:57:17.331717 51095 net.cpp:157] Memory required for data: 7170850880
I0726 06:57:17.331979 51095 layer_factory.hpp:77] Creating layer fc7
I0726 06:57:17.332159 51095 layer_factory.hpp:77] Creating layer fc7
I0726 06:57:17.332239 51095 net.cpp:92] Creating Layer fc7
I0726 06:57:17.332289 51095 net.cpp:470] fc7 <- fc6
I0726 06:57:17.332334 51095 net.cpp:444] fc7 -> fc7
I0726 06:57:17.337700 51095 net.cpp:142] Setting up fc7
I0726 06:57:17.337740 51095 net.cpp:149] Top shape: 32 1024 19 19 (11829248)
I0726 06:57:17.337754 51095 net.cpp:157] Memory required for data: 7218167872
I0726 06:57:17.337772 51095 layer_factory.hpp:77] Creating layer relu7
I0726 06:57:17.337813 51095 layer_factory.hpp:77] Creating layer relu7
I0726 06:57:17.337934 51095 net.cpp:92] Creating Layer relu7
I0726 06:57:17.337970 51095 net.cpp:470] relu7 <- fc7
I0726 06:57:17.338065 51095 net.cpp:431] relu7 -> fc7 (in-place)
I0726 06:57:17.338105 51095 net.cpp:142] Setting up relu7
I0726 06:57:17.338344 51095 net.cpp:149] Top shape: 32 1024 19 19 (11829248)
I0726 06:57:17.338398 51095 net.cpp:157] Memory required for data: 7265484864
I0726 06:57:17.338461 51095 layer_factory.hpp:77] Creating layer fc7_relu7_0_split
I0726 06:57:17.338951 51095 layer_factory.hpp:77] Creating layer fc7_relu7_0_split
I0726 06:57:17.339176 51095 net.cpp:92] Creating Layer fc7_relu7_0_split
I0726 06:57:17.339253 51095 net.cpp:470] fc7_relu7_0_split <- fc7
I0726 06:57:17.339329 51095 net.cpp:444] fc7_relu7_0_split -> fc7_relu7_0_split_0
I0726 06:57:17.339555 51095 net.cpp:444] fc7_relu7_0_split -> fc7_relu7_0_split_1
I0726 06:57:17.339653 51095 net.cpp:444] fc7_relu7_0_split -> fc7_relu7_0_split_2
I0726 06:57:17.339776 51095 net.cpp:444] fc7_relu7_0_split -> fc7_relu7_0_split_3
I0726 06:57:17.340000 51095 net.cpp:142] Setting up fc7_relu7_0_split
I0726 06:57:17.340076 51095 net.cpp:149] Top shape: 32 1024 19 19 (11829248)
I0726 06:57:17.340261 51095 net.cpp:149] Top shape: 32 1024 19 19 (11829248)
I0726 06:57:17.340369 51095 net.cpp:149] Top shape: 32 1024 19 19 (11829248)
I0726 06:57:17.340445 51095 net.cpp:149] Top shape: 32 1024 19 19 (11829248)
I0726 06:57:17.340513 51095 net.cpp:157] Memory required for data: 7454752832
I0726 06:57:17.340607 51095 layer_factory.hpp:77] Creating layer conv6_1
I0726 06:57:17.340751 51095 layer_factory.hpp:77] Creating layer conv6_1
I0726 06:57:17.341030 51095 net.cpp:92] Creating Layer conv6_1
I0726 06:57:17.341102 51095 net.cpp:470] conv6_1 <- fc7_relu7_0_split_0
I0726 06:57:17.341399 51095 net.cpp:444] conv6_1 -> conv6_1
I0726 06:57:17.343308 51095 net.cpp:142] Setting up conv6_1
I0726 06:57:17.343341 51095 net.cpp:149] Top shape: 32 256 19 19 (2957312)
I0726 06:57:17.343354 51095 net.cpp:157] Memory required for data: 7466582080
I0726 06:57:17.343369 51095 layer_factory.hpp:77] Creating layer conv6_1_relu
I0726 06:57:17.343402 51095 layer_factory.hpp:77] Creating layer conv6_1_relu
I0726 06:57:17.343426 51095 net.cpp:92] Creating Layer conv6_1_relu
I0726 06:57:17.343521 51095 net.cpp:470] conv6_1_relu <- conv6_1
I0726 06:57:17.343539 51095 net.cpp:431] conv6_1_relu -> conv6_1 (in-place)
I0726 06:57:17.343652 51095 net.cpp:142] Setting up conv6_1_relu
I0726 06:57:17.343678 51095 net.cpp:149] Top shape: 32 256 19 19 (2957312)
I0726 06:57:17.343741 51095 net.cpp:157] Memory required for data: 7478411328
I0726 06:57:17.343796 51095 layer_factory.hpp:77] Creating layer conv6_2
I0726 06:57:17.343917 51095 layer_factory.hpp:77] Creating layer conv6_2
I0726 06:57:17.344061 51095 net.cpp:92] Creating Layer conv6_2
I0726 06:57:17.344101 51095 net.cpp:470] conv6_2 <- conv6_1
I0726 06:57:17.344382 51095 net.cpp:444] conv6_2 -> conv6_2
I0726 06:57:17.350147 51095 net.cpp:142] Setting up conv6_2
I0726 06:57:17.350201 51095 net.cpp:149] Top shape: 32 512 10 10 (1638400)
I0726 06:57:17.350229 51095 net.cpp:157] Memory required for data: 7484964928
I0726 06:57:17.350278 51095 layer_factory.hpp:77] Creating layer conv6_2_relu
I0726 06:57:17.350355 51095 layer_factory.hpp:77] Creating layer conv6_2_relu
I0726 06:57:17.350391 51095 net.cpp:92] Creating Layer conv6_2_relu
I0726 06:57:17.350499 51095 net.cpp:470] conv6_2_relu <- conv6_2
I0726 06:57:17.350930 51095 net.cpp:431] conv6_2_relu -> conv6_2 (in-place)
I0726 06:57:17.351106 51095 net.cpp:142] Setting up conv6_2_relu
I0726 06:57:17.351164 51095 net.cpp:149] Top shape: 32 512 10 10 (1638400)
I0726 06:57:17.351300 51095 net.cpp:157] Memory required for data: 7491518528
I0726 06:57:17.351502 51095 layer_factory.hpp:77] Creating layer conv6_2_conv6_2_relu_0_split
I0726 06:57:17.351704 51095 layer_factory.hpp:77] Creating layer conv6_2_conv6_2_relu_0_split
I0726 06:57:17.351835 51095 net.cpp:92] Creating Layer conv6_2_conv6_2_relu_0_split
I0726 06:57:17.352047 51095 net.cpp:470] conv6_2_conv6_2_relu_0_split <- conv6_2
I0726 06:57:17.352200 51095 net.cpp:444] conv6_2_conv6_2_relu_0_split -> conv6_2_conv6_2_relu_0_split_0
I0726 06:57:17.352407 51095 net.cpp:444] conv6_2_conv6_2_relu_0_split -> conv6_2_conv6_2_relu_0_split_1
I0726 06:57:17.352493 51095 net.cpp:444] conv6_2_conv6_2_relu_0_split -> conv6_2_conv6_2_relu_0_split_2
I0726 06:57:17.352695 51095 net.cpp:444] conv6_2_conv6_2_relu_0_split -> conv6_2_conv6_2_relu_0_split_3
I0726 06:57:17.353029 51095 net.cpp:142] Setting up conv6_2_conv6_2_relu_0_split
I0726 06:57:17.353221 51095 net.cpp:149] Top shape: 32 512 10 10 (1638400)
I0726 06:57:17.353361 51095 net.cpp:149] Top shape: 32 512 10 10 (1638400)
I0726 06:57:17.353509 51095 net.cpp:149] Top shape: 32 512 10 10 (1638400)
I0726 06:57:17.353636 51095 net.cpp:149] Top shape: 32 512 10 10 (1638400)
I0726 06:57:17.353915 51095 net.cpp:157] Memory required for data: 7517732928
I0726 06:57:17.354252 51095 layer_factory.hpp:77] Creating layer conv7_1
I0726 06:57:17.354315 51095 layer_factory.hpp:77] Creating layer conv7_1
I0726 06:57:17.354423 51095 net.cpp:92] Creating Layer conv7_1
I0726 06:57:17.354576 51095 net.cpp:470] conv7_1 <- conv6_2_conv6_2_relu_0_split_0
I0726 06:57:17.355237 51095 net.cpp:444] conv7_1 -> conv7_1
I0726 06:57:17.355727 51095 net.cpp:142] Setting up conv7_1
I0726 06:57:17.355795 51095 net.cpp:149] Top shape: 32 128 10 10 (409600)
I0726 06:57:17.355934 51095 net.cpp:157] Memory required for data: 7519371328
I0726 06:57:17.356029 51095 layer_factory.hpp:77] Creating layer conv7_1_relu
I0726 06:57:17.356214 51095 layer_factory.hpp:77] Creating layer conv7_1_relu
I0726 06:57:17.356317 51095 net.cpp:92] Creating Layer conv7_1_relu
I0726 06:57:17.356520 51095 net.cpp:470] conv7_1_relu <- conv7_1
I0726 06:57:17.356565 51095 net.cpp:431] conv7_1_relu -> conv7_1 (in-place)
I0726 06:57:17.356642 51095 net.cpp:142] Setting up conv7_1_relu
I0726 06:57:17.356750 51095 net.cpp:149] Top shape: 32 128 10 10 (409600)
I0726 06:57:17.356799 51095 net.cpp:157] Memory required for data: 7521009728
I0726 06:57:17.356830 51095 layer_factory.hpp:77] Creating layer conv7_2
I0726 06:57:17.356907 51095 layer_factory.hpp:77] Creating layer conv7_2
I0726 06:57:17.357028 51095 net.cpp:92] Creating Layer conv7_2
I0726 06:57:17.357079 51095 net.cpp:470] conv7_2 <- conv7_1
I0726 06:57:17.357127 51095 net.cpp:444] conv7_2 -> conv7_2
I0726 06:57:17.359550 51095 net.cpp:142] Setting up conv7_2
I0726 06:57:17.359668 51095 net.cpp:149] Top shape: 32 256 5 5 (204800)
I0726 06:57:17.359712 51095 net.cpp:157] Memory required for data: 7521828928
I0726 06:57:17.359740 51095 layer_factory.hpp:77] Creating layer conv7_2_relu
I0726 06:57:17.359807 51095 layer_factory.hpp:77] Creating layer conv7_2_relu
I0726 06:57:17.359822 51095 net.cpp:92] Creating Layer conv7_2_relu
I0726 06:57:17.359884 51095 net.cpp:470] conv7_2_relu <- conv7_2
I0726 06:57:17.359925 51095 net.cpp:431] conv7_2_relu -> conv7_2 (in-place)
I0726 06:57:17.360002 51095 net.cpp:142] Setting up conv7_2_relu
I0726 06:57:17.360082 51095 net.cpp:149] Top shape: 32 256 5 5 (204800)
I0726 06:57:17.360218 51095 net.cpp:157] Memory required for data: 7522648128
I0726 06:57:17.360366 51095 layer_factory.hpp:77] Creating layer conv7_2_conv7_2_relu_0_split
I0726 06:57:17.360415 51095 layer_factory.hpp:77] Creating layer conv7_2_conv7_2_relu_0_split
I0726 06:57:17.360636 51095 net.cpp:92] Creating Layer conv7_2_conv7_2_relu_0_split
I0726 06:57:17.360730 51095 net.cpp:470] conv7_2_conv7_2_relu_0_split <- conv7_2
I0726 06:57:17.360906 51095 net.cpp:444] conv7_2_conv7_2_relu_0_split -> conv7_2_conv7_2_relu_0_split_0
I0726 06:57:17.360950 51095 net.cpp:444] conv7_2_conv7_2_relu_0_split -> conv7_2_conv7_2_relu_0_split_1
I0726 06:57:17.361073 51095 net.cpp:444] conv7_2_conv7_2_relu_0_split -> conv7_2_conv7_2_relu_0_split_2
I0726 06:57:17.361126 51095 net.cpp:444] conv7_2_conv7_2_relu_0_split -> conv7_2_conv7_2_relu_0_split_3
I0726 06:57:17.361549 51095 net.cpp:142] Setting up conv7_2_conv7_2_relu_0_split
I0726 06:57:17.361649 51095 net.cpp:149] Top shape: 32 256 5 5 (204800)
I0726 06:57:17.361706 51095 net.cpp:149] Top shape: 32 256 5 5 (204800)
I0726 06:57:17.361810 51095 net.cpp:149] Top shape: 32 256 5 5 (204800)
I0726 06:57:17.361886 51095 net.cpp:149] Top shape: 32 256 5 5 (204800)
I0726 06:57:17.361927 51095 net.cpp:157] Memory required for data: 7525924928
I0726 06:57:17.362107 51095 layer_factory.hpp:77] Creating layer conv8_1
I0726 06:57:17.362179 51095 layer_factory.hpp:77] Creating layer conv8_1
I0726 06:57:17.362345 51095 net.cpp:92] Creating Layer conv8_1
I0726 06:57:17.362381 51095 net.cpp:470] conv8_1 <- conv7_2_conv7_2_relu_0_split_0
I0726 06:57:17.362471 51095 net.cpp:444] conv8_1 -> conv8_1
I0726 06:57:17.362984 51095 net.cpp:142] Setting up conv8_1
I0726 06:57:17.363061 51095 net.cpp:149] Top shape: 32 128 5 5 (102400)
I0726 06:57:17.363152 51095 net.cpp:157] Memory required for data: 7526334528
I0726 06:57:17.363224 51095 layer_factory.hpp:77] Creating layer conv8_1_relu
I0726 06:57:17.363376 51095 layer_factory.hpp:77] Creating layer conv8_1_relu
I0726 06:57:17.363457 51095 net.cpp:92] Creating Layer conv8_1_relu
I0726 06:57:17.363589 51095 net.cpp:470] conv8_1_relu <- conv8_1
I0726 06:57:17.363741 51095 net.cpp:431] conv8_1_relu -> conv8_1 (in-place)
I0726 06:57:17.363889 51095 net.cpp:142] Setting up conv8_1_relu
I0726 06:57:17.363948 51095 net.cpp:149] Top shape: 32 128 5 5 (102400)
I0726 06:57:17.364053 51095 net.cpp:157] Memory required for data: 7526744128
I0726 06:57:17.364125 51095 layer_factory.hpp:77] Creating layer conv8_2
I0726 06:57:17.364259 51095 layer_factory.hpp:77] Creating layer conv8_2
I0726 06:57:17.364413 51095 net.cpp:92] Creating Layer conv8_2
I0726 06:57:17.364578 51095 net.cpp:470] conv8_2 <- conv8_1
I0726 06:57:17.364889 51095 net.cpp:444] conv8_2 -> conv8_2
I0726 06:57:17.367153 51095 net.cpp:142] Setting up conv8_2
I0726 06:57:17.367208 51095 net.cpp:149] Top shape: 32 256 3 3 (73728)
I0726 06:57:17.367234 51095 net.cpp:157] Memory required for data: 7527039040
I0726 06:57:17.367256 51095 layer_factory.hpp:77] Creating layer conv8_2_relu
I0726 06:57:17.367352 51095 layer_factory.hpp:77] Creating layer conv8_2_relu
I0726 06:57:17.367442 51095 net.cpp:92] Creating Layer conv8_2_relu
I0726 06:57:17.367492 51095 net.cpp:470] conv8_2_relu <- conv8_2
I0726 06:57:17.367614 51095 net.cpp:431] conv8_2_relu -> conv8_2 (in-place)
I0726 06:57:17.367667 51095 net.cpp:142] Setting up conv8_2_relu
I0726 06:57:17.367816 51095 net.cpp:149] Top shape: 32 256 3 3 (73728)
I0726 06:57:17.367866 51095 net.cpp:157] Memory required for data: 7527333952
I0726 06:57:17.367951 51095 layer_factory.hpp:77] Creating layer conv8_2_conv8_2_relu_0_split
I0726 06:57:17.368068 51095 layer_factory.hpp:77] Creating layer conv8_2_conv8_2_relu_0_split
I0726 06:57:17.368162 51095 net.cpp:92] Creating Layer conv8_2_conv8_2_relu_0_split
I0726 06:57:17.368270 51095 net.cpp:470] conv8_2_conv8_2_relu_0_split <- conv8_2
I0726 06:57:17.368405 51095 net.cpp:444] conv8_2_conv8_2_relu_0_split -> conv8_2_conv8_2_relu_0_split_0
I0726 06:57:17.368459 51095 net.cpp:444] conv8_2_conv8_2_relu_0_split -> conv8_2_conv8_2_relu_0_split_1
I0726 06:57:17.368721 51095 net.cpp:444] conv8_2_conv8_2_relu_0_split -> conv8_2_conv8_2_relu_0_split_2
I0726 06:57:17.368770 51095 net.cpp:444] conv8_2_conv8_2_relu_0_split -> conv8_2_conv8_2_relu_0_split_3
I0726 06:57:17.369158 51095 net.cpp:142] Setting up conv8_2_conv8_2_relu_0_split
I0726 06:57:17.369230 51095 net.cpp:149] Top shape: 32 256 3 3 (73728)
I0726 06:57:17.369396 51095 net.cpp:149] Top shape: 32 256 3 3 (73728)
I0726 06:57:17.369527 51095 net.cpp:149] Top shape: 32 256 3 3 (73728)
I0726 06:57:17.369693 51095 net.cpp:149] Top shape: 32 256 3 3 (73728)
I0726 06:57:17.369725 51095 net.cpp:157] Memory required for data: 7528513600
I0726 06:57:17.369807 51095 layer_factory.hpp:77] Creating layer conv9_1
I0726 06:57:17.369918 51095 layer_factory.hpp:77] Creating layer conv9_1
I0726 06:57:17.370121 51095 net.cpp:92] Creating Layer conv9_1
I0726 06:57:17.370288 51095 net.cpp:470] conv9_1 <- conv8_2_conv8_2_relu_0_split_0
I0726 06:57:17.370364 51095 net.cpp:444] conv9_1 -> conv9_1
I0726 06:57:17.371017 51095 net.cpp:142] Setting up conv9_1
I0726 06:57:17.371228 51095 net.cpp:149] Top shape: 32 128 3 3 (36864)
I0726 06:57:17.371318 51095 net.cpp:157] Memory required for data: 7528661056
I0726 06:57:17.371395 51095 layer_factory.hpp:77] Creating layer conv9_1_relu
I0726 06:57:17.371583 51095 layer_factory.hpp:77] Creating layer conv9_1_relu
I0726 06:57:17.371615 51095 net.cpp:92] Creating Layer conv9_1_relu
I0726 06:57:17.371706 51095 net.cpp:470] conv9_1_relu <- conv9_1
I0726 06:57:17.371804 51095 net.cpp:431] conv9_1_relu -> conv9_1 (in-place)
I0726 06:57:17.371948 51095 net.cpp:142] Setting up conv9_1_relu
I0726 06:57:17.372002 51095 net.cpp:149] Top shape: 32 128 3 3 (36864)
I0726 06:57:17.372164 51095 net.cpp:157] Memory required for data: 7528808512
I0726 06:57:17.372295 51095 layer_factory.hpp:77] Creating layer conv9_2
I0726 06:57:17.372520 51095 layer_factory.hpp:77] Creating layer conv9_2
I0726 06:57:17.372709 51095 net.cpp:92] Creating Layer conv9_2
I0726 06:57:17.372939 51095 net.cpp:470] conv9_2 <- conv9_1
I0726 06:57:17.373065 51095 net.cpp:444] conv9_2 -> conv9_2
I0726 06:57:17.375339 51095 net.cpp:142] Setting up conv9_2
I0726 06:57:17.375406 51095 net.cpp:149] Top shape: 32 256 1 1 (8192)
I0726 06:57:17.375424 51095 net.cpp:157] Memory required for data: 7528841280
I0726 06:57:17.375447 51095 layer_factory.hpp:77] Creating layer conv9_2_relu
I0726 06:57:17.375536 51095 layer_factory.hpp:77] Creating layer conv9_2_relu
I0726 06:57:17.375650 51095 net.cpp:92] Creating Layer conv9_2_relu
I0726 06:57:17.375686 51095 net.cpp:470] conv9_2_relu <- conv9_2
I0726 06:57:17.375782 51095 net.cpp:431] conv9_2_relu -> conv9_2 (in-place)
I0726 06:57:17.375830 51095 net.cpp:142] Setting up conv9_2_relu
I0726 06:57:17.375921 51095 net.cpp:149] Top shape: 32 256 1 1 (8192)
I0726 06:57:17.376015 51095 net.cpp:157] Memory required for data: 7528874048
I0726 06:57:17.376042 51095 layer_factory.hpp:77] Creating layer conv9_2_conv9_2_relu_0_split
I0726 06:57:17.376250 51095 layer_factory.hpp:77] Creating layer conv9_2_conv9_2_relu_0_split
I0726 06:57:17.376291 51095 net.cpp:92] Creating Layer conv9_2_conv9_2_relu_0_split
I0726 06:57:17.376389 51095 net.cpp:470] conv9_2_conv9_2_relu_0_split <- conv9_2
I0726 06:57:17.376695 51095 net.cpp:444] conv9_2_conv9_2_relu_0_split -> conv9_2_conv9_2_relu_0_split_0
I0726 06:57:17.376812 51095 net.cpp:444] conv9_2_conv9_2_relu_0_split -> conv9_2_conv9_2_relu_0_split_1
I0726 06:57:17.376920 51095 net.cpp:444] conv9_2_conv9_2_relu_0_split -> conv9_2_conv9_2_relu_0_split_2
I0726 06:57:17.377136 51095 net.cpp:142] Setting up conv9_2_conv9_2_relu_0_split
I0726 06:57:17.377285 51095 net.cpp:149] Top shape: 32 256 1 1 (8192)
I0726 06:57:17.377362 51095 net.cpp:149] Top shape: 32 256 1 1 (8192)
I0726 06:57:17.377446 51095 net.cpp:149] Top shape: 32 256 1 1 (8192)
I0726 06:57:17.377491 51095 net.cpp:157] Memory required for data: 7528972352
I0726 06:57:17.377590 51095 layer_factory.hpp:77] Creating layer conv4_3_norm
I0726 06:57:17.377869 51095 layer_factory.hpp:77] Creating layer conv4_3_norm
I0726 06:57:17.377974 51095 net.cpp:92] Creating Layer conv4_3_norm
I0726 06:57:17.378099 51095 net.cpp:470] conv4_3_norm <- conv4_3_relu4_3_0_split_1
I0726 06:57:17.378337 51095 net.cpp:444] conv4_3_norm -> conv4_3_norm
I0726 06:57:17.378540 51095 net.cpp:142] Setting up conv4_3_norm
I0726 06:57:17.378788 51095 net.cpp:149] Top shape: 32 512 38 38 (23658496)
I0726 06:57:17.378918 51095 net.cpp:157] Memory required for data: 7623606336
I0726 06:57:17.379098 51095 layer_factory.hpp:77] Creating layer conv4_3_norm_conv4_3_norm_0_split
I0726 06:57:17.379215 51095 layer_factory.hpp:77] Creating layer conv4_3_norm_conv4_3_norm_0_split
I0726 06:57:17.379314 51095 net.cpp:92] Creating Layer conv4_3_norm_conv4_3_norm_0_split
I0726 06:57:17.379417 51095 net.cpp:470] conv4_3_norm_conv4_3_norm_0_split <- conv4_3_norm
I0726 06:57:17.379534 51095 net.cpp:444] conv4_3_norm_conv4_3_norm_0_split -> conv4_3_norm_conv4_3_norm_0_split_0
I0726 06:57:17.379683 51095 net.cpp:444] conv4_3_norm_conv4_3_norm_0_split -> conv4_3_norm_conv4_3_norm_0_split_1
I0726 06:57:17.379832 51095 net.cpp:444] conv4_3_norm_conv4_3_norm_0_split -> conv4_3_norm_conv4_3_norm_0_split_2
I0726 06:57:17.379940 51095 net.cpp:142] Setting up conv4_3_norm_conv4_3_norm_0_split
I0726 06:57:17.380020 51095 net.cpp:149] Top shape: 32 512 38 38 (23658496)
I0726 06:57:17.380089 51095 net.cpp:149] Top shape: 32 512 38 38 (23658496)
I0726 06:57:17.380232 51095 net.cpp:149] Top shape: 32 512 38 38 (23658496)
I0726 06:57:17.380286 51095 net.cpp:157] Memory required for data: 7907508288
I0726 06:57:17.380704 51095 layer_factory.hpp:77] Creating layer conv4_3_norm_mbox_loc
I0726 06:57:17.380875 51095 layer_factory.hpp:77] Creating layer conv4_3_norm_mbox_loc
I0726 06:57:17.381060 51095 net.cpp:92] Creating Layer conv4_3_norm_mbox_loc
I0726 06:57:17.381160 51095 net.cpp:470] conv4_3_norm_mbox_loc <- conv4_3_norm_conv4_3_norm_0_split_0
I0726 06:57:17.381366 51095 net.cpp:444] conv4_3_norm_mbox_loc -> conv4_3_norm_mbox_loc
I0726 06:57:17.381856 51095 net.cpp:142] Setting up conv4_3_norm_mbox_loc
I0726 06:57:17.381987 51095 net.cpp:149] Top shape: 32 16 38 38 (739328)
I0726 06:57:17.382041 51095 net.cpp:157] Memory required for data: 7910465600
I0726 06:57:17.382072 51095 layer_factory.hpp:77] Creating layer conv4_3_norm_mbox_loc_perm
I0726 06:57:17.382236 51095 layer_factory.hpp:77] Creating layer conv4_3_norm_mbox_loc_perm
I0726 06:57:17.382361 51095 net.cpp:92] Creating Layer conv4_3_norm_mbox_loc_perm
I0726 06:57:17.382464 51095 net.cpp:470] conv4_3_norm_mbox_loc_perm <- conv4_3_norm_mbox_loc
I0726 06:57:17.382829 51095 net.cpp:444] conv4_3_norm_mbox_loc_perm -> conv4_3_norm_mbox_loc_perm
I0726 06:57:17.383067 51095 net.cpp:142] Setting up conv4_3_norm_mbox_loc_perm
I0726 06:57:17.383107 51095 net.cpp:149] Top shape: 32 38 38 16 (739328)
I0726 06:57:17.383134 51095 net.cpp:157] Memory required for data: 7913422912
I0726 06:57:17.383157 51095 layer_factory.hpp:77] Creating layer conv4_3_norm_mbox_loc_flat
I0726 06:57:17.383265 51095 layer_factory.hpp:77] Creating layer conv4_3_norm_mbox_loc_flat
I0726 06:57:17.383311 51095 net.cpp:92] Creating Layer conv4_3_norm_mbox_loc_flat
I0726 06:57:17.383328 51095 net.cpp:470] conv4_3_norm_mbox_loc_flat <- conv4_3_norm_mbox_loc_perm
I0726 06:57:17.383441 51095 net.cpp:444] conv4_3_norm_mbox_loc_flat -> conv4_3_norm_mbox_loc_flat
I0726 06:57:17.383527 51095 net.cpp:142] Setting up conv4_3_norm_mbox_loc_flat
I0726 06:57:17.383603 51095 net.cpp:149] Top shape: 32 23104 (739328)
I0726 06:57:17.383652 51095 net.cpp:157] Memory required for data: 7916380224
I0726 06:57:17.383895 51095 layer_factory.hpp:77] Creating layer conv4_3_norm_mbox_conf
I0726 06:57:17.384071 51095 layer_factory.hpp:77] Creating layer conv4_3_norm_mbox_conf
I0726 06:57:17.384431 51095 net.cpp:92] Creating Layer conv4_3_norm_mbox_conf
I0726 06:57:17.384620 51095 net.cpp:470] conv4_3_norm_mbox_conf <- conv4_3_norm_conv4_3_norm_0_split_1
I0726 06:57:17.384688 51095 net.cpp:444] conv4_3_norm_mbox_conf -> conv4_3_norm_mbox_conf
I0726 06:57:17.387423 51095 net.cpp:142] Setting up conv4_3_norm_mbox_conf
I0726 06:57:17.387455 51095 net.cpp:149] Top shape: 32 84 38 38 (3881472)
I0726 06:57:17.387468 51095 net.cpp:157] Memory required for data: 7931906112
I0726 06:57:17.387482 51095 layer_factory.hpp:77] Creating layer conv4_3_norm_mbox_conf_perm
I0726 06:57:17.387523 51095 layer_factory.hpp:77] Creating layer conv4_3_norm_mbox_conf_perm
I0726 06:57:17.387583 51095 net.cpp:92] Creating Layer conv4_3_norm_mbox_conf_perm
I0726 06:57:17.387609 51095 net.cpp:470] conv4_3_norm_mbox_conf_perm <- conv4_3_norm_mbox_conf
I0726 06:57:17.387640 51095 net.cpp:444] conv4_3_norm_mbox_conf_perm -> conv4_3_norm_mbox_conf_perm
I0726 06:57:17.387854 51095 net.cpp:142] Setting up conv4_3_norm_mbox_conf_perm
I0726 06:57:17.387894 51095 net.cpp:149] Top shape: 32 38 38 84 (3881472)
I0726 06:57:17.388020 51095 net.cpp:157] Memory required for data: 7947432000
I0726 06:57:17.388242 51095 layer_factory.hpp:77] Creating layer conv4_3_norm_mbox_conf_flat
I0726 06:57:17.388319 51095 layer_factory.hpp:77] Creating layer conv4_3_norm_mbox_conf_flat
I0726 06:57:17.388458 51095 net.cpp:92] Creating Layer conv4_3_norm_mbox_conf_flat
I0726 06:57:17.388530 51095 net.cpp:470] conv4_3_norm_mbox_conf_flat <- conv4_3_norm_mbox_conf_perm
I0726 06:57:17.388677 51095 net.cpp:444] conv4_3_norm_mbox_conf_flat -> conv4_3_norm_mbox_conf_flat
I0726 06:57:17.388866 51095 net.cpp:142] Setting up conv4_3_norm_mbox_conf_flat
I0726 06:57:17.389029 51095 net.cpp:149] Top shape: 32 121296 (3881472)
I0726 06:57:17.389078 51095 net.cpp:157] Memory required for data: 7962957888
I0726 06:57:17.389199 51095 layer_factory.hpp:77] Creating layer conv4_3_norm_mbox_priorbox
I0726 06:57:17.389276 51095 layer_factory.hpp:77] Creating layer conv4_3_norm_mbox_priorbox
I0726 06:57:17.389339 51095 net.cpp:92] Creating Layer conv4_3_norm_mbox_priorbox
I0726 06:57:17.389389 51095 net.cpp:470] conv4_3_norm_mbox_priorbox <- conv4_3_norm_conv4_3_norm_0_split_2
I0726 06:57:17.389487 51095 net.cpp:470] conv4_3_norm_mbox_priorbox <- data_data_0_split_1
I0726 06:57:17.389573 51095 net.cpp:444] conv4_3_norm_mbox_priorbox -> conv4_3_norm_mbox_priorbox
I0726 06:57:17.389910 51095 net.cpp:142] Setting up conv4_3_norm_mbox_priorbox
I0726 06:57:17.389987 51095 net.cpp:149] Top shape: 1 2 23104 (46208)
I0726 06:57:17.390131 51095 net.cpp:157] Memory required for data: 7963142720
I0726 06:57:17.390230 51095 layer_factory.hpp:77] Creating layer fc7_mbox_loc
I0726 06:57:17.390410 51095 layer_factory.hpp:77] Creating layer fc7_mbox_loc
I0726 06:57:17.390590 51095 net.cpp:92] Creating Layer fc7_mbox_loc
I0726 06:57:17.391041 51095 net.cpp:470] fc7_mbox_loc <- fc7_relu7_0_split_1
I0726 06:57:17.391090 51095 net.cpp:444] fc7_mbox_loc -> fc7_mbox_loc
I0726 06:57:17.392269 51095 net.cpp:142] Setting up fc7_mbox_loc
I0726 06:57:17.392300 51095 net.cpp:149] Top shape: 32 24 19 19 (277248)
I0726 06:57:17.392318 51095 net.cpp:157] Memory required for data: 7964251712
I0726 06:57:17.392345 51095 layer_factory.hpp:77] Creating layer fc7_mbox_loc_perm
I0726 06:57:17.392412 51095 layer_factory.hpp:77] Creating layer fc7_mbox_loc_perm
I0726 06:57:17.392439 51095 net.cpp:92] Creating Layer fc7_mbox_loc_perm
I0726 06:57:17.392516 51095 net.cpp:470] fc7_mbox_loc_perm <- fc7_mbox_loc
I0726 06:57:17.392602 51095 net.cpp:444] fc7_mbox_loc_perm -> fc7_mbox_loc_perm
I0726 06:57:17.392822 51095 net.cpp:142] Setting up fc7_mbox_loc_perm
I0726 06:57:17.392881 51095 net.cpp:149] Top shape: 32 19 19 24 (277248)
I0726 06:57:17.392971 51095 net.cpp:157] Memory required for data: 7965360704
I0726 06:57:17.393115 51095 layer_factory.hpp:77] Creating layer fc7_mbox_loc_flat
I0726 06:57:17.393178 51095 layer_factory.hpp:77] Creating layer fc7_mbox_loc_flat
I0726 06:57:17.393344 51095 net.cpp:92] Creating Layer fc7_mbox_loc_flat
I0726 06:57:17.393385 51095 net.cpp:470] fc7_mbox_loc_flat <- fc7_mbox_loc_perm
I0726 06:57:17.393596 51095 net.cpp:444] fc7_mbox_loc_flat -> fc7_mbox_loc_flat
I0726 06:57:17.393836 51095 net.cpp:142] Setting up fc7_mbox_loc_flat
I0726 06:57:17.394101 51095 net.cpp:149] Top shape: 32 8664 (277248)
I0726 06:57:17.394218 51095 net.cpp:157] Memory required for data: 7966469696
I0726 06:57:17.394366 51095 layer_factory.hpp:77] Creating layer fc7_mbox_conf
I0726 06:57:17.394587 51095 layer_factory.hpp:77] Creating layer fc7_mbox_conf
I0726 06:57:17.395117 51095 net.cpp:92] Creating Layer fc7_mbox_conf
I0726 06:57:17.395239 51095 net.cpp:470] fc7_mbox_conf <- fc7_relu7_0_split_2
I0726 06:57:17.395604 51095 net.cpp:444] fc7_mbox_conf -> fc7_mbox_conf
I0726 06:57:17.401470 51095 net.cpp:142] Setting up fc7_mbox_conf
I0726 06:57:17.401532 51095 net.cpp:149] Top shape: 32 126 19 19 (1455552)
I0726 06:57:17.401559 51095 net.cpp:157] Memory required for data: 7972291904
I0726 06:57:17.401582 51095 layer_factory.hpp:77] Creating layer fc7_mbox_conf_perm
I0726 06:57:17.401628 51095 layer_factory.hpp:77] Creating layer fc7_mbox_conf_perm
I0726 06:57:17.401690 51095 net.cpp:92] Creating Layer fc7_mbox_conf_perm
I0726 06:57:17.401753 51095 net.cpp:470] fc7_mbox_conf_perm <- fc7_mbox_conf
I0726 06:57:17.401852 51095 net.cpp:444] fc7_mbox_conf_perm -> fc7_mbox_conf_perm
I0726 06:57:17.401996 51095 net.cpp:142] Setting up fc7_mbox_conf_perm
I0726 06:57:17.402091 51095 net.cpp:149] Top shape: 32 19 19 126 (1455552)
I0726 06:57:17.402158 51095 net.cpp:157] Memory required for data: 7978114112
I0726 06:57:17.402276 51095 layer_factory.hpp:77] Creating layer fc7_mbox_conf_flat
I0726 06:57:17.402420 51095 layer_factory.hpp:77] Creating layer fc7_mbox_conf_flat
I0726 06:57:17.402585 51095 net.cpp:92] Creating Layer fc7_mbox_conf_flat
I0726 06:57:17.403062 51095 net.cpp:470] fc7_mbox_conf_flat <- fc7_mbox_conf_perm
I0726 06:57:17.403107 51095 net.cpp:444] fc7_mbox_conf_flat -> fc7_mbox_conf_flat
I0726 06:57:17.403280 51095 net.cpp:142] Setting up fc7_mbox_conf_flat
I0726 06:57:17.403422 51095 net.cpp:149] Top shape: 32 45486 (1455552)
I0726 06:57:17.403548 51095 net.cpp:157] Memory required for data: 7983936320
I0726 06:57:17.403720 51095 layer_factory.hpp:77] Creating layer fc7_mbox_priorbox
I0726 06:57:17.403864 51095 layer_factory.hpp:77] Creating layer fc7_mbox_priorbox
I0726 06:57:17.404031 51095 net.cpp:92] Creating Layer fc7_mbox_priorbox
I0726 06:57:17.404111 51095 net.cpp:470] fc7_mbox_priorbox <- fc7_relu7_0_split_3
I0726 06:57:17.404534 51095 net.cpp:470] fc7_mbox_priorbox <- data_data_0_split_2
I0726 06:57:17.404588 51095 net.cpp:444] fc7_mbox_priorbox -> fc7_mbox_priorbox
I0726 06:57:17.404867 51095 net.cpp:142] Setting up fc7_mbox_priorbox
I0726 06:57:17.404980 51095 net.cpp:149] Top shape: 1 2 8664 (17328)
I0726 06:57:17.405092 51095 net.cpp:157] Memory required for data: 7984005632
I0726 06:57:17.405182 51095 layer_factory.hpp:77] Creating layer conv6_2_mbox_loc
I0726 06:57:17.405357 51095 layer_factory.hpp:77] Creating layer conv6_2_mbox_loc
I0726 06:57:17.405524 51095 net.cpp:92] Creating Layer conv6_2_mbox_loc
I0726 06:57:17.405565 51095 net.cpp:470] conv6_2_mbox_loc <- conv6_2_conv6_2_relu_0_split_1
I0726 06:57:17.405695 51095 net.cpp:444] conv6_2_mbox_loc -> conv6_2_mbox_loc
I0726 06:57:17.406937 51095 net.cpp:142] Setting up conv6_2_mbox_loc
I0726 06:57:17.407162 51095 net.cpp:149] Top shape: 32 24 10 10 (76800)
I0726 06:57:17.407266 51095 net.cpp:157] Memory required for data: 7984312832
I0726 06:57:17.407330 51095 layer_factory.hpp:77] Creating layer conv6_2_mbox_loc_perm
I0726 06:57:17.407433 51095 layer_factory.hpp:77] Creating layer conv6_2_mbox_loc_perm
I0726 06:57:17.407474 51095 net.cpp:92] Creating Layer conv6_2_mbox_loc_perm
I0726 06:57:17.407522 51095 net.cpp:470] conv6_2_mbox_loc_perm <- conv6_2_mbox_loc
I0726 06:57:17.407577 51095 net.cpp:444] conv6_2_mbox_loc_perm -> conv6_2_mbox_loc_perm
I0726 06:57:17.407734 51095 net.cpp:142] Setting up conv6_2_mbox_loc_perm
I0726 06:57:17.407793 51095 net.cpp:149] Top shape: 32 10 10 24 (76800)
I0726 06:57:17.407865 51095 net.cpp:157] Memory required for data: 7984620032
I0726 06:57:17.407954 51095 layer_factory.hpp:77] Creating layer conv6_2_mbox_loc_flat
I0726 06:57:17.408058 51095 layer_factory.hpp:77] Creating layer conv6_2_mbox_loc_flat
I0726 06:57:17.408265 51095 net.cpp:92] Creating Layer conv6_2_mbox_loc_flat
I0726 06:57:17.408382 51095 net.cpp:470] conv6_2_mbox_loc_flat <- conv6_2_mbox_loc_perm
I0726 06:57:17.408486 51095 net.cpp:444] conv6_2_mbox_loc_flat -> conv6_2_mbox_loc_flat
I0726 06:57:17.408778 51095 net.cpp:142] Setting up conv6_2_mbox_loc_flat
I0726 06:57:17.408895 51095 net.cpp:149] Top shape: 32 2400 (76800)
I0726 06:57:17.409162 51095 net.cpp:157] Memory required for data: 7984927232
I0726 06:57:17.409229 51095 layer_factory.hpp:77] Creating layer conv6_2_mbox_conf
I0726 06:57:17.409363 51095 layer_factory.hpp:77] Creating layer conv6_2_mbox_conf
I0726 06:57:17.409647 51095 net.cpp:92] Creating Layer conv6_2_mbox_conf
I0726 06:57:17.409755 51095 net.cpp:470] conv6_2_mbox_conf <- conv6_2_conv6_2_relu_0_split_2
I0726 06:57:17.409966 51095 net.cpp:444] conv6_2_mbox_conf -> conv6_2_mbox_conf
I0726 06:57:17.413614 51095 net.cpp:142] Setting up conv6_2_mbox_conf
I0726 06:57:17.413776 51095 net.cpp:149] Top shape: 32 126 10 10 (403200)
I0726 06:57:17.413812 51095 net.cpp:157] Memory required for data: 7986540032
I0726 06:57:17.413834 51095 layer_factory.hpp:77] Creating layer conv6_2_mbox_conf_perm
I0726 06:57:17.413866 51095 layer_factory.hpp:77] Creating layer conv6_2_mbox_conf_perm
I0726 06:57:17.413969 51095 net.cpp:92] Creating Layer conv6_2_mbox_conf_perm
I0726 06:57:17.414011 51095 net.cpp:470] conv6_2_mbox_conf_perm <- conv6_2_mbox_conf
I0726 06:57:17.414091 51095 net.cpp:444] conv6_2_mbox_conf_perm -> conv6_2_mbox_conf_perm
I0726 06:57:17.414239 51095 net.cpp:142] Setting up conv6_2_mbox_conf_perm
I0726 06:57:17.414299 51095 net.cpp:149] Top shape: 32 10 10 126 (403200)
I0726 06:57:17.414343 51095 net.cpp:157] Memory required for data: 7988152832
I0726 06:57:17.414446 51095 layer_factory.hpp:77] Creating layer conv6_2_mbox_conf_flat
I0726 06:57:17.414523 51095 layer_factory.hpp:77] Creating layer conv6_2_mbox_conf_flat
I0726 06:57:17.415009 51095 net.cpp:92] Creating Layer conv6_2_mbox_conf_flat
I0726 06:57:17.415216 51095 net.cpp:470] conv6_2_mbox_conf_flat <- conv6_2_mbox_conf_perm
I0726 06:57:17.415379 51095 net.cpp:444] conv6_2_mbox_conf_flat -> conv6_2_mbox_conf_flat
I0726 06:57:17.415518 51095 net.cpp:142] Setting up conv6_2_mbox_conf_flat
I0726 06:57:17.415711 51095 net.cpp:149] Top shape: 32 12600 (403200)
I0726 06:57:17.415756 51095 net.cpp:157] Memory required for data: 7989765632
I0726 06:57:17.416059 51095 layer_factory.hpp:77] Creating layer conv6_2_mbox_priorbox
I0726 06:57:17.416211 51095 layer_factory.hpp:77] Creating layer conv6_2_mbox_priorbox
I0726 06:57:17.416360 51095 net.cpp:92] Creating Layer conv6_2_mbox_priorbox
I0726 06:57:17.416436 51095 net.cpp:470] conv6_2_mbox_priorbox <- conv6_2_conv6_2_relu_0_split_3
I0726 06:57:17.416657 51095 net.cpp:470] conv6_2_mbox_priorbox <- data_data_0_split_3
I0726 06:57:17.416819 51095 net.cpp:444] conv6_2_mbox_priorbox -> conv6_2_mbox_priorbox
I0726 06:57:17.416967 51095 net.cpp:142] Setting up conv6_2_mbox_priorbox
I0726 06:57:17.417048 51095 net.cpp:149] Top shape: 1 2 2400 (4800)
I0726 06:57:17.417129 51095 net.cpp:157] Memory required for data: 7989784832
I0726 06:57:17.417309 51095 layer_factory.hpp:77] Creating layer conv7_2_mbox_loc
I0726 06:57:17.417418 51095 layer_factory.hpp:77] Creating layer conv7_2_mbox_loc
I0726 06:57:17.417606 51095 net.cpp:92] Creating Layer conv7_2_mbox_loc
I0726 06:57:17.417642 51095 net.cpp:470] conv7_2_mbox_loc <- conv7_2_conv7_2_relu_0_split_1
I0726 06:57:17.417899 51095 net.cpp:444] conv7_2_mbox_loc -> conv7_2_mbox_loc
I0726 06:57:17.418503 51095 net.cpp:142] Setting up conv7_2_mbox_loc
I0726 06:57:17.418570 51095 net.cpp:149] Top shape: 32 24 5 5 (19200)
I0726 06:57:17.419024 51095 net.cpp:157] Memory required for data: 7989861632
I0726 06:57:17.419106 51095 layer_factory.hpp:77] Creating layer conv7_2_mbox_loc_perm
I0726 06:57:17.419303 51095 layer_factory.hpp:77] Creating layer conv7_2_mbox_loc_perm
I0726 06:57:17.419433 51095 net.cpp:92] Creating Layer conv7_2_mbox_loc_perm
I0726 06:57:17.419574 51095 net.cpp:470] conv7_2_mbox_loc_perm <- conv7_2_mbox_loc
I0726 06:57:17.419672 51095 net.cpp:444] conv7_2_mbox_loc_perm -> conv7_2_mbox_loc_perm
I0726 06:57:17.420119 51095 net.cpp:142] Setting up conv7_2_mbox_loc_perm
I0726 06:57:17.420239 51095 net.cpp:149] Top shape: 32 5 5 24 (19200)
I0726 06:57:17.420284 51095 net.cpp:157] Memory required for data: 7989938432
I0726 06:57:17.420433 51095 layer_factory.hpp:77] Creating layer conv7_2_mbox_loc_flat
I0726 06:57:17.420707 51095 layer_factory.hpp:77] Creating layer conv7_2_mbox_loc_flat
I0726 06:57:17.420902 51095 net.cpp:92] Creating Layer conv7_2_mbox_loc_flat
I0726 06:57:17.421072 51095 net.cpp:470] conv7_2_mbox_loc_flat <- conv7_2_mbox_loc_perm
I0726 06:57:17.421257 51095 net.cpp:444] conv7_2_mbox_loc_flat -> conv7_2_mbox_loc_flat
I0726 06:57:17.421553 51095 net.cpp:142] Setting up conv7_2_mbox_loc_flat
I0726 06:57:17.421720 51095 net.cpp:149] Top shape: 32 600 (19200)
I0726 06:57:17.421805 51095 net.cpp:157] Memory required for data: 7990015232
I0726 06:57:17.421977 51095 layer_factory.hpp:77] Creating layer conv7_2_mbox_conf
I0726 06:57:17.422035 51095 layer_factory.hpp:77] Creating layer conv7_2_mbox_conf
I0726 06:57:17.422174 51095 net.cpp:92] Creating Layer conv7_2_mbox_conf
I0726 06:57:17.422282 51095 net.cpp:470] conv7_2_mbox_conf <- conv7_2_conv7_2_relu_0_split_2
I0726 06:57:17.422431 51095 net.cpp:444] conv7_2_mbox_conf -> conv7_2_mbox_conf
I0726 06:57:17.424746 51095 net.cpp:142] Setting up conv7_2_mbox_conf
I0726 06:57:17.424800 51095 net.cpp:149] Top shape: 32 126 5 5 (100800)
I0726 06:57:17.424827 51095 net.cpp:157] Memory required for data: 7990418432
I0726 06:57:17.424850 51095 layer_factory.hpp:77] Creating layer conv7_2_mbox_conf_perm
I0726 06:57:17.424914 51095 layer_factory.hpp:77] Creating layer conv7_2_mbox_conf_perm
I0726 06:57:17.424978 51095 net.cpp:92] Creating Layer conv7_2_mbox_conf_perm
I0726 06:57:17.425055 51095 net.cpp:470] conv7_2_mbox_conf_perm <- conv7_2_mbox_conf
I0726 06:57:17.425199 51095 net.cpp:444] conv7_2_mbox_conf_perm -> conv7_2_mbox_conf_perm
I0726 06:57:17.425324 51095 net.cpp:142] Setting up conv7_2_mbox_conf_perm
I0726 06:57:17.425423 51095 net.cpp:149] Top shape: 32 5 5 126 (100800)
I0726 06:57:17.425472 51095 net.cpp:157] Memory required for data: 7990821632
I0726 06:57:17.425607 51095 layer_factory.hpp:77] Creating layer conv7_2_mbox_conf_flat
I0726 06:57:17.425667 51095 layer_factory.hpp:77] Creating layer conv7_2_mbox_conf_flat
I0726 06:57:17.425778 51095 net.cpp:92] Creating Layer conv7_2_mbox_conf_flat
I0726 06:57:17.425886 51095 net.cpp:470] conv7_2_mbox_conf_flat <- conv7_2_mbox_conf_perm
I0726 06:57:17.426203 51095 net.cpp:444] conv7_2_mbox_conf_flat -> conv7_2_mbox_conf_flat
I0726 06:57:17.426486 51095 net.cpp:142] Setting up conv7_2_mbox_conf_flat
I0726 06:57:17.426544 51095 net.cpp:149] Top shape: 32 3150 (100800)
I0726 06:57:17.426846 51095 net.cpp:157] Memory required for data: 7991224832
I0726 06:57:17.426895 51095 layer_factory.hpp:77] Creating layer conv7_2_mbox_priorbox
I0726 06:57:17.427075 51095 layer_factory.hpp:77] Creating layer conv7_2_mbox_priorbox
I0726 06:57:17.427125 51095 net.cpp:92] Creating Layer conv7_2_mbox_priorbox
I0726 06:57:17.427386 51095 net.cpp:470] conv7_2_mbox_priorbox <- conv7_2_conv7_2_relu_0_split_3
I0726 06:57:17.427444 51095 net.cpp:470] conv7_2_mbox_priorbox <- data_data_0_split_4
I0726 06:57:17.427665 51095 net.cpp:444] conv7_2_mbox_priorbox -> conv7_2_mbox_priorbox
I0726 06:57:17.427980 51095 net.cpp:142] Setting up conv7_2_mbox_priorbox
I0726 06:57:17.428196 51095 net.cpp:149] Top shape: 1 2 600 (1200)
I0726 06:57:17.428488 51095 net.cpp:157] Memory required for data: 7991229632
I0726 06:57:17.428683 51095 layer_factory.hpp:77] Creating layer conv8_2_mbox_loc
I0726 06:57:17.428871 51095 layer_factory.hpp:77] Creating layer conv8_2_mbox_loc
I0726 06:57:17.429078 51095 net.cpp:92] Creating Layer conv8_2_mbox_loc
I0726 06:57:17.429172 51095 net.cpp:470] conv8_2_mbox_loc <- conv8_2_conv8_2_relu_0_split_1
I0726 06:57:17.429325 51095 net.cpp:444] conv8_2_mbox_loc -> conv8_2_mbox_loc
I0726 06:57:17.429821 51095 net.cpp:142] Setting up conv8_2_mbox_loc
I0726 06:57:17.429924 51095 net.cpp:149] Top shape: 32 16 3 3 (4608)
I0726 06:57:17.430083 51095 net.cpp:157] Memory required for data: 7991248064
I0726 06:57:17.430248 51095 layer_factory.hpp:77] Creating layer conv8_2_mbox_loc_perm
I0726 06:57:17.430316 51095 layer_factory.hpp:77] Creating layer conv8_2_mbox_loc_perm
I0726 06:57:17.430572 51095 net.cpp:92] Creating Layer conv8_2_mbox_loc_perm
I0726 06:57:17.431017 51095 net.cpp:470] conv8_2_mbox_loc_perm <- conv8_2_mbox_loc
I0726 06:57:17.431041 51095 net.cpp:444] conv8_2_mbox_loc_perm -> conv8_2_mbox_loc_perm
I0726 06:57:17.431278 51095 net.cpp:142] Setting up conv8_2_mbox_loc_perm
I0726 06:57:17.431360 51095 net.cpp:149] Top shape: 32 3 3 16 (4608)
I0726 06:57:17.431440 51095 net.cpp:157] Memory required for data: 7991266496
I0726 06:57:17.431509 51095 layer_factory.hpp:77] Creating layer conv8_2_mbox_loc_flat
I0726 06:57:17.431545 51095 layer_factory.hpp:77] Creating layer conv8_2_mbox_loc_flat
I0726 06:57:17.431737 51095 net.cpp:92] Creating Layer conv8_2_mbox_loc_flat
I0726 06:57:17.431773 51095 net.cpp:470] conv8_2_mbox_loc_flat <- conv8_2_mbox_loc_perm
I0726 06:57:17.431881 51095 net.cpp:444] conv8_2_mbox_loc_flat -> conv8_2_mbox_loc_flat
I0726 06:57:17.432106 51095 net.cpp:142] Setting up conv8_2_mbox_loc_flat
I0726 06:57:17.432196 51095 net.cpp:149] Top shape: 32 144 (4608)
I0726 06:57:17.432273 51095 net.cpp:157] Memory required for data: 7991284928
I0726 06:57:17.432412 51095 layer_factory.hpp:77] Creating layer conv8_2_mbox_conf
I0726 06:57:17.432466 51095 layer_factory.hpp:77] Creating layer conv8_2_mbox_conf
I0726 06:57:17.432777 51095 net.cpp:92] Creating Layer conv8_2_mbox_conf
I0726 06:57:17.432909 51095 net.cpp:470] conv8_2_mbox_conf <- conv8_2_conv8_2_relu_0_split_2
I0726 06:57:17.432962 51095 net.cpp:444] conv8_2_mbox_conf -> conv8_2_mbox_conf
I0726 06:57:17.434041 51095 net.cpp:142] Setting up conv8_2_mbox_conf
I0726 06:57:17.434113 51095 net.cpp:149] Top shape: 32 84 3 3 (24192)
I0726 06:57:17.434180 51095 net.cpp:157] Memory required for data: 7991381696
I0726 06:57:17.434221 51095 layer_factory.hpp:77] Creating layer conv8_2_mbox_conf_perm
I0726 06:57:17.434319 51095 layer_factory.hpp:77] Creating layer conv8_2_mbox_conf_perm
I0726 06:57:17.434355 51095 net.cpp:92] Creating Layer conv8_2_mbox_conf_perm
I0726 06:57:17.434481 51095 net.cpp:470] conv8_2_mbox_conf_perm <- conv8_2_mbox_conf
I0726 06:57:17.434531 51095 net.cpp:444] conv8_2_mbox_conf_perm -> conv8_2_mbox_conf_perm
I0726 06:57:17.435012 51095 net.cpp:142] Setting up conv8_2_mbox_conf_perm
I0726 06:57:17.435148 51095 net.cpp:149] Top shape: 32 3 3 84 (24192)
I0726 06:57:17.435192 51095 net.cpp:157] Memory required for data: 7991478464
I0726 06:57:17.435278 51095 layer_factory.hpp:77] Creating layer conv8_2_mbox_conf_flat
I0726 06:57:17.435309 51095 layer_factory.hpp:77] Creating layer conv8_2_mbox_conf_flat
I0726 06:57:17.435499 51095 net.cpp:92] Creating Layer conv8_2_mbox_conf_flat
I0726 06:57:17.435657 51095 net.cpp:470] conv8_2_mbox_conf_flat <- conv8_2_mbox_conf_perm
I0726 06:57:17.435917 51095 net.cpp:444] conv8_2_mbox_conf_flat -> conv8_2_mbox_conf_flat
I0726 06:57:17.436017 51095 net.cpp:142] Setting up conv8_2_mbox_conf_flat
I0726 06:57:17.436115 51095 net.cpp:149] Top shape: 32 756 (24192)
I0726 06:57:17.436197 51095 net.cpp:157] Memory required for data: 7991575232
I0726 06:57:17.436228 51095 layer_factory.hpp:77] Creating layer conv8_2_mbox_priorbox
I0726 06:57:17.436489 51095 layer_factory.hpp:77] Creating layer conv8_2_mbox_priorbox
I0726 06:57:17.436579 51095 net.cpp:92] Creating Layer conv8_2_mbox_priorbox
I0726 06:57:17.436661 51095 net.cpp:470] conv8_2_mbox_priorbox <- conv8_2_conv8_2_relu_0_split_3
I0726 06:57:17.436736 51095 net.cpp:470] conv8_2_mbox_priorbox <- data_data_0_split_5
I0726 06:57:17.436913 51095 net.cpp:444] conv8_2_mbox_priorbox -> conv8_2_mbox_priorbox
I0726 06:57:17.437021 51095 net.cpp:142] Setting up conv8_2_mbox_priorbox
I0726 06:57:17.437074 51095 net.cpp:149] Top shape: 1 2 144 (288)
I0726 06:57:17.437132 51095 net.cpp:157] Memory required for data: 7991576384
I0726 06:57:17.437213 51095 layer_factory.hpp:77] Creating layer conv9_2_mbox_loc
I0726 06:57:17.437312 51095 layer_factory.hpp:77] Creating layer conv9_2_mbox_loc
I0726 06:57:17.437425 51095 net.cpp:92] Creating Layer conv9_2_mbox_loc
I0726 06:57:17.437502 51095 net.cpp:470] conv9_2_mbox_loc <- conv9_2_conv9_2_relu_0_split_0
I0726 06:57:17.437718 51095 net.cpp:444] conv9_2_mbox_loc -> conv9_2_mbox_loc
I0726 06:57:17.438172 51095 net.cpp:142] Setting up conv9_2_mbox_loc
I0726 06:57:17.438370 51095 net.cpp:149] Top shape: 32 16 1 1 (512)
I0726 06:57:17.438457 51095 net.cpp:157] Memory required for data: 7991578432
I0726 06:57:17.438505 51095 layer_factory.hpp:77] Creating layer conv9_2_mbox_loc_perm
I0726 06:57:17.438925 51095 layer_factory.hpp:77] Creating layer conv9_2_mbox_loc_perm
I0726 06:57:17.438982 51095 net.cpp:92] Creating Layer conv9_2_mbox_loc_perm
I0726 06:57:17.439194 51095 net.cpp:470] conv9_2_mbox_loc_perm <- conv9_2_mbox_loc
I0726 06:57:17.439311 51095 net.cpp:444] conv9_2_mbox_loc_perm -> conv9_2_mbox_loc_perm
I0726 06:57:17.439738 51095 net.cpp:142] Setting up conv9_2_mbox_loc_perm
I0726 06:57:17.439864 51095 net.cpp:149] Top shape: 32 1 1 16 (512)
I0726 06:57:17.439945 51095 net.cpp:157] Memory required for data: 7991580480
I0726 06:57:17.439976 51095 layer_factory.hpp:77] Creating layer conv9_2_mbox_loc_flat
I0726 06:57:17.440274 51095 layer_factory.hpp:77] Creating layer conv9_2_mbox_loc_flat
I0726 06:57:17.440387 51095 net.cpp:92] Creating Layer conv9_2_mbox_loc_flat
I0726 06:57:17.440459 51095 net.cpp:470] conv9_2_mbox_loc_flat <- conv9_2_mbox_loc_perm
I0726 06:57:17.440615 51095 net.cpp:444] conv9_2_mbox_loc_flat -> conv9_2_mbox_loc_flat
I0726 06:57:17.440963 51095 net.cpp:142] Setting up conv9_2_mbox_loc_flat
I0726 06:57:17.441133 51095 net.cpp:149] Top shape: 32 16 (512)
I0726 06:57:17.441313 51095 net.cpp:157] Memory required for data: 7991582528
I0726 06:57:17.441493 51095 layer_factory.hpp:77] Creating layer conv9_2_mbox_conf
I0726 06:57:17.441556 51095 layer_factory.hpp:77] Creating layer conv9_2_mbox_conf
I0726 06:57:17.441606 51095 net.cpp:92] Creating Layer conv9_2_mbox_conf
I0726 06:57:17.441709 51095 net.cpp:470] conv9_2_mbox_conf <- conv9_2_conv9_2_relu_0_split_1
I0726 06:57:17.441948 51095 net.cpp:444] conv9_2_mbox_conf -> conv9_2_mbox_conf
I0726 06:57:17.443168 51095 net.cpp:142] Setting up conv9_2_mbox_conf
I0726 06:57:17.443276 51095 net.cpp:149] Top shape: 32 84 1 1 (2688)
I0726 06:57:17.443303 51095 net.cpp:157] Memory required for data: 7991593280
I0726 06:57:17.443343 51095 layer_factory.hpp:77] Creating layer conv9_2_mbox_conf_perm
I0726 06:57:17.443447 51095 layer_factory.hpp:77] Creating layer conv9_2_mbox_conf_perm
I0726 06:57:17.443483 51095 net.cpp:92] Creating Layer conv9_2_mbox_conf_perm
I0726 06:57:17.443645 51095 net.cpp:470] conv9_2_mbox_conf_perm <- conv9_2_mbox_conf
I0726 06:57:17.443694 51095 net.cpp:444] conv9_2_mbox_conf_perm -> conv9_2_mbox_conf_perm
I0726 06:57:17.443845 51095 net.cpp:142] Setting up conv9_2_mbox_conf_perm
I0726 06:57:17.443980 51095 net.cpp:149] Top shape: 32 1 1 84 (2688)
I0726 06:57:17.444012 51095 net.cpp:157] Memory required for data: 7991604032
I0726 06:57:17.444103 51095 layer_factory.hpp:77] Creating layer conv9_2_mbox_conf_flat
I0726 06:57:17.444178 51095 layer_factory.hpp:77] Creating layer conv9_2_mbox_conf_flat
I0726 06:57:17.444489 51095 net.cpp:92] Creating Layer conv9_2_mbox_conf_flat
I0726 06:57:17.444571 51095 net.cpp:470] conv9_2_mbox_conf_flat <- conv9_2_mbox_conf_perm
I0726 06:57:17.444751 51095 net.cpp:444] conv9_2_mbox_conf_flat -> conv9_2_mbox_conf_flat
I0726 06:57:17.444890 51095 net.cpp:142] Setting up conv9_2_mbox_conf_flat
I0726 06:57:17.444993 51095 net.cpp:149] Top shape: 32 84 (2688)
I0726 06:57:17.445029 51095 net.cpp:157] Memory required for data: 7991614784
I0726 06:57:17.445128 51095 layer_factory.hpp:77] Creating layer conv9_2_mbox_priorbox
I0726 06:57:17.445250 51095 layer_factory.hpp:77] Creating layer conv9_2_mbox_priorbox
I0726 06:57:17.445389 51095 net.cpp:92] Creating Layer conv9_2_mbox_priorbox
I0726 06:57:17.445471 51095 net.cpp:470] conv9_2_mbox_priorbox <- conv9_2_conv9_2_relu_0_split_2
I0726 06:57:17.445551 51095 net.cpp:470] conv9_2_mbox_priorbox <- data_data_0_split_6
I0726 06:57:17.445668 51095 net.cpp:444] conv9_2_mbox_priorbox -> conv9_2_mbox_priorbox
I0726 06:57:17.445889 51095 net.cpp:142] Setting up conv9_2_mbox_priorbox
I0726 06:57:17.445935 51095 net.cpp:149] Top shape: 1 2 16 (32)
I0726 06:57:17.445988 51095 net.cpp:157] Memory required for data: 7991614912
I0726 06:57:17.446046 51095 layer_factory.hpp:77] Creating layer mbox_loc
I0726 06:57:17.446141 51095 layer_factory.hpp:77] Creating layer mbox_loc
I0726 06:57:17.446218 51095 net.cpp:92] Creating Layer mbox_loc
I0726 06:57:17.446420 51095 net.cpp:470] mbox_loc <- conv4_3_norm_mbox_loc_flat
I0726 06:57:17.447064 51095 net.cpp:470] mbox_loc <- fc7_mbox_loc_flat
I0726 06:57:17.447335 51095 net.cpp:470] mbox_loc <- conv6_2_mbox_loc_flat
I0726 06:57:17.447505 51095 net.cpp:470] mbox_loc <- conv7_2_mbox_loc_flat
I0726 06:57:17.447568 51095 net.cpp:470] mbox_loc <- conv8_2_mbox_loc_flat
I0726 06:57:17.447662 51095 net.cpp:470] mbox_loc <- conv9_2_mbox_loc_flat
I0726 06:57:17.447695 51095 net.cpp:444] mbox_loc -> mbox_loc
I0726 06:57:17.447784 51095 net.cpp:142] Setting up mbox_loc
I0726 06:57:17.447942 51095 net.cpp:149] Top shape: 32 34928 (1117696)
I0726 06:57:17.447990 51095 net.cpp:157] Memory required for data: 7996085696
I0726 06:57:17.448067 51095 layer_factory.hpp:77] Creating layer mbox_conf
I0726 06:57:17.448148 51095 layer_factory.hpp:77] Creating layer mbox_conf
I0726 06:57:17.448184 51095 net.cpp:92] Creating Layer mbox_conf
I0726 06:57:17.448225 51095 net.cpp:470] mbox_conf <- conv4_3_norm_mbox_conf_flat
I0726 06:57:17.448387 51095 net.cpp:470] mbox_conf <- fc7_mbox_conf_flat
I0726 06:57:17.448482 51095 net.cpp:470] mbox_conf <- conv6_2_mbox_conf_flat
I0726 06:57:17.448523 51095 net.cpp:470] mbox_conf <- conv7_2_mbox_conf_flat
I0726 06:57:17.448631 51095 net.cpp:470] mbox_conf <- conv8_2_mbox_conf_flat
I0726 06:57:17.448734 51095 net.cpp:470] mbox_conf <- conv9_2_mbox_conf_flat
I0726 06:57:17.448859 51095 net.cpp:444] mbox_conf -> mbox_conf
I0726 06:57:17.448922 51095 net.cpp:142] Setting up mbox_conf
I0726 06:57:17.448994 51095 net.cpp:149] Top shape: 32 183372 (5867904)
I0726 06:57:17.449030 51095 net.cpp:157] Memory required for data: 8019557312
I0726 06:57:17.449152 51095 layer_factory.hpp:77] Creating layer mbox_priorbox
I0726 06:57:17.449201 51095 layer_factory.hpp:77] Creating layer mbox_priorbox
I0726 06:57:17.449242 51095 net.cpp:92] Creating Layer mbox_priorbox
I0726 06:57:17.449291 51095 net.cpp:470] mbox_priorbox <- conv4_3_norm_mbox_priorbox
I0726 06:57:17.449378 51095 net.cpp:470] mbox_priorbox <- fc7_mbox_priorbox
I0726 06:57:17.449453 51095 net.cpp:470] mbox_priorbox <- conv6_2_mbox_priorbox
I0726 06:57:17.449566 51095 net.cpp:470] mbox_priorbox <- conv7_2_mbox_priorbox
I0726 06:57:17.449661 51095 net.cpp:470] mbox_priorbox <- conv8_2_mbox_priorbox
I0726 06:57:17.449774 51095 net.cpp:470] mbox_priorbox <- conv9_2_mbox_priorbox
I0726 06:57:17.449831 51095 net.cpp:444] mbox_priorbox -> mbox_priorbox
I0726 06:57:17.449858 51095 net.cpp:142] Setting up mbox_priorbox
I0726 06:57:17.449908 51095 net.cpp:149] Top shape: 1 2 34928 (69856)
I0726 06:57:17.449949 51095 net.cpp:157] Memory required for data: 8019836736
I0726 06:57:17.450088 51095 layer_factory.hpp:77] Creating layer mbox_loss
I0726 06:57:17.450232 51095 layer_factory.hpp:77] Creating layer mbox_loss
I0726 06:57:17.450263 51095 net.cpp:92] Creating Layer mbox_loss
I0726 06:57:17.450384 51095 net.cpp:470] mbox_loss <- mbox_loc
I0726 06:57:17.450443 51095 net.cpp:470] mbox_loss <- mbox_conf
…
state {
  phase: TEST
}
layer {
  name: "data"
  type: "AnnotatedData"
  top: "data"
  top: "label"
  include {
    phase: TEST
  }
  transform_param {
    mean_value: 104
    mean_value: 117
    mean_value: 123
    resize_param {
      prob: 1
      resize_mode: WARP
      height: 300
      width: 300
      interp_mode: LINEAR
    }
  }
  data_param {
    source: "examples/VOC0712/VOC0712_test_lmdb"
    batch_size: 2
    backend: LMDB
  }
  annotated_data_param {
    batch_sampler {
    }
    label_map_file: "data/VOC0712/labelmap_voc.prototxt"
  }
}
layer {
  name: "conv1_1"
  type: "Convolution"
  bottom: "data"
  top: "conv1_1"
  param {
    lr_mult: 1
    decay_mult: 1
  }
  param {
    lr_mult: 2
    decay_mult: 0
  }
  convolution_param {
    num_output: 64
    pad: 1
    kernel_size: 3
    weight_filler {
      type: "xavier"
    }
    bias_filler {
      type: "constant"
      value: 0
    }
  }
}
layer {
  name: "relu1_1"
  type: "ReLU"
  bottom: "conv1_1"
  top: "conv1_1"
}
layer {
  name: "conv1_2"
  type: "Convolution"
  bottom: "conv1_1"
  top: "conv1_2"
  param {
    lr_mult: 1
    decay_mult: 1
  }
  param {
    lr_mult: 2
    decay_mult: 0
  }
  convolution_param {
    num_output: 64
    pad: 1
    kernel_size: 3
    weight_filler {
      type: "xavier"
    }
    bias_filler {
      type: "constant"
      value: 0
    }
  }
}
layer {
  name: "relu1_2"
  type: "ReLU"
  bottom: "conv1_2"
  top: "conv1_2"
}
layer {
  name: "pool1"
  type: "Pooling"
  bottom: "conv1_2"
  top: "pool1"
  pooling_param {
    pool: MAX
    kernel_size: 2
    stride: 2
  }
}
layer {
  name: "conv2_1"
  type: "Convolution"
  bottom: "pool1"
  top: "conv2_1"
  param {
    lr_mult: 1
    decay_mult: 1
  }
  param {
    lr_mult: 2
    decay_mult: 0
  }
  convolution_param {
    num_output: 128
    pad: 1
    kernel_size: 3
    weight_filler {
      type: "xavier"
    }
    bias_filler {
      type: "constant"
      value: 0
    }
  }
}
layer {
  name: "relu2_1"
  type: "ReLU"
  bottom: "conv2_1"
  top: "conv2_1"
}
layer {
  name: "conv2_2"
  type: "Convolution"
  bottom: "conv2_1"
  top: "conv2_2"
  param {
    lr_mult: 1
    decay_mult: 1
  }
  param {
    lr_mult: 2
    decay_mult: 0
  }
  convolution_param {
    num_output: 128
    pad: 1
    kernel_size: 3
    weight_filler {
      type: "xavier"
    }
    bias_filler {
      type: "constant"
      value: 0
    }
  }
}
layer {
  name: "relu2_2"
  type: "ReLU"
  bottom: "conv2_2"
  top: "conv2_2"
}
layer {
  name: "pool2"
  type: "Pooling"
  bottom: "conv2_2"
  top: "pool2"
  pooling_param {
    pool: MAX
    kernel_size: 2
    stride: 2
  }
}
layer {
  name: "conv3_1"
  type: "Convolution"
  bottom: "pool2"
  top: "conv3_1"
  param {
    lr_mult: 1
    decay_mult: 1
  }
  param {
    lr_mult: 2
    decay_mult: 0
  }
  convolution_param {
    num_output: 256
    pad: 1
    kernel_size: 3
    weight_filler {
      type: "xavier"
    }
    bias_filler {
      type: "constant"
      value: 0
    }
  }
}
layer {
  name: "relu3_1"
  type: "ReLU"
  bottom: "conv3_1"
  top: "conv3_1"
}
layer {
  name: "conv3_2"
  type: "Convolution"
  bottom: "conv3_1"
  top: "conv3_2"
  param {
    lr_mult: 1
    decay_mult: 1
  }
  param {
    lr_mult: 2
    decay_mult: 0
  }
  convolution_param {
    num_output: 256
    pad: 1
    kernel_size: 3
    weight_filler {
      type: "xavier"
    }
    bias_filler {
      type: "constant"
      value: 0
    }
  }
}
layer {
  name: "relu3_2"
  type: "ReLU"
  bottom: "conv3_2"
  top: "conv3_2"
}
layer {
  name: "conv3_3"
  type: "Convolution"
  bottom: "conv3_2"
  top: "conv3_3"
  param {
    lr_mult: 1
    decay_mult: 1
  }
  param {
    lr_mult: 2
    decay_mult: 0
  }
  convolution_param {
    num_output: 256
    pad: 1
    kernel_size: 3
    weight_filler {
      type: "xavier"
    }
    bias_filler {
      type: "constant"
      value: 0
    }
  }
}
layer {
  name: "relu3_3"
  type: "ReLU"
  bottom: "conv3_3"
  top: "conv3_3"
}
layer {
  name: "pool3"
  type: "Pooling"
  bottom: "conv3_3"
  top: "pool3"
  pooling_param {
    pool: MAX
    kernel_size: 2
    stride: 2
  }
}
layer {
  name: "conv4_1"
  type: "Convolution"
  bottom: "pool3"
  top: "conv4_1"
  param {
    lr_mult: 1
    decay_mult: 1
  }
  param {
    lr_mult: 2
    decay_mult: 0
  }
  convolution_param {
    num_output: 512
    pad: 1
    kernel_size: 3
    weight_filler {
      type: "xavier"
    }
    bias_filler {
      type: "constant"
      value: 0
    }
  }
}
layer {
  name: "relu4_1"
  type: "ReLU"
  bottom: "conv4_1"
  top: "conv4_1"
}
layer {
  name: "conv4_2"
  type: "Convolution"
  bottom: "conv4_1"
  top: "conv4_2"
  param {
    lr_mult: 1
    decay_mult: 1
  }
  param {
    lr_mult: 2
    decay_mult: 0
  }
  convolution_param {
    num_output: 512
    pad: 1
    kernel_size: 3
    weight_filler {
      type: "xavier"
    }
    bias_filler {
      type: "constant"
      value: 0
    }
  }
}
layer {
  name: "relu4_2"
  type: "ReLU"
  bottom: "conv4_2"
  top: "conv4_2"
}
layer {
  name: "conv4_3"
  type: "Convolution"
  bottom: "conv4_2"
  top: "conv4_3"
  param {
    lr_mult: 1
    decay_mult: 1
  }
  param {
    lr_mult: 2
    decay_mult: 0
  }
  convolution_param {
    num_output: 512
    pad: 1
    kernel_size: 3
    weight_filler {
      type: "xavier"
    }
    bias_filler {
      type: "constant"
      value: 0
    }
  }
}
layer {
  name: "relu4_3"
  type: "ReLU"
  bottom: "conv4_3"
  top: "conv4_3"
}
layer {
  name: "pool4"
  type: "Pooling"
  bottom: "conv4_3"
  top: "pool4"
  pooling_param {
    pool: MAX
    kernel_size: 2
    stride: 2
  }
}
layer {
  name: "conv5_1"
  type: "Convolution"
  bottom: "pool4"
  top: "conv5_1"
  param {
    lr_mult: 1
    decay_mult: 1
  }
  param {
    lr_mult: 2
    decay_mult: 0
  }
  convolution_param {
    num_output: 512
    pad: 1
    kernel_size: 3
    weight_filler {
      type: "xavier"
    }
    bias_filler {
      type: "constant"
      value: 0
    }
    dilation: 1
  }
}
layer {
  name: "relu5_1"
  type: "ReLU"
  bottom: "conv5_1"
  top: "conv5_1"
}
layer {
  name: "conv5_2"
  type: "Convolution"
  bottom: "conv5_1"
  top: "conv5_2"
  param {
    lr_mult: 1
    decay_mult: 1
  }
  param {
    lr_mult: 2
    decay_mult: 0
  }
  convolution_param {
    num_output: 512
    pad: 1
    kernel_size: 3
    weight_filler {
      type: "xavier"
    }
    bias_filler {
      type: "constant"
      value: 0
    }
    dilation: 1
  }
}
layer {
  name: "relu5_2"
  type: "ReLU"
  bottom: "conv5_2"
  top: "conv5_2"
}
layer {
  name: "conv5_3"
  type: "Convolution"
  bottom: "conv5_2"
  top: "conv5_3"
  param {
    lr_mult: 1
    decay_mult: 1
  }
  param {
    lr_mult: 2
    decay_mult: 0
  }
  convolution_param {
    num_output: 512
    pad: 1
    kernel_size: 3
    weight_filler {
      type: "xavier"
    }
    bias_filler {
      type: "constant"
      value: 0
    }
    dilation: 1
  }
}
layer {
  name: "relu5_3"
  type: "ReLU"
  bottom: "conv5_3"
  top: "conv5_3"
}
layer {
  name: "pool5"
  type: "Pooling"
  bottom: "conv5_3"
  top: "pool5"
  pooling_param {
    pool: MAX
    kernel_size: 3
    stride: 1
    pad: 1
  }
}
layer {
  name: "fc6"
  type: "Convolution"
  bottom: "pool5"
  top: "fc6"
  param {
    lr_mult: 1
    decay_mult: 1
  }
  param {
    lr_mult: 2
    decay_mult: 0
  }
  convolution_param {
    num_output: 1024
    pad: 6
    kernel_size: 3
    weight_filler {
      type: "xavier"
    }
    bias_filler {
      type: "constant"
      value: 0
    }
    dilation: 6
  }
}
layer {
  name: "relu6"
  type: "ReLU"
  bottom: "fc6"
  top: "fc6"
}
layer {
  name: "fc7"
  type: "Convolution"
  bottom: "fc6"
  top: "fc7"
  param {
    lr_mult: 1
    decay_mult: 1
  }
  param {
    lr_mult: 2
    decay_mult: 0
  }
  convolution_param {
    num_output: 1024
    kernel_size: 1
    weight_filler {
      type: "xavier"
    }
    bias_filler {
      type: "constant"
      value: 0
    }
  }
}
layer {
  name: "relu7"
  type: "ReLU"
  bottom: "fc7"
  top: "fc7"
}
layer {
  name: "conv6_1"
  type: "Convolution"
  bottom: "fc7"
  top: "conv6_1"
  param {
    lr_mult: 1
    decay_mult: 1
  }
  param {
    lr_mult: 2
    decay_mult: 0
  }
  convolution_param {
    num_output: 256
    pad: 0
    kernel_size: 1
    stride: 1
    weight_filler {
      type: "xavier"
    }
    bias_filler {
      type: "constant"
      value: 0
    }
  }
}
layer {
  name: "conv6_1_relu"
  type: "ReLU"
  bottom: "conv6_1"
  top: "conv6_1"
}
layer {
  name: "conv6_2"
  type: "Convolution"
  bottom: "conv6_1"
  top: "conv6_2"
  param {
    lr_mult: 1
    decay_mult: 1
  }
  param {
    lr_mult: 2
    decay_mult: 0
  }
  convolution_param {
    num_output: 512
    pad: 1
    kernel_size: 3
    stride: 2
    weight_filler {
      type: "xavier"
    }
    bias_filler {
      type: "constant"
      value: 0
    }
  }
}
layer {
  name: "conv6_2_relu"
  type: "ReLU"
  bottom: "conv6_2"
  top: "conv6_2"
}
layer {
  name: "conv7_1"
  type: "Convolution"
  bottom: "conv6_2"
  top: "conv7_1"
  param {
    lr_mult: 1
    decay_mult: 1
  }
  param {
    lr_mult: 2
    decay_mult: 0
  }
  convolution_param {
    num_output: 128
    pad: 0
    kernel_size: 1
    stride: 1
    weight_filler {
      type: "xavier"
    }
    bias_filler {
      type: "constant"
      value: 0
    }
  }
}
layer {
  name: "conv7_1_relu"
  type: "ReLU"
  bottom: "conv7_1"
  top: "conv7_1"
}
layer {
  name: "conv7_2"
  type: "Convolution"
  bottom: "conv7_1"
  top: "conv7_2"
  param {
    lr_mult: 1
    decay_mult: 1
  }
  param {
    lr_mult: 2
    decay_mult: 0
  }
  convolution_param {
    num_output: 256
    pad: 1
    kernel_size: 3
    stride: 2
    weight_filler {
      type: "xavier"
    }
    bias_filler {
      type: "constant"
      value: 0
    }
  }
}
layer {
  name: "conv7_2_relu"
  type: "ReLU"
  bottom: "conv7_2"
  top: "conv7_2"
}
layer {
  name: "conv8_1"
  type: "Convolution"
  bottom: "conv7_2"
  top: "conv8_1"
  param {
    lr_mult: 1
    decay_mult: 1
  }
  param {
    lr_mult: 2
    decay_mult: 0
  }
  convolution_param {
    num_output: 128
    pad: 0
    kernel_size: 1
    stride: 1
    weight_filler {
      type: "xavier"
    }
    bias_filler {
      type: "constant"
      value: 0
    }
  }
}
layer {
  name: "conv8_1_relu"
  type: "ReLU"
  bottom: "conv8_1"
  top: "conv8_1"
}
layer {
  name: "conv8_2"
  type: "Convolution"
  bottom: "conv8_1"
  top: "conv8_2"
  param {
    lr_mult: 1
    decay_mult: 1
  }
  param {
    lr_mult: 2
    decay_mult: 0
  }
  convolution_param {
    num_output: 256
    pad: 0
    kernel_size: 3
    stride: 1
    weight_filler {
      type: "xavier"
    }
    bias_filler {
      type: "constant"
      value: 0
    }
  }
}
layer {
  name: "conv8_2_relu"
  type: "ReLU"
  bottom: "conv8_2"
  top: "conv8_2"
}
layer {
  name: "conv9_1"
  type: "Convolution"
  bottom: "conv8_2"
  top: "conv9_1"
  param {
    lr_mult: 1
    decay_mult: 1
  }
  param {
    lr_mult: 2
    decay_mult: 0
  }
  convolution_param {
    num_output: 128
    pad: 0
    kernel_size: 1
    stride: 1
    weight_filler {
      type: "xavier"
    }
    bias_filler {
      type: "constant"
      value: 0
    }
  }
}
layer {
  name: "conv9_1_relu"
  type: "ReLU"
  bottom: "conv9_1"
  top: "conv9_1"
}
layer {
  name: "conv9_2"
  type: "Convolution"
  bottom: "conv9_1"
  top: "conv9_2"
  param {
    lr_mult: 1
    decay_mult: 1
  }
  param {
    lr_mult: 2
    decay_mult: 0
  }
  convolution_param {
    num_output: 256
    pad: 0
    kernel_size: 3
    stride: 1
    weight_filler {
      type: "xavier"
    }
    bias_filler {
      type: "constant"
      value: 0
    }
  }
}
layer {
  name: "conv9_2_relu"
  type: "ReLU"
  bottom: "conv9_2"
  top: "conv9_2"
}
layer {
  name: "conv4_3_norm"
  type: "Normalize"
  bottom: "conv4_3"
  top: "conv4_3_norm"
  norm_param {
    across_spatial: false
    scale_filler {
      type: "constant"
      value: 20
    }
    channel_shared: false
  }
}
layer {
  name: "conv4_3_norm_mbox_loc"
  type: "Convolution"
  bottom: "conv4_3_norm"
  top: "conv4_3_norm_mbox_loc"
  param {
    lr_mult: 1
    decay_mult: 1
  }
  param {
    lr_mult: 2
    decay_mult: 0
  }
  convolution_param {
    num_output: 16
    pad: 1
    kernel_size: 3
    stride: 1
    weight_filler {
      type: "xavier"
    }
    bias_filler {
      type: "constant"
      value: 0
    }
  }
}
layer {
  name: "conv4_3_norm_mbox_loc_perm"
  type: "Permute"
  bottom: "conv4_3_norm_mbox_loc"
  top: "conv4_3_norm_mbox_loc_perm"
  permute_param {
    order: 0
    order: 2
    order: 3
    order: 1
  }
}
layer {
  name: "conv4_3_norm_mbox_loc_flat"
  type: "Flatten"
  bottom: "conv4_3_norm_mbox_loc_perm"
  top: "conv4_3_norm_mbox_loc_flat"
  flatten_param {
    axis: 1
  }
}
layer {
  name: "conv4_3_norm_mbox_conf"
  type: "Convolution"
  bottom: "conv4_3_norm"
  top: "conv4_3_norm_mbox_conf"
  param {
    lr_mult: 1
    decay_mult: 1
  }
  param {
    lr_mult: 2
    decay_mult: 0
  }
  convolution_param {
    num_output: 84
    pad: 1
    kernel_size: 3
    stride: 1
    weight_filler {
      type: "xavier"
    }
    bias_filler {
      type: "constant"
      value: 0
    }
  }
}
layer {
  name: "conv4_3_norm_mbox_conf_perm"
  type: "Permute"
  bottom: "conv4_3_norm_mbox_conf"
  top: "conv4_3_norm_mbox_conf_perm"
  permute_param {
    order: 0
    order: 2
    order: 3
    order: 1
  }
}
layer {
  name: "conv4_3_norm_mbox_conf_flat"
  type: "Flatten"
  bottom: "conv4_3_norm_mbox_conf_perm"
  top: "conv4_3_norm_mbox_conf_flat"
  flatten_param {
    axis: 1
  }
}
layer {
  name: "conv4_3_norm_mbox_priorbox"
  type: "PriorBox"
  bottom: "conv4_3_norm"
  bottom: "data"
  top: "conv4_3_norm_mbox_priorbox"
  prior_box_param {
    min_size: 30
    max_size: 60
    aspect_ratio: 2
    flip: true
    clip: false
    variance: 0.1
    variance: 0.1
    variance: 0.2
    variance: 0.2
    step: 8
    offset: 0.5
  }
}
layer {
  name: "fc7_mbox_loc"
  type: "Convolution"
  bottom: "fc7"
  top: "fc7_mbox_loc"
  param {
    lr_mult: 1
    decay_mult: 1
  }
  param {
    lr_mult: 2
    decay_mult: 0
  }
  convolution_param {
    num_output: 24
    pad: 1
    kernel_size: 3
    stride: 1
    weight_filler {
      type: "xavier"
    }
    bias_filler {
      type: "constant"
      value: 0
    }
  }
}
layer {
  name: "fc7_mbox_loc_perm"
  type: "Permute"
  bottom: "fc7_mbox_loc"
  top: "fc7_mbox_loc_perm"
  permute_param {
    order: 0
    order: 2
    order: 3
    order: 1
  }
}
layer {
  name: "fc7_mbox_loc_flat"
  type: "Flatten"
  bottom: "fc7_mbox_loc_perm"
  top: "fc7_mbox_loc_flat"
  flatten_param {
    axis: 1
  }
}
layer {
  name: "fc7_mbox_conf"
  type: "Convolution"
  bottom: "fc7"
  top: "fc7_mbox_conf"
  param {
    lr_mult: 1
    decay_mult: 1
  }
  param {
    lr_mult: 2
    decay_mult: 0
  }
  convolution_param {
    num_output: 126
    pad: 1
    kernel_size: 3
    stride: 1
    weight_filler {
      type: "xavier"
    }
    bias_filler {
      type: "constant"
      value: 0
    }
  }
}
layer {
  name: "fc7_mbox_conf_perm"
  type: "Permute"
  bottom: "fc7_mbox_conf"
  top: "fc7_mbox_conf_perm"
  permute_param {
    order: 0
    order: 2
    order: 3
    order: 1
  }
}
layer {
  name: "fc7_mbox_conf_flat"
  type: "Flatten"
  bottom: "fc7_mbox_conf_perm"
  top: "fc7_mbox_conf_flat"
  flatten_param {
    axis: 1
  }
}
layer {
  name: "fc7_mbox_priorbox"
  type: "PriorBox"
  bottom: "fc7"
  bottom: "data"
  top: "fc7_mbox_priorbox"
  prior_box_param {
    min_size: 60
    max_size: 111
    aspect_ratio: 2
    aspect_ratio: 3
    flip: true
    clip: false
    variance: 0.1
    variance: 0.1
    variance: 0.2
    variance: 0.2
    step: 16
    offset: 0.5
  }
}
layer {
  name: "conv6_2_mbox_loc"
  type: "Convolution"
  bottom: "conv6_2"
  top: "conv6_2_mbox_loc"
  param {
    lr_mult: 1
    decay_mult: 1
  }
  param {
    lr_mult: 2
    decay_mult: 0
  }
  convolution_param {
    num_output: 24
    pad: 1
    kernel_size: 3
    stride: 1
    weight_filler {
      type: "xavier"
    }
    bias_filler {
      type: "constant"
      value: 0
    }
  }
}
layer {
  name: "conv6_2_mbox_loc_perm"
  type: "Permute"
  bottom: "conv6_2_mbox_loc"
  top: "conv6_2_mbox_loc_perm"
  permute_param {
    order: 0
    order: 2
    order: 3
    order: 1
  }
}
layer {
  name: "conv6_2_mbox_loc_flat"
  type: "Flatten"
  bottom: "conv6_2_mbox_loc_perm"
  top: "conv6_2_mbox_loc_flat"
  flatten_param {
    axis: 1
  }
}
layer {
  name: "conv6_2_mbox_conf"
  type: "Convolution"
  bottom: "conv6_2"
  top: "conv6_2_mbox_conf"
  param {
    lr_mult: 1
    decay_mult: 1
  }
  param {
    lr_mult: 2
    decay_mult: 0
  }
  convolution_param {
    num_output: 126
    pad: 1
    kernel_size: 3
    stride: 1
    weight_filler {
      type: "xavier"
    }
    bias_filler {
      type: "constant"
      value: 0
    }
  }
}
layer {
  name: "conv6_2_mbox_conf_perm"
  type: "Permute"
  bottom: "conv6_2_mbox_conf"
  top: "conv6_2_mbox_conf_perm"
  permute_param {
    order: 0
    order: 2
    order: 3
    order: 1
  }
}
layer {
  name: "conv6_2_mbox_conf_flat"
  type: "Flatten"
  bottom: "conv6_2_mbox_conf_perm"
  top: "conv6_2_mbox_conf_flat"
  flatten_param {
    axis: 1
  }
}
layer {
  name: "conv6_2_mbox_priorbox"
  type: "PriorBox"
  bottom: "conv6_2"
  bottom: "data"
  top: "conv6_2_mbox_priorbox"
  prior_box_param {
    min_size: 111
    max_size: 162
    aspect_ratio: 2
    aspect_ratio: 3
    flip: true
    clip: false
    variance: 0.1
    variance: 0.1
    variance: 0.2
    variance: 0.2
    step: 32
    offset: 0.5
  }
}
layer {
  name: "conv7_2_mbox_loc"
  type: "Convolution"
  bottom: "conv7_2"
  top: "conv7_2_mbox_loc"
  param {
    lr_mult: 1
    decay_mult: 1
  }
  param {
    lr_mult: 2
    decay_mult: 0
  }
  convolution_param {
    num_output: 24
    pad: 1
    kernel_size: 3
    stride: 1
    weight_filler {
      type: "xavier"
    }
    bias_filler {
      type: "constant"
      value: 0
    }
  }
}
layer {
  name: "conv7_2_mbox_loc_perm"
  type: "Permute"
  bottom: "conv7_2_mbox_loc"
  top: "conv7_2_mbox_loc_perm"
  permute_param {
    order: 0
    order: 2
    order: 3
    order: 1
  }
}
layer {
  name: "conv7_2_mbox_loc_flat"
  type: "Flatten"
  bottom: "conv7_2_mbox_loc_perm"
  top: "conv7_2_mbox_loc_flat"
  flatten_param {
    axis: 1
  }
}
layer {
  name: "conv7_2_mbox_conf"
  type: "Convolution"
  bottom: "conv7_2"
  top: "conv7_2_mbox_conf"
  param {
    lr_mult: 1
    decay_mult: 1
  }
  param {
    lr_mult: 2
    decay_mult: 0
  }
  convolution_param {
    num_output: 126
    pad: 1
    kernel_size: 3
    stride: 1
    weight_filler {
      type: "xavier"
    }
    bias_filler {
      type: "constant"
      value: 0
    }
  }
}
layer {
  name: "conv7_2_mbox_conf_perm"
  type: "Permute"
  bottom: "conv7_2_mbox_conf"
  top: "conv7_2_mbox_conf_perm"
  permute_param {
    order: 0
    order: 2
    order: 3
    order: 1
  }
}
layer {
  name: "conv7_2_mbox_conf_flat"
  type: "Flatten"
  bottom: "conv7_2_mbox_conf_perm"
  top: "conv7_2_mbox_conf_flat"
  flatten_param {
    axis: 1
  }
}
layer {
  name: "conv7_2_mbox_priorbox"
  type: "PriorBox"
  bottom: "conv7_2"
  bottom: "data"
  top: "conv7_2_mbox_priorbox"
  prior_box_param {
    min_size: 162
    max_size: 213
    aspect_ratio: 2
    aspect_ratio: 3
    flip: true
    clip: false
    variance: 0.1
    variance: 0.1
    variance: 0.2
    variance: 0.2
    step: 64
    offset: 0.5
  }
}
layer {
  name: "conv8_2_mbox_loc"
  type: "Convolution"
  bottom: "conv8_2"
  top: "conv8_2_mbox_loc"
  param {
    lr_mult: 1
    decay_mult: 1
  }
  param {
    lr_mult: 2
    decay_mult: 0
  }
  convolution_param {
    num_output: 16
    pad: 1
    kernel_size: 3
    stride: 1
    weight_filler {
      type: "xavier"
    }
    bias_filler {
      type: "constant"
      value: 0
    }
  }
}
layer {
  name: "conv8_2_mbox_loc_perm"
  type: "Permute"
  bottom: "conv8_2_mbox_loc"
  top: "conv8_2_mbox_loc_perm"
  permute_param {
    order: 0
    order: 2
    order: 3
    order: 1
  }
}
layer {
  name: "conv8_2_mbox_loc_flat"
  type: "Flatten"
  bottom: "conv8_2_mbox_loc_perm"
  top: "conv8_2_mbox_loc_flat"
  flatten_param {
    axis: 1
  }
}
layer {
  name: "conv8_2_mbox_conf"
  type: "Convolution"
  bottom: "conv8_2"
  top: "conv8_2_mbox_conf"
  param {
    lr_mult: 1
    decay_mult: 1
  }
  param {
    lr_mult: 2
    decay_mult: 0
  }
  convolution_param {
    num_output: 84
    pad: 1
    kernel_size: 3
    stride: 1
    weight_filler {
      type: "xavier"
    }
    bias_filler {
      type: "constant"
      value: 0
    }
  }
}
layer {
  name: "conv8_2_mbox_conf_perm"
  type: "Permute"
  bottom: "conv8_2_mbox_conf"
  top: "conv8_2_mbox_conf_perm"
  permute_param {
    order: 0
    order: 2
    order: 3
    order: 1
  }
}
layer {
  name: "conv8_2_mbox_conf_flat"
  type: "Flatten"
  bottom: "conv8_2_mbox_conf_perm"
  top: "conv8_2_mbox_conf_flat"
  flatten_param {
    axis: 1
  }
}
layer {
  name: "conv8_2_mbox_priorbox"
  type: "PriorBox"
  bottom: "conv8_2"
  bottom: "data"
  top: "conv8_2_mbox_priorbox"
  prior_box_param {
    min_size: 213
    max_size: 264
    aspect_ratio: 2
    flip: true
    clip: false
    variance: 0.1
    variance: 0.1
    variance: 0.2
    variance: 0.2
    step: 100
    offset: 0.5
  }
}
layer {
  name: "conv9_2_mbox_loc"
  type: "Convolution"
  bottom: "conv9_2"
  top: "conv9_2_mbox_loc"
  param {
    lr_mult: 1
    decay_mult: 1
  }
  param {
    lr_mult: 2
    decay_mult: 0
  }
  convolution_param {
    num_output: 16
    pad: 1
    kernel_size: 3
    stride: 1
    weight_filler {
      type: "xavier"
    }
    bias_filler {
      type: "constant"
      value: 0
    }
  }
}
layer {
  name: "conv9_2_mbox_loc_perm"
  type: "Permute"
  bottom: "conv9_2_mbox_loc"
  top: "conv9_2_mbox_loc_perm"
  permute_param {
    order: 0
    order: 2
    order: 3
    order: 1
  }
}
layer {
  name: "conv9_2_mbox_loc_flat"
  type: "Flatten"
  bottom: "conv9_2_mbox_loc_perm"
  top: "conv9_2_mbox_loc_flat"
  flatten_param {
    axis: 1
  }
}
layer {
  name: "conv9_2_mbox_conf"
  type: "Convolution"
  bottom: "conv9_2"
  top: "conv9_2_mbox_conf"
  param {
    lr_mult: 1
    decay_mult: 1
  }
  param {
    lr_mult: 2
    decay_mult: 0
  }
  convolution_param {
    num_output: 84
    pad: 1
    kernel_size: 3
    stride: 1
    weight_filler {
      type: "xavier"
    }
    bias_filler {
      type: "constant"
      value: 0
    }
  }
}
layer {
  name: "conv9_2_mbox_conf_perm"
  type: "Permute"
  bottom: "conv9_2_mbox_conf"
  top: "conv9_2_mbox_conf_perm"
  permute_param {
    order: 0
    order: 2
    order: 3
    order: 1
  }
}
layer {
  name: "conv9_2_mbox_conf_flat"
  type: "Flatten"
  bottom: "conv9_2_mbox_conf_perm"
  top: "conv9_2_mbox_conf_flat"
  flatten_param {
    axis: 1
  }
}
layer {
  name: "conv9_2_mbox_priorbox"
  type: "PriorBox"
  bottom: "conv9_2"
  bottom: "data"
  top: "conv9_2_mbox_priorbox"
  prior_box_param {
    min_size: 264
    max_size: 315
    aspect_ratio: 2
    flip: true
    clip: false
    variance: 0.1
    variance: 0.1
    variance: 0.2
    variance: 0.2
    step: 300
    offset: 0.5
  }
}
layer {
  name: "mbox_loc"
  type: "Concat"
  bottom: "conv4_3_norm_mbox_loc_flat"
  bottom: "fc7_mbox_loc_flat"
  bottom: "conv6_2_mbox_loc_flat"
  bottom: "conv7_2_mbox_loc_flat"
  bottom: "conv8_2_mbox_loc_flat"
  bottom: "conv9_2_mbox_loc_flat"
  top: "mbox_loc"
  concat_param {
    axis: 1
  }
}
layer {
  name: "mbox_conf"
  type: "Concat"
  bottom: "conv4_3_norm_mbox_conf_flat"
  bottom: "fc7_mbox_conf_flat"
  bottom: "conv6_2_mbox_conf_flat"
  bottom: "conv7_2_mbox_conf_flat"
  bottom: "conv8_2_mbox_conf_flat"
  bottom: "conv9_2_mbox_conf_flat"
  top: "mbox_conf"
  concat_param {
    axis: 1
  }
}
layer {
  name: "mbox_priorbox"
  type: "Concat"
  bottom: "conv4_3_norm_mbox_priorbox"
  bottom: "fc7_mbox_priorbox"
  bottom: "conv6_2_mbox_priorbox"
  bottom: "conv7_2_mbox_priorbox"
  bottom: "conv8_2_mbox_priorbox"
  bottom: "conv9_2_mbox_priorbox"
  top: "mbox_priorbox"
  concat_param {
    axis: 2
  }
}
layer {
  name: "mbox_conf_reshape"
  type: "Reshape"
  bottom: "mbox_conf"
  top: "mbox_conf_reshape"
  reshape_param {
    shape {
      dim: 0
      dim: -1
      dim: 21
    }
  }
}
layer {
  name: "mbox_conf_softmax"
  type: "Softmax"
  bottom: "mbox_conf_reshape"
  top: "mbox_conf_softmax"
  softmax_param {
    axis: 2
  }
}
layer {
  name: "mbox_conf_flatten"
  type: "Flatten"
  bottom: "mbox_conf_softmax"
  top: "mbox_conf_flatten"
  flatten_param {
    axis: 1
  }
}
layer {
  name: "detection_out"
  type: "DetectionOutput"
  bottom: "mbox_loc"
  bottom: "mbox_conf_flatten"
  bottom: "mbox_priorbox"
  top: "detection_out"
  include {
    phase: TEST
  }
  detection_output_param {
    num_classes: 21
    share_location: true
    background_label_id: 0
    nms_param {
      nms_threshold: 0.45
      top_k: 400
    }
    save_output_param {
      output_directory: "/home/chiachi//data/VOCdevkit/results/VOC2007/SSD_300x300/Main"
      output_name_prefix: "comp4_det_test_"
      output_format: "VOC"
      label_map_file: "data/VOC0712/labelmap_voc.prototxt"
      name_size_file: "data/VOC0712/test_name_size.txt"
      num_test_image: 4952
    }
    code_type: CENTER_SIZE
    keep_top_k: 200
    confidence_threshold: 0.01
  }
}
layer {
  name: "detection_eval"
  type: "DetectionEvaluate"
  bottom: "detection_out"
  bottom: "label"
  top: "detection_eval"
  include {
    phase: TEST
  }
  detection_evaluate_param {
    num_classes: 21
    background_label_id: 0
    overlap_threshold: 0.5
    evaluate_difficult_gt: false
    name_size_file: "data/VOC0712/test_name_size.txt"
  }
}
I0726 06:57:17.460048 51095 layer_factory.hpp:77] Creating layer data
I0726 06:57:17.463145 51142 db_lmdb.cpp:35] Opened lmdb examples/VOC0712/VOC0712_test_lmdb
I0726 06:57:17.463838 51095 layer_factory.hpp:77] Creating layer data
I0726 06:57:17.463955 51095 net.cpp:92] Creating Layer data
I0726 06:57:17.463987 51095 net.cpp:444] data -> data
I0726 06:57:17.464159 51095 net.cpp:444] data -> label
I0726 06:57:17.467736 51143 db_lmdb.cpp:35] Opened lmdb examples/VOC0712/VOC0712_test_lmdb
I0726 06:57:17.469955 51095 annotated_data_layer.cpp:62] output data size: 2,3,300,300
I0726 06:57:17.474748 51095 net.cpp:142] Setting up data
I0726 06:57:17.474789 51095 net.cpp:149] Top shape: 2 3 300 300 (540000)
I0726 06:57:17.474861 51095 net.cpp:149] Top shape: 1 1 2 8 (16)
I0726 06:57:17.474964 51095 net.cpp:157] Memory required for data: 2160064
I0726 06:57:17.475009 51095 layer_factory.hpp:77] Creating layer data_data_0_split
I0726 06:57:17.475059 51095 layer_factory.hpp:77] Creating layer data_data_0_split
I0726 06:57:17.475113 51095 net.cpp:92] Creating Layer data_data_0_split
I0726 06:57:17.475176 51095 net.cpp:470] data_data_0_split <- data
I0726 06:57:17.475198 51095 net.cpp:444] data_data_0_split -> data_data_0_split_0
I0726 06:57:17.475261 51095 net.cpp:444] data_data_0_split -> data_data_0_split_1
I0726 06:57:17.475383 51095 net.cpp:444] data_data_0_split -> data_data_0_split_2
I0726 06:57:17.475437 51095 net.cpp:444] data_data_0_split -> data_data_0_split_3
I0726 06:57:17.475473 51095 net.cpp:444] data_data_0_split -> data_data_0_split_4
I0726 06:57:17.475576 51095 net.cpp:444] data_data_0_split -> data_data_0_split_5
I0726 06:57:17.475684 51095 net.cpp:444] data_data_0_split -> data_data_0_split_6
I0726 06:57:17.475986 51095 net.cpp:142] Setting up data_data_0_split
I0726 06:57:17.476044 51095 net.cpp:149] Top shape: 2 3 300 300 (540000)
I0726 06:57:17.476089 51095 net.cpp:149] Top shape: 2 3 300 300 (540000)
I0726 06:57:17.476148 51095 net.cpp:149] Top shape: 2 3 300 300 (540000)
I0726 06:57:17.476179 51095 net.cpp:149] Top shape: 2 3 300 300 (540000)
I0726 06:57:17.476212 51095 net.cpp:149] Top shape: 2 3 300 300 (540000)
I0726 06:57:17.476269 51095 net.cpp:149] Top shape: 2 3 300 300 (540000)
I0726 06:57:17.476405 51095 net.cpp:149] Top shape: 2 3 300 300 (540000)
I0726 06:57:17.476450 51095 net.cpp:157] Memory required for data: 17280064
I0726 06:57:17.476572 51095 layer_factory.hpp:77] Creating layer conv1_1
I0726 06:57:17.476666 51095 layer_factory.hpp:77] Creating layer conv1_1
I0726 06:57:17.476747 51095 net.cpp:92] Creating Layer conv1_1
I0726 06:57:17.476824 51095 net.cpp:470] conv1_1 <- data_data_0_split_0
I0726 06:57:17.476963 51095 net.cpp:444] conv1_1 -> conv1_1
I0726 06:57:17.477386 51095 net.cpp:142] Setting up conv1_1
I0726 06:57:17.477408 51095 net.cpp:149] Top shape: 2 64 300 300 (11520000)
I0726 06:57:17.477435 51095 net.cpp:157] Memory required for data: 63360064
I0726 06:57:17.477552 51095 layer_factory.hpp:77] Creating layer relu1_1
I0726 06:57:17.477674 51095 layer_factory.hpp:77] Creating layer relu1_1
I0726 06:57:17.477809 51095 net.cpp:92] Creating Layer relu1_1
I0726 06:57:17.477881 51095 net.cpp:470] relu1_1 <- conv1_1
I0726 06:57:17.477985 51095 net.cpp:431] relu1_1 -> conv1_1 (in-place)
I0726 06:57:17.478030 51095 net.cpp:142] Setting up relu1_1
I0726 06:57:17.478102 51095 net.cpp:149] Top shape: 2 64 300 300 (11520000)
I0726 06:57:17.478142 51095 net.cpp:157] Memory required for data: 109440064
I0726 06:57:17.478183 51095 layer_factory.hpp:77] Creating layer conv1_2
I0726 06:57:17.478224 51095 layer_factory.hpp:77] Creating layer conv1_2
I0726 06:57:17.478381 51095 net.cpp:92] Creating Layer conv1_2
I0726 06:57:17.478435 51095 net.cpp:470] conv1_2 <- conv1_1
I0726 06:57:17.478529 51095 net.cpp:444] conv1_2 -> conv1_2
I0726 06:57:17.479053 51095 net.cpp:142] Setting up conv1_2
I0726 06:57:17.479133 51095 net.cpp:149] Top shape: 2 64 300 300 (11520000)
I0726 06:57:17.479259 51095 net.cpp:157] Memory required for data: 155520064
I0726 06:57:17.479336 51095 layer_factory.hpp:77] Creating layer relu1_2
I0726 06:57:17.479367 51095 layer_factory.hpp:77] Creating layer relu1_2
I0726 06:57:17.479430 51095 net.cpp:92] Creating Layer relu1_2
I0726 06:57:17.479488 51095 net.cpp:470] relu1_2 <- conv1_2
I0726 06:57:17.479524 51095 net.cpp:431] relu1_2 -> conv1_2 (in-place)
I0726 06:57:17.479610 51095 net.cpp:142] Setting up relu1_2
I0726 06:57:17.479799 51095 net.cpp:149] Top shape: 2 64 300 300 (11520000)
I0726 06:57:17.479826 51095 net.cpp:157] Memory required for data: 201600064
I0726 06:57:17.479881 51095 layer_factory.hpp:77] Creating layer pool1
I0726 06:57:17.479925 51095 layer_factory.hpp:77] Creating layer pool1
I0726 06:57:17.480091 51095 net.cpp:92] Creating Layer pool1
I0726 06:57:17.480163 51095 net.cpp:470] pool1 <- conv1_2
I0726 06:57:17.480213 51095 net.cpp:444] pool1 -> pool1
I0726 06:57:17.480335 51095 net.cpp:142] Setting up pool1
I0726 06:57:17.480407 51095 net.cpp:149] Top shape: 2 64 150 150 (2880000)
I0726 06:57:17.480506 51095 net.cpp:157] Memory required for data: 213120064
I0726 06:57:17.480582 51095 layer_factory.hpp:77] Creating layer conv2_1
I0726 06:57:17.480667 51095 layer_factory.hpp:77] Creating layer conv2_1
I0726 06:57:17.480808 51095 net.cpp:92] Creating Layer conv2_1
I0726 06:57:17.480888 51095 net.cpp:470] conv2_1 <- pool1
I0726 06:57:17.480974 51095 net.cpp:444] conv2_1 -> conv2_1
I0726 06:57:17.481482 51095 net.cpp:142] Setting up conv2_1
I0726 06:57:17.481590 51095 net.cpp:149] Top shape: 2 128 150 150 (5760000)
I0726 06:57:17.481640 51095 net.cpp:157] Memory required for data: 236160064
I0726 06:57:17.481676 51095 layer_factory.hpp:77] Creating layer relu2_1
I0726 06:57:17.481730 51095 layer_factory.hpp:77] Creating layer relu2_1
I0726 06:57:17.481770 51095 net.cpp:92] Creating Layer relu2_1
I0726 06:57:17.481869 51095 net.cpp:470] relu2_1 <- conv2_1
I0726 06:57:17.481928 51095 net.cpp:431] relu2_1 -> conv2_1 (in-place)
I0726 06:57:17.481995 51095 net.cpp:142] Setting up relu2_1
I0726 06:57:17.482167 51095 net.cpp:149] Top shape: 2 128 150 150 (5760000)
I0726 06:57:17.482357 51095 net.cpp:157] Memory required for data: 259200064
I0726 06:57:17.482410 51095 layer_factory.hpp:77] Creating layer conv2_2
I0726 06:57:17.482806 51095 layer_factory.hpp:77] Creating layer conv2_2
I0726 06:57:17.482878 51095 net.cpp:92] Creating Layer conv2_2
I0726 06:57:17.482977 51095 net.cpp:470] conv2_2 <- conv2_1
I0726 06:57:17.483049 51095 net.cpp:444] conv2_2 -> conv2_2
I0726 06:57:17.484516 51095 net.cpp:142] Setting up conv2_2
I0726 06:57:17.484552 51095 net.cpp:149] Top shape: 2 128 150 150 (5760000)
I0726 06:57:17.484575 51095 net.cpp:157] Memory required for data: 282240064
I0726 06:57:17.484673 51095 layer_factory.hpp:77] Creating layer relu2_2
I0726 06:57:17.484737 51095 layer_factory.hpp:77] Creating layer relu2_2
I0726 06:57:17.484836 51095 net.cpp:92] Creating Layer relu2_2
I0726 06:57:17.484930 51095 net.cpp:470] relu2_2 <- conv2_2
I0726 06:57:17.484980 51095 net.cpp:431] relu2_2 -> conv2_2 (in-place)
I0726 06:57:17.485047 51095 net.cpp:142] Setting up relu2_2
I0726 06:57:17.485074 51095 net.cpp:149] Top shape: 2 128 150 150 (5760000)
I0726 06:57:17.485219 51095 net.cpp:157] Memory required for data: 305280064
I0726 06:57:17.485236 51095 layer_factory.hpp:77] Creating layer pool2
I0726 06:57:17.485304 51095 layer_factory.hpp:77] Creating layer pool2
I0726 06:57:17.485488 51095 net.cpp:92] Creating Layer pool2
I0726 06:57:17.485605 51095 net.cpp:470] pool2 <- conv2_2
I0726 06:57:17.485623 51095 net.cpp:444] pool2 -> pool2
I0726 06:57:17.485728 51095 net.cpp:142] Setting up pool2
I0726 06:57:17.485800 51095 net.cpp:149] Top shape: 2 128 75 75 (1440000)
I0726 06:57:17.485844 51095 net.cpp:157] Memory required for data: 311040064
I0726 06:57:17.485862 51095 layer_factory.hpp:77] Creating layer conv3_1
I0726 06:57:17.485893 51095 layer_factory.hpp:77] Creating layer conv3_1
I0726 06:57:17.485944 51095 net.cpp:92] Creating Layer conv3_1
I0726 06:57:17.485975 51095 net.cpp:470] conv3_1 <- pool2
I0726 06:57:17.486024 51095 net.cpp:444] conv3_1 -> conv3_1
I0726 06:57:17.487495 51095 net.cpp:142] Setting up conv3_1
I0726 06:57:17.487576 51095 net.cpp:149] Top shape: 2 256 75 75 (2880000)
I0726 06:57:17.487639 51095 net.cpp:157] Memory required for data: 322560064
I0726 06:57:17.487711 51095 layer_factory.hpp:77] Creating layer relu3_1
I0726 06:57:17.487738 51095 layer_factory.hpp:77] Creating layer relu3_1
I0726 06:57:17.487771 51095 net.cpp:92] Creating Layer relu3_1
I0726 06:57:17.487824 51095 net.cpp:470] relu3_1 <- conv3_1
I0726 06:57:17.487864 51095 net.cpp:431] relu3_1 -> conv3_1 (in-place)
I0726 06:57:17.487882 51095 net.cpp:142] Setting up relu3_1
I0726 06:57:17.487910 51095 net.cpp:149] Top shape: 2 256 75 75 (2880000)
I0726 06:57:17.487963 51095 net.cpp:157] Memory required for data: 334080064
I0726 06:57:17.488027 51095 layer_factory.hpp:77] Creating layer conv3_2
I0726 06:57:17.488072 51095 layer_factory.hpp:77] Creating layer conv3_2
I0726 06:57:17.488144 51095 net.cpp:92] Creating Layer conv3_2
I0726 06:57:17.488184 51095 net.cpp:470] conv3_2 <- conv3_1
I0726 06:57:17.488243 51095 net.cpp:444] conv3_2 -> conv3_2
I0726 06:57:17.491559 51095 net.cpp:142] Setting up conv3_2
I0726 06:57:17.491631 51095 net.cpp:149] Top shape: 2 256 75 75 (2880000)
I0726 06:57:17.491677 51095 net.cpp:157] Memory required for data: 345600064
I0726 06:57:17.491762 51095 layer_factory.hpp:77] Creating layer relu3_2
I0726 06:57:17.491816 51095 layer_factory.hpp:77] Creating layer relu3_2
I0726 06:57:17.491883 51095 net.cpp:92] Creating Layer relu3_2
I0726 06:57:17.491937 51095 net.cpp:470] relu3_2 <- conv3_2
I0726 06:57:17.492027 51095 net.cpp:431] relu3_2 -> conv3_2 (in-place)
I0726 06:57:17.492059 51095 net.cpp:142] Setting up relu3_2
I0726 06:57:17.492086 51095 net.cpp:149] Top shape: 2 256 75 75 (2880000)
I0726 06:57:17.492221 51095 net.cpp:157] Memory required for data: 357120064
I0726 06:57:17.492275 51095 layer_factory.hpp:77] Creating layer conv3_3
I0726 06:57:17.492298 51095 layer_factory.hpp:77] Creating layer conv3_3
I0726 06:57:17.492334 51095 net.cpp:92] Creating Layer conv3_3
I0726 06:57:17.492410 51095 net.cpp:470] conv3_3 <- conv3_2
I0726 06:57:17.492455 51095 net.cpp:444] conv3_3 -> conv3_3
I0726 06:57:17.496078 51095 net.cpp:142] Setting up conv3_3
I0726 06:57:17.496119 51095 net.cpp:149] Top shape: 2 256 75 75 (2880000)
I0726 06:57:17.496145 51095 net.cpp:157] Memory required for data: 368640064
I0726 06:57:17.496172 51095 layer_factory.hpp:77] Creating layer relu3_3
I0726 06:57:17.496235 51095 layer_factory.hpp:77] Creating layer relu3_3
I0726 06:57:17.496276 51095 net.cpp:92] Creating Layer relu3_3
I0726 06:57:17.496299 51095 net.cpp:470] relu3_3 <- conv3_3
I0726 06:57:17.496384 51095 net.cpp:431] relu3_3 -> conv3_3 (in-place)
I0726 06:57:17.496412 51095 net.cpp:142] Setting up relu3_3
I0726 06:57:17.496474 51095 net.cpp:149] Top shape: 2 256 75 75 (2880000)
I0726 06:57:17.496528 51095 net.cpp:157] Memory required for data: 380160064
I0726 06:57:17.496559 51095 layer_factory.hpp:77] Creating layer pool3
I0726 06:57:17.496613 51095 layer_factory.hpp:77] Creating layer pool3
I0726 06:57:17.496664 51095 net.cpp:92] Creating Layer pool3
I0726 06:57:17.496731 51095 net.cpp:470] pool3 <- conv3_3
I0726 06:57:17.496910 51095 net.cpp:444] pool3 -> pool3
I0726 06:57:17.497014 51095 net.cpp:142] Setting up pool3
I0726 06:57:17.497045 51095 net.cpp:149] Top shape: 2 256 38 38 (739328)
I0726 06:57:17.497077 51095 net.cpp:157] Memory required for data: 383117376
I0726 06:57:17.497123 51095 layer_factory.hpp:77] Creating layer conv4_1
I0726 06:57:17.497203 51095 layer_factory.hpp:77] Creating layer conv4_1
I0726 06:57:17.497339 51095 net.cpp:92] Creating Layer conv4_1
I0726 06:57:17.497483 51095 net.cpp:470] conv4_1 <- pool3
I0726 06:57:17.497635 51095 net.cpp:444] conv4_1 -> conv4_1
I0726 06:57:17.503949 51095 net.cpp:142] Setting up conv4_1
I0726 06:57:17.504053 51095 net.cpp:149] Top shape: 2 512 38 38 (1478656)
I0726 06:57:17.504107 51095 net.cpp:157] Memory required for data: 389032000
I0726 06:57:17.504179 51095 layer_factory.hpp:77] Creating layer relu4_1
I0726 06:57:17.504314 51095 layer_factory.hpp:77] Creating layer relu4_1
I0726 06:57:17.504345 51095 net.cpp:92] Creating Layer relu4_1
I0726 06:57:17.504441 51095 net.cpp:470] relu4_1 <- conv4_1
I0726 06:57:17.504477 51095 net.cpp:431] relu4_1 -> conv4_1 (in-place)
I0726 06:57:17.504508 51095 net.cpp:142] Setting up relu4_1
I0726 06:57:17.504544 51095 net.cpp:149] Top shape: 2 512 38 38 (1478656)
I0726 06:57:17.504606 51095 net.cpp:157] Memory required for data: 394946624
I0726 06:57:17.504638 51095 layer_factory.hpp:77] Creating layer conv4_2
I0726 06:57:17.504678 51095 layer_factory.hpp:77] Creating layer conv4_2
I0726 06:57:17.504746 51095 net.cpp:92] Creating Layer conv4_2
I0726 06:57:17.504801 51095 net.cpp:470] conv4_2 <- conv4_1
I0726 06:57:17.504837 51095 net.cpp:444] conv4_2 -> conv4_2
I0726 06:57:17.515851 51095 net.cpp:142] Setting up conv4_2
I0726 06:57:17.515887 51095 net.cpp:149] Top shape: 2 512 38 38 (1478656)
I0726 06:57:17.515924 51095 net.cpp:157] Memory required for data: 400861248
I0726 06:57:17.515978 51095 layer_factory.hpp:77] Creating layer relu4_2
I0726 06:57:17.516000 51095 layer_factory.hpp:77] Creating layer relu4_2
I0726 06:57:17.516027 51095 net.cpp:92] Creating Layer relu4_2
I0726 06:57:17.516059 51095 net.cpp:470] relu4_2 <- conv4_2
I0726 06:57:17.516104 51095 net.cpp:431] relu4_2 -> conv4_2 (in-place)
I0726 06:57:17.516163 51095 net.cpp:142] Setting up relu4_2
I0726 06:57:17.516217 51095 net.cpp:149] Top shape: 2 512 38 38 (1478656)
I0726 06:57:17.516253 51095 net.cpp:157] Memory required for data: 406775872
I0726 06:57:17.516299 51095 layer_factory.hpp:77] Creating layer conv4_3
I0726 06:57:17.516325 51095 layer_factory.hpp:77] Creating layer conv4_3
I0726 06:57:17.516392 51095 net.cpp:92] Creating Layer conv4_3
I0726 06:57:17.516446 51095 net.cpp:470] conv4_3 <- conv4_2
I0726 06:57:17.516487 51095 net.cpp:444] conv4_3 -> conv4_3
I0726 06:57:17.527575 51095 net.cpp:142] Setting up conv4_3
I0726 06:57:17.527616 51095 net.cpp:149] Top shape: 2 512 38 38 (1478656)
I0726 06:57:17.527652 51095 net.cpp:157] Memory required for data: 412690496
I0726 06:57:17.527684 51095 layer_factory.hpp:77] Creating layer relu4_3
I0726 06:57:17.527711 51095 layer_factory.hpp:77] Creating layer relu4_3
I0726 06:57:17.527729 51095 net.cpp:92] Creating Layer relu4_3
I0726 06:57:17.527747 51095 net.cpp:470] relu4_3 <- conv4_3
I0726 06:57:17.527774 51095 net.cpp:431] relu4_3 -> conv4_3 (in-place)
I0726 06:57:17.527801 51095 net.cpp:142] Setting up relu4_3
I0726 06:57:17.527828 51095 net.cpp:149] Top shape: 2 512 38 38 (1478656)
I0726 06:57:17.527918 51095 net.cpp:157] Memory required for data: 418605120
I0726 06:57:17.527963 51095 layer_factory.hpp:77] Creating layer conv4_3_relu4_3_0_split
I0726 06:57:17.527990 51095 layer_factory.hpp:77] Creating layer conv4_3_relu4_3_0_split
I0726 06:57:17.528023 51095 net.cpp:92] Creating Layer conv4_3_relu4_3_0_split
I0726 06:57:17.528040 51095 net.cpp:470] conv4_3_relu4_3_0_split <- conv4_3
I0726 06:57:17.528093 51095 net.cpp:444] conv4_3_relu4_3_0_split -> conv4_3_relu4_3_0_split_0
I0726 06:57:17.528138 51095 net.cpp:444] conv4_3_relu4_3_0_split -> conv4_3_relu4_3_0_split_1
I0726 06:57:17.528251 51095 net.cpp:142] Setting up conv4_3_relu4_3_0_split
I0726 06:57:17.528292 51095 net.cpp:149] Top shape: 2 512 38 38 (1478656)
I0726 06:57:17.528359 51095 net.cpp:149] Top shape: 2 512 38 38 (1478656)
I0726 06:57:17.528404 51095 net.cpp:157] Memory required for data: 430434368
I0726 06:57:17.528512 51095 layer_factory.hpp:77] Creating layer pool4
I0726 06:57:17.528643 51095 layer_factory.hpp:77] Creating layer pool4
I0726 06:57:17.528733 51095 net.cpp:92] Creating Layer pool4
I0726 06:57:17.528836 51095 net.cpp:470] pool4 <- conv4_3_relu4_3_0_split_0
I0726 06:57:17.528935 51095 net.cpp:444] pool4 -> pool4
I0726 06:57:17.529111 51095 net.cpp:142] Setting up pool4
I0726 06:57:17.529192 51095 net.cpp:149] Top shape: 2 512 19 19 (369664)
I0726 06:57:17.529223 51095 net.cpp:157] Memory required for data: 431913024
I0726 06:57:17.529322 51095 layer_factory.hpp:77] Creating layer conv5_1
I0726 06:57:17.529381 51095 layer_factory.hpp:77] Creating layer conv5_1
I0726 06:57:17.529408 51095 net.cpp:92] Creating Layer conv5_1
I0726 06:57:17.529448 51095 net.cpp:470] conv5_1 <- pool4
I0726 06:57:17.529494 51095 net.cpp:444] conv5_1 -> conv5_1
I0726 06:57:17.540530 51095 net.cpp:142] Setting up conv5_1
I0726 06:57:17.540560 51095 net.cpp:149] Top shape: 2 512 19 19 (369664)
I0726 06:57:17.540570 51095 net.cpp:157] Memory required for data: 433391680
I0726 06:57:17.540601 51095 layer_factory.hpp:77] Creating layer relu5_1
I0726 06:57:17.540623 51095 layer_factory.hpp:77] Creating layer relu5_1
I0726 06:57:17.540632 51095 net.cpp:92] Creating Layer relu5_1
I0726 06:57:17.540642 51095 net.cpp:470] relu5_1 <- conv5_1
I0726 06:57:17.540653 51095 net.cpp:431] relu5_1 -> conv5_1 (in-place)
I0726 06:57:17.540665 51095 net.cpp:142] Setting up relu5_1
I0726 06:57:17.540678 51095 net.cpp:149] Top shape: 2 512 19 19 (369664)
I0726 06:57:17.540705 51095 net.cpp:157] Memory required for data: 434870336
I0726 06:57:17.540724 51095 layer_factory.hpp:77] Creating layer conv5_2
I0726 06:57:17.540760 51095 layer_factory.hpp:77] Creating layer conv5_2
I0726 06:57:17.540777 51095 net.cpp:92] Creating Layer conv5_2
I0726 06:57:17.540804 51095 net.cpp:470] conv5_2 <- conv5_1
I0726 06:57:17.540827 51095 net.cpp:444] conv5_2 -> conv5_2
I0726 06:57:17.552048 51095 net.cpp:142] Setting up conv5_2
I0726 06:57:17.552081 51095 net.cpp:149] Top shape: 2 512 19 19 (369664)
I0726 06:57:17.552099 51095 net.cpp:157] Memory required for data: 436348992
I0726 06:57:17.552125 51095 layer_factory.hpp:77] Creating layer relu5_2
I0726 06:57:17.552145 51095 layer_factory.hpp:77] Creating layer relu5_2
I0726 06:57:17.552162 51095 net.cpp:92] Creating Layer relu5_2
I0726 06:57:17.552181 51095 net.cpp:470] relu5_2 <- conv5_2
I0726 06:57:17.552217 51095 net.cpp:431] relu5_2 -> conv5_2 (in-place)
I0726 06:57:17.552234 51095 net.cpp:142] Setting up relu5_2
I0726 06:57:17.552261 51095 net.cpp:149] Top shape: 2 512 19 19 (369664)
I0726 06:57:17.552279 51095 net.cpp:157] Memory required for data: 437827648
I0726 06:57:17.552297 51095 layer_factory.hpp:77] Creating layer conv5_3
I0726 06:57:17.552342 51095 layer_factory.hpp:77] Creating layer conv5_3
I0726 06:57:17.552364 51095 net.cpp:92] Creating Layer conv5_3
I0726 06:57:17.552397 51095 net.cpp:470] conv5_3 <- conv5_2
I0726 06:57:17.552423 51095 net.cpp:444] conv5_3 -> conv5_3
I0726 06:57:17.563804 51095 net.cpp:142] Setting up conv5_3
I0726 06:57:17.563885 51095 net.cpp:149] Top shape: 2 512 19 19 (369664)
I0726 06:57:17.563989 51095 net.cpp:157] Memory required for data: 439306304
I0726 06:57:17.564088 51095 layer_factory.hpp:77] Creating layer relu5_3
I0726 06:57:17.564146 51095 layer_factory.hpp:77] Creating layer relu5_3
I0726 06:57:17.564178 51095 net.cpp:92] Creating Layer relu5_3
I0726 06:57:17.564241 51095 net.cpp:470] relu5_3 <- conv5_3
I0726 06:57:17.564272 51095 net.cpp:431] relu5_3 -> conv5_3 (in-place)
I0726 06:57:17.564327 51095 net.cpp:142] Setting up relu5_3
I0726 06:57:17.564344 51095 net.cpp:149] Top shape: 2 512 19 19 (369664)
I0726 06:57:17.564368 51095 net.cpp:157] Memory required for data: 440784960
I0726 06:57:17.564389 51095 layer_factory.hpp:77] Creating layer pool5
I0726 06:57:17.564421 51095 layer_factory.hpp:77] Creating layer pool5
I0726 06:57:17.564443 51095 net.cpp:92] Creating Layer pool5
I0726 06:57:17.564466 51095 net.cpp:470] pool5 <- conv5_3
I0726 06:57:17.564493 51095 net.cpp:444] pool5 -> pool5
I0726 06:57:17.564556 51095 net.cpp:142] Setting up pool5
I0726 06:57:17.564592 51095 net.cpp:149] Top shape: 2 512 19 19 (369664)
I0726 06:57:17.564637 51095 net.cpp:157] Memory required for data: 442263616
I0726 06:57:17.564664 51095 layer_factory.hpp:77] Creating layer fc6
I0726 06:57:17.564692 51095 layer_factory.hpp:77] Creating layer fc6
I0726 06:57:17.564723 51095 net.cpp:92] Creating Layer fc6
I0726 06:57:17.564749 51095 net.cpp:470] fc6 <- pool5
I0726 06:57:17.564776 51095 net.cpp:444] fc6 -> fc6
I0726 06:57:17.586915 51095 net.cpp:142] Setting up fc6
I0726 06:57:17.587045 51095 net.cpp:149] Top shape: 2 1024 19 19 (739328)
I0726 06:57:17.587153 51095 net.cpp:157] Memory required for data: 445220928
I0726 06:57:17.587203 51095 layer_factory.hpp:77] Creating layer relu6
I0726 06:57:17.587321 51095 layer_factory.hpp:77] Creating layer relu6
I0726 06:57:17.587432 51095 net.cpp:92] Creating Layer relu6
I0726 06:57:17.587482 51095 net.cpp:470] relu6 <- fc6
I0726 06:57:17.587581 51095 net.cpp:431] relu6 -> fc6 (in-place)
I0726 06:57:17.587676 51095 net.cpp:142] Setting up relu6
I0726 06:57:17.587752 51095 net.cpp:149] Top shape: 2 1024 19 19 (739328)
I0726 06:57:17.587855 51095 net.cpp:157] Memory required for data: 448178240
I0726 06:57:17.587950 51095 layer_factory.hpp:77] Creating layer fc7
I0726 06:57:17.588107 51095 layer_factory.hpp:77] Creating layer fc7
I0726 06:57:17.588157 51095 net.cpp:92] Creating Layer fc7
I0726 06:57:17.588301 51095 net.cpp:470] fc7 <- fc6
I0726 06:57:17.588392 51095 net.cpp:444] fc7 -> fc7
I0726 06:57:17.594509 51095 net.cpp:142] Setting up fc7
I0726 06:57:17.594568 51095 net.cpp:149] Top shape: 2 1024 19 19 (739328)
I0726 06:57:17.594843 51095 net.cpp:157] Memory required for data: 451135552
I0726 06:57:17.594884 51095 layer_factory.hpp:77] Creating layer relu7
I0726 06:57:17.594974 51095 layer_factory.hpp:77] Creating layer relu7
I0726 06:57:17.595010 51095 net.cpp:92] Creating Layer relu7
I0726 06:57:17.595082 51095 net.cpp:470] relu7 <- fc7
I0726 06:57:17.595222 51095 net.cpp:431] relu7 -> fc7 (in-place)
I0726 06:57:17.595402 51095 net.cpp:142] Setting up relu7
I0726 06:57:17.595469 51095 net.cpp:149] Top shape: 2 1024 19 19 (739328)
I0726 06:57:17.595700 51095 net.cpp:157] Memory required for data: 454092864
I0726 06:57:17.595772 51095 layer_factory.hpp:77] Creating layer fc7_relu7_0_split
I0726 06:57:17.595902 51095 layer_factory.hpp:77] Creating layer fc7_relu7_0_split
I0726 06:57:17.596293 51095 net.cpp:92] Creating Layer fc7_relu7_0_split
I0726 06:57:17.596329 51095 net.cpp:470] fc7_relu7_0_split <- fc7
I0726 06:57:17.596635 51095 net.cpp:444] fc7_relu7_0_split -> fc7_relu7_0_split_0
I0726 06:57:17.596915 51095 net.cpp:444] fc7_relu7_0_split -> fc7_relu7_0_split_1
I0726 06:57:17.597162 51095 net.cpp:444] fc7_relu7_0_split -> fc7_relu7_0_split_2
I0726 06:57:17.597234 51095 net.cpp:444] fc7_relu7_0_split -> fc7_relu7_0_split_3
I0726 06:57:17.597609 51095 net.cpp:142] Setting up fc7_relu7_0_split
I0726 06:57:17.597702 51095 net.cpp:149] Top shape: 2 1024 19 19 (739328)
I0726 06:57:17.597892 51095 net.cpp:149] Top shape: 2 1024 19 19 (739328)
I0726 06:57:17.598265 51095 net.cpp:149] Top shape: 2 1024 19 19 (739328)
I0726 06:57:17.598364 51095 net.cpp:149] Top shape: 2 1024 19 19 (739328)
I0726 06:57:17.598526 51095 net.cpp:157] Memory required for data: 465922112
I0726 06:57:17.599333 51095 layer_factory.hpp:77] Creating layer conv6_1
I0726 06:57:17.599544 51095 layer_factory.hpp:77] Creating layer conv6_1
I0726 06:57:17.599818 51095 net.cpp:92] Creating Layer conv6_1
I0726 06:57:17.600021 51095 net.cpp:470] conv6_1 <- fc7_relu7_0_split_0
I0726 06:57:17.600193 51095 net.cpp:444] conv6_1 -> conv6_1
I0726 06:57:17.602213 51095 net.cpp:142] Setting up conv6_1
I0726 06:57:17.602248 51095 net.cpp:149] Top shape: 2 256 19 19 (184832)
I0726 06:57:17.602272 51095 net.cpp:157] Memory required for data: 466661440
I0726 06:57:17.602296 51095 layer_factory.hpp:77] Creating layer conv6_1_relu
I0726 06:57:17.602334 51095 layer_factory.hpp:77] Creating layer conv6_1_relu
I0726 06:57:17.602396 51095 net.cpp:92] Creating Layer conv6_1_relu
I0726 06:57:17.602459 51095 net.cpp:470] conv6_1_relu <- conv6_1
I0726 06:57:17.602550 51095 net.cpp:431] conv6_1_relu -> conv6_1 (in-place)
I0726 06:57:17.602923 51095 net.cpp:142] Setting up conv6_1_relu
I0726 06:57:17.603139 51095 net.cpp:149] Top shape: 2 256 19 19 (184832)
I0726 06:57:17.603238 51095 net.cpp:157] Memory required for data: 467400768
I0726 06:57:17.603271 51095 layer_factory.hpp:77] Creating layer conv6_2
I0726 06:57:17.603576 51095 layer_factory.hpp:77] Creating layer conv6_2
I0726 06:57:17.603724 51095 net.cpp:92] Creating Layer conv6_2
I0726 06:57:17.603986 51095 net.cpp:470] conv6_2 <- conv6_1
I0726 06:57:17.604152 51095 net.cpp:444] conv6_2 -> conv6_2
I0726 06:57:17.610138 51095 net.cpp:142] Setting up conv6_2
I0726 06:57:17.610193 51095 net.cpp:149] Top shape: 2 512 10 10 (102400)
I0726 06:57:17.610229 51095 net.cpp:157] Memory required for data: 467810368
I0726 06:57:17.610265 51095 layer_factory.hpp:77] Creating layer conv6_2_relu
I0726 06:57:17.610395 51095 layer_factory.hpp:77] Creating layer conv6_2_relu
I0726 06:57:17.610435 51095 net.cpp:92] Creating Layer conv6_2_relu
I0726 06:57:17.610522 51095 net.cpp:470] conv6_2_relu <- conv6_2
I0726 06:57:17.610813 51095 net.cpp:431] conv6_2_relu -> conv6_2 (in-place)
I0726 06:57:17.610867 51095 net.cpp:142] Setting up conv6_2_relu
I0726 06:57:17.610990 51095 net.cpp:149] Top shape: 2 512 10 10 (102400)
I0726 06:57:17.611047 51095 net.cpp:157] Memory required for data: 468219968
I0726 06:57:17.611290 51095 layer_factory.hpp:77] Creating layer conv6_2_conv6_2_relu_0_split
I0726 06:57:17.611439 51095 layer_factory.hpp:77] Creating layer conv6_2_conv6_2_relu_0_split
I0726 06:57:17.611686 51095 net.cpp:92] Creating Layer conv6_2_conv6_2_relu_0_split
I0726 06:57:17.611840 51095 net.cpp:470] conv6_2_conv6_2_relu_0_split <- conv6_2
I0726 06:57:17.611862 51095 net.cpp:444] conv6_2_conv6_2_relu_0_split -> conv6_2_conv6_2_relu_0_split_0
I0726 06:57:17.612033 51095 net.cpp:444] conv6_2_conv6_2_relu_0_split -> conv6_2_conv6_2_relu_0_split_1
I0726 06:57:17.612177 51095 net.cpp:444] conv6_2_conv6_2_relu_0_split -> conv6_2_conv6_2_relu_0_split_2
I0726 06:57:17.612362 51095 net.cpp:444] conv6_2_conv6_2_relu_0_split -> conv6_2_conv6_2_relu_0_split_3
I0726 06:57:17.612830 51095 net.cpp:142] Setting up conv6_2_conv6_2_relu_0_split
I0726 06:57:17.613037 51095 net.cpp:149] Top shape: 2 512 10 10 (102400)
I0726 06:57:17.613312 51095 net.cpp:149] Top shape: 2 512 10 10 (102400)
I0726 06:57:17.613415 51095 net.cpp:149] Top shape: 2 512 10 10 (102400)
I0726 06:57:17.613667 51095 net.cpp:149] Top shape: 2 512 10 10 (102400)
I0726 06:57:17.613910 51095 net.cpp:157] Memory required for data: 469858368
I0726 06:57:17.613983 51095 layer_factory.hpp:77] Creating layer conv7_1
I0726 06:57:17.614257 51095 layer_factory.hpp:77] Creating layer conv7_1
I0726 06:57:17.614446 51095 net.cpp:92] Creating Layer conv7_1
I0726 06:57:17.614919 51095 net.cpp:470] conv7_1 <- conv6_2_conv6_2_relu_0_split_0
I0726 06:57:17.615149 51095 net.cpp:444] conv7_1 -> conv7_1
I0726 06:57:17.615932 51095 net.cpp:142] Setting up conv7_1
I0726 06:57:17.616031 51095 net.cpp:149] Top shape: 2 128 10 10 (25600)
I0726 06:57:17.616117 51095 net.cpp:157] Memory required for data: 469960768
I0726 06:57:17.616184 51095 layer_factory.hpp:77] Creating layer conv7_1_relu
I0726 06:57:17.616436 51095 layer_factory.hpp:77] Creating layer conv7_1_relu
I0726 06:57:17.616598 51095 net.cpp:92] Creating Layer conv7_1_relu
I0726 06:57:17.616734 51095 net.cpp:470] conv7_1_relu <- conv7_1
I0726 06:57:17.616950 51095 net.cpp:431] conv7_1_relu -> conv7_1 (in-place)
I0726 06:57:17.617120 51095 net.cpp:142] Setting up conv7_1_relu
I0726 06:57:17.617233 51095 net.cpp:149] Top shape: 2 128 10 10 (25600)
I0726 06:57:17.617350 51095 net.cpp:157] Memory required for data: 470063168
I0726 06:57:17.617499 51095 layer_factory.hpp:77] Creating layer conv7_2
I0726 06:57:17.617620 51095 layer_factory.hpp:77] Creating layer conv7_2
I0726 06:57:17.617791 51095 net.cpp:92] Creating Layer conv7_2
I0726 06:57:17.617913 51095 net.cpp:470] conv7_2 <- conv7_1
I0726 06:57:17.618178 51095 net.cpp:444] conv7_2 -> conv7_2
I0726 06:57:17.620543 51095 net.cpp:142] Setting up conv7_2
I0726 06:57:17.620592 51095 net.cpp:149] Top shape: 2 256 5 5 (12800)
I0726 06:57:17.620628 51095 net.cpp:157] Memory required for data: 470114368
I0726 06:57:17.620646 51095 layer_factory.hpp:77] Creating layer conv7_2_relu
I0726 06:57:17.620728 51095 layer_factory.hpp:77] Creating layer conv7_2_relu
I0726 06:57:17.620846 51095 net.cpp:92] Creating Layer conv7_2_relu
I0726 06:57:17.620894 51095 net.cpp:470] conv7_2_relu <- conv7_2
I0726 06:57:17.621026 51095 net.cpp:431] conv7_2_relu -> conv7_2 (in-place)
I0726 06:57:17.621074 51095 net.cpp:142] Setting up conv7_2_relu
I0726 06:57:17.621227 51095 net.cpp:149] Top shape: 2 256 5 5 (12800)
I0726 06:57:17.621326 51095 net.cpp:157] Memory required for data: 470165568
I0726 06:57:17.621484 51095 layer_factory.hpp:77] Creating layer conv7_2_conv7_2_relu_0_split
I0726 06:57:17.621560 51095 layer_factory.hpp:77] Creating layer conv7_2_conv7_2_relu_0_split
I0726 06:57:17.621786 51095 net.cpp:92] Creating Layer conv7_2_conv7_2_relu_0_split
I0726 06:57:17.622042 51095 net.cpp:470] conv7_2_conv7_2_relu_0_split <- conv7_2
I0726 06:57:17.622421 51095 net.cpp:444] conv7_2_conv7_2_relu_0_split -> conv7_2_conv7_2_relu_0_split_0
I0726 06:57:17.622524 51095 net.cpp:444] conv7_2_conv7_2_relu_0_split -> conv7_2_conv7_2_relu_0_split_1
I0726 06:57:17.622870 51095 net.cpp:444] conv7_2_conv7_2_relu_0_split -> conv7_2_conv7_2_relu_0_split_2
I0726 06:57:17.623142 51095 net.cpp:444] conv7_2_conv7_2_relu_0_split -> conv7_2_conv7_2_relu_0_split_3
I0726 06:57:17.623317 51095 net.cpp:142] Setting up conv7_2_conv7_2_relu_0_split
I0726 06:57:17.623555 51095 net.cpp:149] Top shape: 2 256 5 5 (12800)
I0726 06:57:17.623613 51095 net.cpp:149] Top shape: 2 256 5 5 (12800)
I0726 06:57:17.623718 51095 net.cpp:149] Top shape: 2 256 5 5 (12800)
I0726 06:57:17.623793 51095 net.cpp:149] Top shape: 2 256 5 5 (12800)
I0726 06:57:17.623982 51095 net.cpp:157] Memory required for data: 470370368
I0726 06:57:17.624153 51095 layer_factory.hpp:77] Creating layer conv8_1
I0726 06:57:17.624320 51095 layer_factory.hpp:77] Creating layer conv8_1
I0726 06:57:17.624752 51095 net.cpp:92] Creating Layer conv8_1
I0726 06:57:17.624846 51095 net.cpp:470] conv8_1 <- conv7_2_conv7_2_relu_0_split_0
I0726 06:57:17.625094 51095 net.cpp:444] conv8_1 -> conv8_1
I0726 06:57:17.625589 51095 net.cpp:142] Setting up conv8_1
I0726 06:57:17.625694 51095 net.cpp:149] Top shape: 2 128 5 5 (6400)
I0726 06:57:17.625819 51095 net.cpp:157] Memory required for data: 470395968
I0726 06:57:17.625850 51095 layer_factory.hpp:77] Creating layer conv8_1_relu
I0726 06:57:17.626165 51095 layer_factory.hpp:77] Creating layer conv8_1_relu
I0726 06:57:17.626381 51095 net.cpp:92] Creating Layer conv8_1_relu
I0726 06:57:17.626557 51095 net.cpp:470] conv8_1_relu <- conv8_1
I0726 06:57:17.626863 51095 net.cpp:431] conv8_1_relu -> conv8_1 (in-place)
I0726 06:57:17.627025 51095 net.cpp:142] Setting up conv8_1_relu
I0726 06:57:17.627089 51095 net.cpp:149] Top shape: 2 128 5 5 (6400)
I0726 06:57:17.627200 51095 net.cpp:157] Memory required for data: 470421568
I0726 06:57:17.627336 51095 layer_factory.hpp:77] Creating layer conv8_2
I0726 06:57:17.627493 51095 layer_factory.hpp:77] Creating layer conv8_2
I0726 06:57:17.627655 51095 net.cpp:92] Creating Layer conv8_2
I0726 06:57:17.627768 51095 net.cpp:470] conv8_2 <- conv8_1
I0726 06:57:17.627988 51095 net.cpp:444] conv8_2 -> conv8_2
I0726 06:57:17.630249 51095 net.cpp:142] Setting up conv8_2
I0726 06:57:17.630298 51095 net.cpp:149] Top shape: 2 256 3 3 (4608)
I0726 06:57:17.630334 51095 net.cpp:157] Memory required for data: 470440000
I0726 06:57:17.630352 51095 layer_factory.hpp:77] Creating layer conv8_2_relu
I0726 06:57:17.630379 51095 layer_factory.hpp:77] Creating layer conv8_2_relu
I0726 06:57:17.630497 51095 net.cpp:92] Creating Layer conv8_2_relu
I0726 06:57:17.630564 51095 net.cpp:470] conv8_2_relu <- conv8_2
I0726 06:57:17.630983 51095 net.cpp:431] conv8_2_relu -> conv8_2 (in-place)
I0726 06:57:17.631028 51095 net.cpp:142] Setting up conv8_2_relu
I0726 06:57:17.631258 51095 net.cpp:149] Top shape: 2 256 3 3 (4608)
I0726 06:57:17.631443 51095 net.cpp:157] Memory required for data: 470458432
I0726 06:57:17.631556 51095 layer_factory.hpp:77] Creating layer conv8_2_conv8_2_relu_0_split
I0726 06:57:17.631695 51095 layer_factory.hpp:77] Creating layer conv8_2_conv8_2_relu_0_split
I0726 06:57:17.631753 51095 net.cpp:92] Creating Layer conv8_2_conv8_2_relu_0_split
I0726 06:57:17.632055 51095 net.cpp:470] conv8_2_conv8_2_relu_0_split <- conv8_2
I0726 06:57:17.632190 51095 net.cpp:444] conv8_2_conv8_2_relu_0_split -> conv8_2_conv8_2_relu_0_split_0
I0726 06:57:17.632560 51095 net.cpp:444] conv8_2_conv8_2_relu_0_split -> conv8_2_conv8_2_relu_0_split_1
I0726 06:57:17.632617 51095 net.cpp:444] conv8_2_conv8_2_relu_0_split -> conv8_2_conv8_2_relu_0_split_2
I0726 06:57:17.632923 51095 net.cpp:444] conv8_2_conv8_2_relu_0_split -> conv8_2_conv8_2_relu_0_split_3
I0726 06:57:17.633297 51095 net.cpp:142] Setting up conv8_2_conv8_2_relu_0_split
I0726 06:57:17.633504 51095 net.cpp:149] Top shape: 2 256 3 3 (4608)
I0726 06:57:17.633684 51095 net.cpp:149] Top shape: 2 256 3 3 (4608)
I0726 06:57:17.633832 51095 net.cpp:149] Top shape: 2 256 3 3 (4608)
I0726 06:57:17.633891 51095 net.cpp:149] Top shape: 2 256 3 3 (4608)
I0726 06:57:17.633955 51095 net.cpp:157] Memory required for data: 470532160
I0726 06:57:17.634027 51095 layer_factory.hpp:77] Creating layer conv9_1
I0726 06:57:17.634224 51095 layer_factory.hpp:77] Creating layer conv9_1
I0726 06:57:17.634436 51095 net.cpp:92] Creating Layer conv9_1
I0726 06:57:17.634598 51095 net.cpp:470] conv9_1 <- conv8_2_conv8_2_relu_0_split_0
I0726 06:57:17.635448 51095 net.cpp:444] conv9_1 -> conv9_1
I0726 06:57:17.635975 51095 net.cpp:142] Setting up conv9_1
I0726 06:57:17.636160 51095 net.cpp:149] Top shape: 2 128 3 3 (2304)
I0726 06:57:17.636272 51095 net.cpp:157] Memory required for data: 470541376
I0726 06:57:17.636299 51095 layer_factory.hpp:77] Creating layer conv9_1_relu
I0726 06:57:17.636471 51095 layer_factory.hpp:77] Creating layer conv9_1_relu
I0726 06:57:17.636605 51095 net.cpp:92] Creating Layer conv9_1_relu
I0726 06:57:17.636687 51095 net.cpp:470] conv9_1_relu <- conv9_1
I0726 06:57:17.636754 51095 net.cpp:431] conv9_1_relu -> conv9_1 (in-place)
I0726 06:57:17.636857 51095 net.cpp:142] Setting up conv9_1_relu
I0726 06:57:17.636907 51095 net.cpp:149] Top shape: 2 128 3 3 (2304)
I0726 06:57:17.636966 51095 net.cpp:157] Memory required for data: 470550592
I0726 06:57:17.637015 51095 layer_factory.hpp:77] Creating layer conv9_2
I0726 06:57:17.637271 51095 layer_factory.hpp:77] Creating layer conv9_2
I0726 06:57:17.637375 51095 net.cpp:92] Creating Layer conv9_2
I0726 06:57:17.637555 51095 net.cpp:470] conv9_2 <- conv9_1
I0726 06:57:17.637740 51095 net.cpp:444] conv9_2 -> conv9_2
I0726 06:57:17.640206 51095 net.cpp:142] Setting up conv9_2
I0726 06:57:17.640252 51095 net.cpp:149] Top shape: 2 256 1 1 (512)
I0726 06:57:17.640288 51095 net.cpp:157] Memory required for data: 470552640
I0726 06:57:17.640306 51095 layer_factory.hpp:77] Creating layer conv9_2_relu
I0726 06:57:17.640383 51095 layer_factory.hpp:77] Creating layer conv9_2_relu
I0726 06:57:17.640424 51095 net.cpp:92] Creating Layer conv9_2_relu
I0726 06:57:17.640527 51095 net.cpp:470] conv9_2_relu <- conv9_2
I0726 06:57:17.640594 51095 net.cpp:431] conv9_2_relu -> conv9_2 (in-place)
I0726 06:57:17.640715 51095 net.cpp:142] Setting up conv9_2_relu
I0726 06:57:17.640774 51095 net.cpp:149] Top shape: 2 256 1 1 (512)
I0726 06:57:17.640909 51095 net.cpp:157] Memory required for data: 470554688
I0726 06:57:17.641057 51095 layer_factory.hpp:77] Creating layer conv9_2_conv9_2_relu_0_split
I0726 06:57:17.641125 51095 layer_factory.hpp:77] Creating layer conv9_2_conv9_2_relu_0_split
I0726 06:57:17.641288 51095 net.cpp:92] Creating Layer conv9_2_conv9_2_relu_0_split
I0726 06:57:17.641381 51095 net.cpp:470] conv9_2_conv9_2_relu_0_split <- conv9_2
I0726 06:57:17.641579 51095 net.cpp:444] conv9_2_conv9_2_relu_0_split -> conv9_2_conv9_2_relu_0_split_0
I0726 06:57:17.641737 51095 net.cpp:444] conv9_2_conv9_2_relu_0_split -> conv9_2_conv9_2_relu_0_split_1
I0726 06:57:17.641953 51095 net.cpp:444] conv9_2_conv9_2_relu_0_split -> conv9_2_conv9_2_relu_0_split_2
I0726 06:57:17.642304 51095 net.cpp:142] Setting up conv9_2_conv9_2_relu_0_split
I0726 06:57:17.642470 51095 net.cpp:149] Top shape: 2 256 1 1 (512)
I0726 06:57:17.642588 51095 net.cpp:149] Top shape: 2 256 1 1 (512)
I0726 06:57:17.643362 51095 net.cpp:149] Top shape: 2 256 1 1 (512)
I0726 06:57:17.643515 51095 net.cpp:157] Memory required for data: 470560832
I0726 06:57:17.643740 51095 layer_factory.hpp:77] Creating layer conv4_3_norm
I0726 06:57:17.643939 51095 layer_factory.hpp:77] Creating layer conv4_3_norm
I0726 06:57:17.644023 51095 net.cpp:92] Creating Layer conv4_3_norm
I0726 06:57:17.644203 51095 net.cpp:470] conv4_3_norm <- conv4_3_relu4_3_0_split_1
I0726 06:57:17.644248 51095 net.cpp:444] conv4_3_norm -> conv4_3_norm
I0726 06:57:17.644784 51095 net.cpp:142] Setting up conv4_3_norm
I0726 06:57:17.644928 51095 net.cpp:149] Top shape: 2 512 38 38 (1478656)
I0726 06:57:17.645090 51095 net.cpp:157] Memory required for data: 476475456
I0726 06:57:17.645162 51095 layer_factory.hpp:77] Creating layer conv4_3_norm_conv4_3_norm_0_split
I0726 06:57:17.645346 51095 layer_factory.hpp:77] Creating layer conv4_3_norm_conv4_3_norm_0_split
I0726 06:57:17.645387 51095 net.cpp:92] Creating Layer conv4_3_norm_conv4_3_norm_0_split
I0726 06:57:17.645490 51095 net.cpp:470] conv4_3_norm_conv4_3_norm_0_split <- conv4_3_norm
I0726 06:57:17.645639 51095 net.cpp:444] conv4_3_norm_conv4_3_norm_0_split -> conv4_3_norm_conv4_3_norm_0_split_0
I0726 06:57:17.645747 51095 net.cpp:444] conv4_3_norm_conv4_3_norm_0_split -> conv4_3_norm_conv4_3_norm_0_split_1
I0726 06:57:17.645838 51095 net.cpp:444] conv4_3_norm_conv4_3_norm_0_split -> conv4_3_norm_conv4_3_norm_0_split_2
I0726 06:57:17.646383 51095 net.cpp:142] Setting up conv4_3_norm_conv4_3_norm_0_split
I0726 06:57:17.646544 51095 net.cpp:149] Top shape: 2 512 38 38 (1478656)
I0726 06:57:17.647089 51095 net.cpp:149] Top shape: 2 512 38 38 (1478656)
I0726 06:57:17.647120 51095 net.cpp:149] Top shape: 2 512 38 38 (1478656)
I0726 06:57:17.647192 51095 net.cpp:157] Memory required for data: 494219328
I0726 06:57:17.647367 51095 layer_factory.hpp:77] Creating layer conv4_3_norm_mbox_loc
I0726 06:57:17.647831 51095 layer_factory.hpp:77] Creating layer conv4_3_norm_mbox_loc
I0726 06:57:17.647894 51095 net.cpp:92] Creating Layer conv4_3_norm_mbox_loc
I0726 06:57:17.648074 51095 net.cpp:470] conv4_3_norm_mbox_loc <- conv4_3_norm_conv4_3_norm_0_split_0
I0726 06:57:17.648151 51095 net.cpp:444] conv4_3_norm_mbox_loc -> conv4_3_norm_mbox_loc
I0726 06:57:17.648785 51095 net.cpp:142] Setting up conv4_3_norm_mbox_loc
I0726 06:57:17.648895 51095 net.cpp:149] Top shape: 2 16 38 38 (46208)
I0726 06:57:17.648988 51095 net.cpp:157] Memory required for data: 494404160
I0726 06:57:17.649147 51095 layer_factory.hpp:77] Creating layer conv4_3_norm_mbox_loc_perm
I0726 06:57:17.649327 51095 layer_factory.hpp:77] Creating layer conv4_3_norm_mbox_loc_perm
I0726 06:57:17.649394 51095 net.cpp:92] Creating Layer conv4_3_norm_mbox_loc_perm
I0726 06:57:17.649519 51095 net.cpp:470] conv4_3_norm_mbox_loc_perm <- conv4_3_norm_mbox_loc
I0726 06:57:17.649699 51095 net.cpp:444] conv4_3_norm_mbox_loc_perm -> conv4_3_norm_mbox_loc_perm
I0726 06:57:17.650194 51095 net.cpp:142] Setting up conv4_3_norm_mbox_loc_perm
I0726 06:57:17.650365 51095 net.cpp:149] Top shape: 2 38 38 16 (46208)
I0726 06:57:17.650518 51095 net.cpp:157] Memory required for data: 494588992
I0726 06:57:17.651015 51095 layer_factory.hpp:77] Creating layer conv4_3_norm_mbox_loc_flat
I0726 06:57:17.651180 51095 layer_factory.hpp:77] Creating layer conv4_3_norm_mbox_loc_flat
I0726 06:57:17.651510 51095 net.cpp:92] Creating Layer conv4_3_norm_mbox_loc_flat
I0726 06:57:17.651618 51095 net.cpp:470] conv4_3_norm_mbox_loc_flat <- conv4_3_norm_mbox_loc_perm
I0726 06:57:17.651734 51095 net.cpp:444] conv4_3_norm_mbox_loc_flat -> conv4_3_norm_mbox_loc_flat
I0726 06:57:17.652112 51095 net.cpp:142] Setting up conv4_3_norm_mbox_loc_flat
I0726 06:57:17.652391 51095 net.cpp:149] Top shape: 2 23104 (46208)
I0726 06:57:17.652590 51095 net.cpp:157] Memory required for data: 494773824
I0726 06:57:17.652706 51095 layer_factory.hpp:77] Creating layer conv4_3_norm_mbox_conf
I0726 06:57:17.652954 51095 layer_factory.hpp:77] Creating layer conv4_3_norm_mbox_conf
I0726 06:57:17.653332 51095 net.cpp:92] Creating Layer conv4_3_norm_mbox_conf
I0726 06:57:17.653548 51095 net.cpp:470] conv4_3_norm_mbox_conf <- conv4_3_norm_conv4_3_norm_0_split_1
I0726 06:57:17.653620 51095 net.cpp:444] conv4_3_norm_mbox_conf -> conv4_3_norm_mbox_conf
I0726 06:57:17.656363 51095 net.cpp:142] Setting up conv4_3_norm_mbox_conf
I0726 06:57:17.656435 51095 net.cpp:149] Top shape: 2 84 38 38 (242592)
I0726 06:57:17.656483 51095 net.cpp:157] Memory required for data: 495744192
I0726 06:57:17.656528 51095 layer_factory.hpp:77] Creating layer conv4_3_norm_mbox_conf_perm
I0726 06:57:17.656677 51095 layer_factory.hpp:77] Creating layer conv4_3_norm_mbox_conf_perm
I0726 06:57:17.656708 51095 net.cpp:92] Creating Layer conv4_3_norm_mbox_conf_perm
I0726 06:57:17.656795 51095 net.cpp:470] conv4_3_norm_mbox_conf_perm <- conv4_3_norm_mbox_conf
I0726 06:57:17.656906 51095 net.cpp:444] conv4_3_norm_mbox_conf_perm -> conv4_3_norm_mbox_conf_perm
I0726 06:57:17.657227 51095 net.cpp:142] Setting up conv4_3_norm_mbox_conf_perm
I0726 06:57:17.657392 51095 net.cpp:149] Top shape: 2 38 38 84 (242592)
I0726 06:57:17.657590 51095 net.cpp:157] Memory required for data: 496714560
I0726 06:57:17.657658 51095 layer_factory.hpp:77] Creating layer conv4_3_norm_mbox_conf_flat
I0726 06:57:17.657938 51095 layer_factory.hpp:77] Creating layer conv4_3_norm_mbox_conf_flat
I0726 06:57:17.658054 51095 net.cpp:92] Creating Layer conv4_3_norm_mbox_conf_flat
I0726 06:57:17.658279 51095 net.cpp:470] conv4_3_norm_mbox_conf_flat <- conv4_3_norm_mbox_conf_perm
I0726 06:57:17.658414 51095 net.cpp:444] conv4_3_norm_mbox_conf_flat -> conv4_3_norm_mbox_conf_flat
I0726 06:57:17.659035 51095 net.cpp:142] Setting up conv4_3_norm_mbox_conf_flat
I0726 06:57:17.659175 51095 net.cpp:149] Top shape: 2 121296 (242592)
I0726 06:57:17.659341 51095 net.cpp:157] Memory required for data: 497684928
I0726 06:57:17.659472 51095 layer_factory.hpp:77] Creating layer conv4_3_norm_mbox_priorbox
I0726 06:57:17.659854 51095 layer_factory.hpp:77] Creating layer conv4_3_norm_mbox_priorbox
I0726 06:57:17.659989 51095 net.cpp:92] Creating Layer conv4_3_norm_mbox_priorbox
I0726 06:57:17.660138 51095 net.cpp:470] conv4_3_norm_mbox_priorbox <- conv4_3_norm_conv4_3_norm_0_split_2
I0726 06:57:17.660295 51095 net.cpp:470] conv4_3_norm_mbox_priorbox <- data_data_0_split_1
I0726 06:57:17.660480 51095 net.cpp:444] conv4_3_norm_mbox_priorbox -> conv4_3_norm_mbox_priorbox
I0726 06:57:17.660646 51095 net.cpp:142] Setting up conv4_3_norm_mbox_priorbox
I0726 06:57:17.660773 51095 net.cpp:149] Top shape: 1 2 23104 (46208)
I0726 06:57:17.660903 51095 net.cpp:157] Memory required for data: 497869760
I0726 06:57:17.660962 51095 layer_factory.hpp:77] Creating layer fc7_mbox_loc
I0726 06:57:17.661195 51095 layer_factory.hpp:77] Creating layer fc7_mbox_loc
I0726 06:57:17.661285 51095 net.cpp:92] Creating Layer fc7_mbox_loc
I0726 06:57:17.661489 51095 net.cpp:470] fc7_mbox_loc <- fc7_relu7_0_split_1
I0726 06:57:17.661583 51095 net.cpp:444] fc7_mbox_loc -> fc7_mbox_loc
I0726 06:57:17.663018 51095 net.cpp:142] Setting up fc7_mbox_loc
I0726 06:57:17.663131 51095 net.cpp:149] Top shape: 2 24 19 19 (17328)
I0726 06:57:17.663290 51095 net.cpp:157] Memory required for data: 497939072
I0726 06:57:17.663419 51095 layer_factory.hpp:77] Creating layer fc7_mbox_loc_perm
I0726 06:57:17.663595 51095 layer_factory.hpp:77] Creating layer fc7_mbox_loc_perm
I0726 06:57:17.663671 51095 net.cpp:92] Creating Layer fc7_mbox_loc_perm
I0726 06:57:17.663766 51095 net.cpp:470] fc7_mbox_loc_perm <- fc7_mbox_loc
I0726 06:57:17.663938 51095 net.cpp:444] fc7_mbox_loc_perm -> fc7_mbox_loc_perm
I0726 06:57:17.664185 51095 net.cpp:142] Setting up fc7_mbox_loc_perm
I0726 06:57:17.664265 51095 net.cpp:149] Top shape: 2 19 19 24 (17328)
I0726 06:57:17.664337 51095 net.cpp:157] Memory required for data: 498008384
I0726 06:57:17.664517 51095 layer_factory.hpp:77] Creating layer fc7_mbox_loc_flat
I0726 06:57:17.664616 51095 layer_factory.hpp:77] Creating layer fc7_mbox_loc_flat
I0726 06:57:17.664832 51095 net.cpp:92] Creating Layer fc7_mbox_loc_flat
I0726 06:57:17.665004 51095 net.cpp:470] fc7_mbox_loc_flat <- fc7_mbox_loc_perm
I0726 06:57:17.665170 51095 net.cpp:444] fc7_mbox_loc_flat -> fc7_mbox_loc_flat
I0726 06:57:17.665350 51095 net.cpp:142] Setting up fc7_mbox_loc_flat
I0726 06:57:17.665472 51095 net.cpp:149] Top shape: 2 8664 (17328)
I0726 06:57:17.665706 51095 net.cpp:157] Memory required for data: 498077696
I0726 06:57:17.665931 51095 layer_factory.hpp:77] Creating layer fc7_mbox_conf
I0726 06:57:17.666143 51095 layer_factory.hpp:77] Creating layer fc7_mbox_conf
I0726 06:57:17.666373 51095 net.cpp:92] Creating Layer fc7_mbox_conf
I0726 06:57:17.666530 51095 net.cpp:470] fc7_mbox_conf <- fc7_relu7_0_split_2
I0726 06:57:17.666985 51095 net.cpp:444] fc7_mbox_conf -> fc7_mbox_conf
I0726 06:57:17.672863 51095 net.cpp:142] Setting up fc7_mbox_conf
I0726 06:57:17.672914 51095 net.cpp:149] Top shape: 2 126 19 19 (90972)
I0726 06:57:17.672950 51095 net.cpp:157] Memory required for data: 498441584
I0726 06:57:17.672981 51095 layer_factory.hpp:77] Creating layer fc7_mbox_conf_perm
I0726 06:57:17.673104 51095 layer_factory.hpp:77] Creating layer fc7_mbox_conf_perm
I0726 06:57:17.673121 51095 net.cpp:92] Creating Layer fc7_mbox_conf_perm
I0726 06:57:17.673198 51095 net.cpp:470] fc7_mbox_conf_perm <- fc7_mbox_conf
I0726 06:57:17.673274 51095 net.cpp:444] fc7_mbox_conf_perm -> fc7_mbox_conf_perm
I0726 06:57:17.673580 51095 net.cpp:142] Setting up fc7_mbox_conf_perm
I0726 06:57:17.673657 51095 net.cpp:149] Top shape: 2 19 19 126 (90972)
I0726 06:57:17.673805 51095 net.cpp:157] Memory required for data: 498805472
I0726 06:57:17.673918 51095 layer_factory.hpp:77] Creating layer fc7_mbox_conf_flat
I0726 06:57:17.674036 51095 layer_factory.hpp:77] Creating layer fc7_mbox_conf_flat
I0726 06:57:17.674152 51095 net.cpp:92] Creating Layer fc7_mbox_conf_flat
I0726 06:57:17.674305 51095 net.cpp:470] fc7_mbox_conf_flat <- fc7_mbox_conf_perm
I0726 06:57:17.674521 51095 net.cpp:444] fc7_mbox_conf_flat -> fc7_mbox_conf_flat
I0726 06:57:17.675431 51095 net.cpp:142] Setting up fc7_mbox_conf_flat
I0726 06:57:17.675760 51095 net.cpp:149] Top shape: 2 45486 (90972)
I0726 06:57:17.675916 51095 net.cpp:157] Memory required for data: 499169360
I0726 06:57:17.676110 51095 layer_factory.hpp:77] Creating layer fc7_mbox_priorbox
I0726 06:57:17.676259 51095 layer_factory.hpp:77] Creating layer fc7_mbox_priorbox
I0726 06:57:17.676461 51095 net.cpp:92] Creating Layer fc7_mbox_priorbox
I0726 06:57:17.676605 51095 net.cpp:470] fc7_mbox_priorbox <- fc7_relu7_0_split_3
I0726 06:57:17.676862 51095 net.cpp:470] fc7_mbox_priorbox <- data_data_0_split_2
I0726 06:57:17.676965 51095 net.cpp:444] fc7_mbox_priorbox -> fc7_mbox_priorbox
I0726 06:57:17.677316 51095 net.cpp:142] Setting up fc7_mbox_priorbox
I0726 06:57:17.677424 51095 net.cpp:149] Top shape: 1 2 8664 (17328)
I0726 06:57:17.677659 51095 net.cpp:157] Memory required for data: 499238672
I0726 06:57:17.677798 51095 layer_factory.hpp:77] Creating layer conv6_2_mbox_loc
I0726 06:57:17.678077 51095 layer_factory.hpp:77] Creating layer conv6_2_mbox_loc
I0726 06:57:17.678411 51095 net.cpp:92] Creating Layer conv6_2_mbox_loc
I0726 06:57:17.678586 51095 net.cpp:470] conv6_2_mbox_loc <- conv6_2_conv6_2_relu_0_split_1
I0726 06:57:17.679086 51095 net.cpp:444] conv6_2_mbox_loc -> conv6_2_mbox_loc
I0726 06:57:17.679945 51095 net.cpp:142] Setting up conv6_2_mbox_loc
I0726 06:57:17.680027 51095 net.cpp:149] Top shape: 2 24 10 10 (4800)
I0726 06:57:17.680166 51095 net.cpp:157] Memory required for data: 499257872
I0726 06:57:17.680572 51095 layer_factory.hpp:77] Creating layer conv6_2_mbox_loc_perm
I0726 06:57:17.680721 51095 layer_factory.hpp:77] Creating layer conv6_2_mbox_loc_perm
I0726 06:57:17.680940 51095 net.cpp:92] Creating Layer conv6_2_mbox_loc_perm
I0726 06:57:17.681044 51095 net.cpp:470] conv6_2_mbox_loc_perm <- conv6_2_mbox_loc
I0726 06:57:17.681174 51095 net.cpp:444] conv6_2_mbox_loc_perm -> conv6_2_mbox_loc_perm
I0726 06:57:17.681471 51095 net.cpp:142] Setting up conv6_2_mbox_loc_perm
I0726 06:57:17.681607 51095 net.cpp:149] Top shape: 2 10 10 24 (4800)
I0726 06:57:17.681751 51095 net.cpp:157] Memory required for data: 499277072
I0726 06:57:17.681957 51095 layer_factory.hpp:77] Creating layer conv6_2_mbox_loc_flat
I0726 06:57:17.682029 51095 layer_factory.hpp:77] Creating layer conv6_2_mbox_loc_flat
I0726 06:57:17.682296 51095 net.cpp:92] Creating Layer conv6_2_mbox_loc_flat
I0726 06:57:17.682371 51095 net.cpp:470] conv6_2_mbox_loc_flat <- conv6_2_mbox_loc_perm
I0726 06:57:17.682579 51095 net.cpp:444] conv6_2_mbox_loc_flat -> conv6_2_mbox_loc_flat
I0726 06:57:17.683159 51095 net.cpp:142] Setting up conv6_2_mbox_loc_flat
I0726 06:57:17.683434 51095 net.cpp:149] Top shape: 2 2400 (4800)
I0726 06:57:17.683672 51095 net.cpp:157] Memory required for data: 499296272
I0726 06:57:17.683794 51095 layer_factory.hpp:77] Creating layer conv6_2_mbox_conf
I0726 06:57:17.684185 51095 layer_factory.hpp:77] Creating layer conv6_2_mbox_conf
I0726 06:57:17.684429 51095 net.cpp:92] Creating Layer conv6_2_mbox_conf
I0726 06:57:17.684520 51095 net.cpp:470] conv6_2_mbox_conf <- conv6_2_conv6_2_relu_0_split_2
I0726 06:57:17.684700 51095 net.cpp:444] conv6_2_mbox_conf -> conv6_2_mbox_conf
I0726 06:57:17.688422 51095 net.cpp:142] Setting up conv6_2_mbox_conf
I0726 06:57:17.688482 51095 net.cpp:149] Top shape: 2 126 10 10 (25200)
I0726 06:57:17.688508 51095 net.cpp:157] Memory required for data: 499397072
I0726 06:57:17.688526 51095 layer_factory.hpp:77] Creating layer conv6_2_mbox_conf_perm
I0726 06:57:17.688644 51095 layer_factory.hpp:77] Creating layer conv6_2_mbox_conf_perm
I0726 06:57:17.688663 51095 net.cpp:92] Creating Layer conv6_2_mbox_conf_perm
I0726 06:57:17.688756 51095 net.cpp:470] conv6_2_mbox_conf_perm <- conv6_2_mbox_conf
I0726 06:57:17.688843 51095 net.cpp:444] conv6_2_mbox_conf_perm -> conv6_2_mbox_conf_perm
I0726 06:57:17.689095 51095 net.cpp:142] Setting up conv6_2_mbox_conf_perm
I0726 06:57:17.689167 51095 net.cpp:149] Top shape: 2 10 10 126 (25200)
I0726 06:57:17.689391 51095 net.cpp:157] Memory required for data: 499497872
I0726 06:57:17.689512 51095 layer_factory.hpp:77] Creating layer conv6_2_mbox_conf_flat
I0726 06:57:17.689599 51095 layer_factory.hpp:77] Creating layer conv6_2_mbox_conf_flat
I0726 06:57:17.689774 51095 net.cpp:92] Creating Layer conv6_2_mbox_conf_flat
I0726 06:57:17.689967 51095 net.cpp:470] conv6_2_mbox_conf_flat <- conv6_2_mbox_conf_perm
I0726 06:57:17.690135 51095 net.cpp:444] conv6_2_mbox_conf_flat -> conv6_2_mbox_conf_flat
I0726 06:57:17.690251 51095 net.cpp:142] Setting up conv6_2_mbox_conf_flat
I0726 06:57:17.690351 51095 net.cpp:149] Top shape: 2 12600 (25200)
I0726 06:57:17.690426 51095 net.cpp:157] Memory required for data: 499598672
I0726 06:57:17.690567 51095 layer_factory.hpp:77] Creating layer conv6_2_mbox_priorbox
I0726 06:57:17.691359 51095 layer_factory.hpp:77] Creating layer conv6_2_mbox_priorbox
I0726 06:57:17.691416 51095 net.cpp:92] Creating Layer conv6_2_mbox_priorbox
I0726 06:57:17.691646 51095 net.cpp:470] conv6_2_mbox_priorbox <- conv6_2_conv6_2_relu_0_split_3
I0726 06:57:17.691854 51095 net.cpp:470] conv6_2_mbox_priorbox <- data_data_0_split_3
I0726 06:57:17.691984 51095 net.cpp:444] conv6_2_mbox_priorbox -> conv6_2_mbox_priorbox
I0726 06:57:17.692587 51095 net.cpp:142] Setting up conv6_2_mbox_priorbox
I0726 06:57:17.692780 51095 net.cpp:149] Top shape: 1 2 2400 (4800)
I0726 06:57:17.692879 51095 net.cpp:157] Memory required for data: 499617872
I0726 06:57:17.693086 51095 layer_factory.hpp:77] Creating layer conv7_2_mbox_loc
I0726 06:57:17.693352 51095 layer_factory.hpp:77] Creating layer conv7_2_mbox_loc
I0726 06:57:17.693465 51095 net.cpp:92] Creating Layer conv7_2_mbox_loc
I0726 06:57:17.693581 51095 net.cpp:470] conv7_2_mbox_loc <- conv7_2_conv7_2_relu_0_split_1
I0726 06:57:17.693856 51095 net.cpp:444] conv7_2_mbox_loc -> conv7_2_mbox_loc
I0726 06:57:17.694500 51095 net.cpp:142] Setting up conv7_2_mbox_loc
I0726 06:57:17.694797 51095 net.cpp:149] Top shape: 2 24 5 5 (1200)
I0726 06:57:17.694896 51095 net.cpp:157] Memory required for data: 499622672
I0726 06:57:17.694936 51095 layer_factory.hpp:77] Creating layer conv7_2_mbox_loc_perm
I0726 06:57:17.695130 51095 layer_factory.hpp:77] Creating layer conv7_2_mbox_loc_perm
I0726 06:57:17.695215 51095 net.cpp:92] Creating Layer conv7_2_mbox_loc_perm
I0726 06:57:17.695539 51095 net.cpp:470] conv7_2_mbox_loc_perm <- conv7_2_mbox_loc
I0726 06:57:17.695746 51095 net.cpp:444] conv7_2_mbox_loc_perm -> conv7_2_mbox_loc_perm
I0726 06:57:17.696296 51095 net.cpp:142] Setting up conv7_2_mbox_loc_perm
I0726 06:57:17.696440 51095 net.cpp:149] Top shape: 2 5 5 24 (1200)
I0726 06:57:17.696584 51095 net.cpp:157] Memory required for data: 499627472
I0726 06:57:17.696786 51095 layer_factory.hpp:77] Creating layer conv7_2_mbox_loc_flat
I0726 06:57:17.696990 51095 layer_factory.hpp:77] Creating layer conv7_2_mbox_loc_flat
I0726 06:57:17.697170 51095 net.cpp:92] Creating Layer conv7_2_mbox_loc_flat
I0726 06:57:17.697300 51095 net.cpp:470] conv7_2_mbox_loc_flat <- conv7_2_mbox_loc_perm
I0726 06:57:17.697561 51095 net.cpp:444] conv7_2_mbox_loc_flat -> conv7_2_mbox_loc_flat
I0726 06:57:17.697682 51095 net.cpp:142] Setting up conv7_2_mbox_loc_flat
I0726 06:57:17.697912 51095 net.cpp:149] Top shape: 2 600 (1200)
I0726 06:57:17.698051 51095 net.cpp:157] Memory required for data: 499632272
I0726 06:57:17.698210 51095 layer_factory.hpp:77] Creating layer conv7_2_mbox_conf
I0726 06:57:17.698462 51095 layer_factory.hpp:77] Creating layer conv7_2_mbox_conf
I0726 06:57:17.699132 51095 net.cpp:92] Creating Layer conv7_2_mbox_conf
I0726 06:57:17.699285 51095 net.cpp:470] conv7_2_mbox_conf <- conv7_2_conv7_2_relu_0_split_2
I0726 06:57:17.699388 51095 net.cpp:444] conv7_2_mbox_conf -> conv7_2_mbox_conf
I0726 06:57:17.701650 51095 net.cpp:142] Setting up conv7_2_mbox_conf
I0726 06:57:17.701700 51095 net.cpp:149] Top shape: 2 126 5 5 (6300)
I0726 06:57:17.701736 51095 net.cpp:157] Memory required for data: 499657472
I0726 06:57:17.701755 51095 layer_factory.hpp:77] Creating layer conv7_2_mbox_conf_perm
I0726 06:57:17.701848 51095 layer_factory.hpp:77] Creating layer conv7_2_mbox_conf_perm
I0726 06:57:17.701984 51095 net.cpp:92] Creating Layer conv7_2_mbox_conf_perm
I0726 06:57:17.702025 51095 net.cpp:470] conv7_2_mbox_conf_perm <- conv7_2_mbox_conf
I0726 06:57:17.702119 51095 net.cpp:444] conv7_2_mbox_conf_perm -> conv7_2_mbox_conf_perm
I0726 06:57:17.702263 51095 net.cpp:142] Setting up conv7_2_mbox_conf_perm
I0726 06:57:17.702349 51095 net.cpp:149] Top shape: 2 5 5 126 (6300)
I0726 06:57:17.702452 51095 net.cpp:157] Memory required for data: 499682672
I0726 06:57:17.702592 51095 layer_factory.hpp:77] Creating layer conv7_2_mbox_conf_flat
I0726 06:57:17.703191 51095 layer_factory.hpp:77] Creating layer conv7_2_mbox_conf_flat
I0726 06:57:17.703240 51095 net.cpp:92] Creating Layer conv7_2_mbox_conf_flat
I0726 06:57:17.703451 51095 net.cpp:470] conv7_2_mbox_conf_flat <- conv7_2_mbox_conf_perm
I0726 06:57:17.703554 51095 net.cpp:444] conv7_2_mbox_conf_flat -> conv7_2_mbox_conf_flat
I0726 06:57:17.703739 51095 net.cpp:142] Setting up conv7_2_mbox_conf_flat
I0726 06:57:17.704010 51095 net.cpp:149] Top shape: 2 3150 (6300)
I0726 06:57:17.704149 51095 net.cpp:157] Memory required for data: 499707872
I0726 06:57:17.704486 51095 layer_factory.hpp:77] Creating layer conv7_2_mbox_priorbox
I0726 06:57:17.704643 51095 layer_factory.hpp:77] Creating layer conv7_2_mbox_priorbox
I0726 06:57:17.704843 51095 net.cpp:92] Creating Layer conv7_2_mbox_priorbox
I0726 06:57:17.704900 51095 net.cpp:470] conv7_2_mbox_priorbox <- conv7_2_conv7_2_relu_0_split_3
I0726 06:57:17.705090 51095 net.cpp:470] conv7_2_mbox_priorbox <- data_data_0_split_4
I0726 06:57:17.705206 51095 net.cpp:444] conv7_2_mbox_priorbox -> conv7_2_mbox_priorbox
I0726 06:57:17.705557 51095 net.cpp:142] Setting up conv7_2_mbox_priorbox
I0726 06:57:17.705662 51095 net.cpp:149] Top shape: 1 2 600 (1200)
I0726 06:57:17.705845 51095 net.cpp:157] Memory required for data: 499712672
I0726 06:57:17.706002 51095 layer_factory.hpp:77] Creating layer conv8_2_mbox_loc
I0726 06:57:17.706236 51095 layer_factory.hpp:77] Creating layer conv8_2_mbox_loc
I0726 06:57:17.706305 51095 net.cpp:92] Creating Layer conv8_2_mbox_loc
I0726 06:57:17.706439 51095 net.cpp:470] conv8_2_mbox_loc <- conv8_2_conv8_2_relu_0_split_1
I0726 06:57:17.706641 51095 net.cpp:444] conv8_2_mbox_loc -> conv8_2_mbox_loc
I0726 06:57:17.707712 51095 net.cpp:142] Setting up conv8_2_mbox_loc
I0726 06:57:17.707808 51095 net.cpp:149] Top shape: 2 16 3 3 (288)
I0726 06:57:17.707955 51095 net.cpp:157] Memory required for data: 499713824
I0726 06:57:17.708338 51095 layer_factory.hpp:77] Creating layer conv8_2_mbox_loc_perm
I0726 06:57:17.708621 51095 layer_factory.hpp:77] Creating layer conv8_2_mbox_loc_perm
I0726 06:57:17.708739 51095 net.cpp:92] Creating Layer conv8_2_mbox_loc_perm
I0726 06:57:17.709139 51095 net.cpp:470] conv8_2_mbox_loc_perm <- conv8_2_mbox_loc
I0726 06:57:17.709256 51095 net.cpp:444] conv8_2_mbox_loc_perm -> conv8_2_mbox_loc_perm
I0726 06:57:17.709890 51095 net.cpp:142] Setting up conv8_2_mbox_loc_perm
I0726 06:57:17.710115 51095 net.cpp:149] Top shape: 2 3 3 16 (288)
I0726 06:57:17.710247 51095 net.cpp:157] Memory required for data: 499714976
I0726 06:57:17.710417 51095 layer_factory.hpp:77] Creating layer conv8_2_mbox_loc_flat
I0726 06:57:17.710494 51095 layer_factory.hpp:77] Creating layer conv8_2_mbox_loc_flat
I0726 06:57:17.710997 51095 net.cpp:92] Creating Layer conv8_2_mbox_loc_flat
I0726 06:57:17.711146 51095 net.cpp:470] conv8_2_mbox_loc_flat <- conv8_2_mbox_loc_perm
I0726 06:57:17.711299 51095 net.cpp:444] conv8_2_mbox_loc_flat -> conv8_2_mbox_loc_flat
I0726 06:57:17.711874 51095 net.cpp:142] Setting up conv8_2_mbox_loc_flat
I0726 06:57:17.712095 51095 net.cpp:149] Top shape: 2 144 (288)
I0726 06:57:17.712230 51095 net.cpp:157] Memory required for data: 499716128
I0726 06:57:17.712541 51095 layer_factory.hpp:77] Creating layer conv8_2_mbox_conf
I0726 06:57:17.712730 51095 layer_factory.hpp:77] Creating layer conv8_2_mbox_conf
I0726 06:57:17.712941 51095 net.cpp:92] Creating Layer conv8_2_mbox_conf
I0726 06:57:17.713112 51095 net.cpp:470] conv8_2_mbox_conf <- conv8_2_conv8_2_relu_0_split_2
I0726 06:57:17.713400 51095 net.cpp:444] conv8_2_mbox_conf -> conv8_2_mbox_conf
I0726 06:57:17.714521 51095 net.cpp:142] Setting up conv8_2_mbox_conf
I0726 06:57:17.715016 51095 net.cpp:149] Top shape: 2 84 3 3 (1512)
I0726 06:57:17.715065 51095 net.cpp:157] Memory required for data: 499722176
I0726 06:57:17.715169 51095 layer_factory.hpp:77] Creating layer conv8_2_mbox_conf_perm
I0726 06:57:17.715332 51095 layer_factory.hpp:77] Creating layer conv8_2_mbox_conf_perm
I0726 06:57:17.715416 51095 net.cpp:92] Creating Layer conv8_2_mbox_conf_perm
I0726 06:57:17.715620 51095 net.cpp:470] conv8_2_mbox_conf_perm <- conv8_2_mbox_conf
I0726 06:57:17.715772 51095 net.cpp:444] conv8_2_mbox_conf_perm -> conv8_2_mbox_conf_perm
I0726 06:57:17.716209 51095 net.cpp:142] Setting up conv8_2_mbox_conf_perm
I0726 06:57:17.716398 51095 net.cpp:149] Top shape: 2 3 3 84 (1512)
I0726 06:57:17.716516 51095 net.cpp:157] Memory required for data: 499728224
I0726 06:57:17.716596 51095 layer_factory.hpp:77] Creating layer conv8_2_mbox_conf_flat
I0726 06:57:17.716840 51095 layer_factory.hpp:77] Creating layer conv8_2_mbox_conf_flat
I0726 06:57:17.716951 51095 net.cpp:92] Creating Layer conv8_2_mbox_conf_flat
I0726 06:57:17.717154 51095 net.cpp:470] conv8_2_mbox_conf_flat <- conv8_2_mbox_conf_perm
I0726 06:57:17.717293 51095 net.cpp:444] conv8_2_mbox_conf_flat -> conv8_2_mbox_conf_flat
I0726 06:57:17.717564 51095 net.cpp:142] Setting up conv8_2_mbox_conf_flat
I0726 06:57:17.717739 51095 net.cpp:149] Top shape: 2 756 (1512)
I0726 06:57:17.717865 51095 net.cpp:157] Memory required for data: 499734272
I0726 06:57:17.718009 51095 layer_factory.hpp:77] Creating layer conv8_2_mbox_priorbox
I0726 06:57:17.718149 51095 layer_factory.hpp:77] Creating layer conv8_2_mbox_priorbox
I0726 06:57:17.718572 51095 net.cpp:92] Creating Layer conv8_2_mbox_priorbox
I0726 06:57:17.719486 51095 net.cpp:470] conv8_2_mbox_priorbox <- conv8_2_conv8_2_relu_0_split_3
I0726 06:57:17.719535 51095 net.cpp:470] conv8_2_mbox_priorbox <- data_data_0_split_5
I0726 06:57:17.719823 51095 net.cpp:444] conv8_2_mbox_priorbox -> conv8_2_mbox_priorbox
I0726 06:57:17.719985 51095 net.cpp:142] Setting up conv8_2_mbox_priorbox
I0726 06:57:17.720075 51095 net.cpp:149] Top shape: 1 2 144 (288)
I0726 06:57:17.720183 51095 net.cpp:157] Memory required for data: 499735424
I0726 06:57:17.720404 51095 layer_factory.hpp:77] Creating layer conv9_2_mbox_loc
I0726 06:57:17.720580 51095 layer_factory.hpp:77] Creating layer conv9_2_mbox_loc
I0726 06:57:17.720867 51095 net.cpp:92] Creating Layer conv9_2_mbox_loc
I0726 06:57:17.720930 51095 net.cpp:470] conv9_2_mbox_loc <- conv9_2_conv9_2_relu_0_split_0
I0726 06:57:17.721201 51095 net.cpp:444] conv9_2_mbox_loc -> conv9_2_mbox_loc
I0726 06:57:17.721673 51095 net.cpp:142] Setting up conv9_2_mbox_loc
I0726 06:57:17.721799 51095 net.cpp:149] Top shape: 2 16 1 1 (32)
I0726 06:57:17.721889 51095 net.cpp:157] Memory required for data: 499735552
I0726 06:57:17.722028 51095 layer_factory.hpp:77] Creating layer conv9_2_mbox_loc_perm
I0726 06:57:17.722177 51095 layer_factory.hpp:77] Creating layer conv9_2_mbox_loc_perm
I0726 06:57:17.722235 51095 net.cpp:92] Creating Layer conv9_2_mbox_loc_perm
I0726 06:57:17.722348 51095 net.cpp:470] conv9_2_mbox_loc_perm <- conv9_2_mbox_loc
I0726 06:57:17.722528 51095 net.cpp:444] conv9_2_mbox_loc_perm -> conv9_2_mbox_loc_perm
I0726 06:57:17.723523 51095 net.cpp:142] Setting up conv9_2_mbox_loc_perm
I0726 06:57:17.723626 51095 net.cpp:149] Top shape: 2 1 1 16 (32)
I0726 06:57:17.723851 51095 net.cpp:157] Memory required for data: 499735680
I0726 06:57:17.724086 51095 layer_factory.hpp:77] Creating layer conv9_2_mbox_loc_flat
I0726 06:57:17.724274 51095 layer_factory.hpp:77] Creating layer conv9_2_mbox_loc_flat
I0726 06:57:17.724567 51095 net.cpp:92] Creating Layer conv9_2_mbox_loc_flat
I0726 06:57:17.724679 51095 net.cpp:470] conv9_2_mbox_loc_flat <- conv9_2_mbox_loc_perm
I0726 06:57:17.725247 51095 net.cpp:444] conv9_2_mbox_loc_flat -> conv9_2_mbox_loc_flat
I0726 06:57:17.725733 51095 net.cpp:142] Setting up conv9_2_mbox_loc_flat
I0726 06:57:17.725854 51095 net.cpp:149] Top shape: 2 16 (32)
I0726 06:57:17.725971 51095 net.cpp:157] Memory required for data: 499735808
I0726 06:57:17.726125 51095 layer_factory.hpp:77] Creating layer conv9_2_mbox_conf
I0726 06:57:17.726305 51095 layer_factory.hpp:77] Creating layer conv9_2_mbox_conf
I0726 06:57:17.726534 51095 net.cpp:92] Creating Layer conv9_2_mbox_conf
I0726 06:57:17.727205 51095 net.cpp:470] conv9_2_mbox_conf <- conv9_2_conv9_2_relu_0_split_1
I0726 06:57:17.727241 51095 net.cpp:444] conv9_2_mbox_conf -> conv9_2_mbox_conf
I0726 06:57:17.728595 51095 net.cpp:142] Setting up conv9_2_mbox_conf
I0726 06:57:17.728739 51095 net.cpp:149] Top shape: 2 84 1 1 (168)
I0726 06:57:17.728775 51095 net.cpp:157] Memory required for data: 499736480
I0726 06:57:17.728879 51095 layer_factory.hpp:77] Creating layer conv9_2_mbox_conf_perm
I0726 06:57:17.729122 51095 layer_factory.hpp:77] Creating layer conv9_2_mbox_conf_perm
I0726 06:57:17.729198 51095 net.cpp:92] Creating Layer conv9_2_mbox_conf_perm
I0726 06:57:17.729419 51095 net.cpp:470] conv9_2_mbox_conf_perm <- conv9_2_mbox_conf
I0726 06:57:17.729477 51095 net.cpp:444] conv9_2_mbox_conf_perm -> conv9_2_mbox_conf_perm
I0726 06:57:17.729779 51095 net.cpp:142] Setting up conv9_2_mbox_conf_perm
I0726 06:57:17.729820 51095 net.cpp:149] Top shape: 2 1 1 84 (168)
I0726 06:57:17.729955 51095 net.cpp:157] Memory required for data: 499737152
I0726 06:57:17.730063 51095 layer_factory.hpp:77] Creating layer conv9_2_mbox_conf_flat
I0726 06:57:17.730166 51095 layer_factory.hpp:77] Creating layer conv9_2_mbox_conf_flat
I0726 06:57:17.730513 51095 net.cpp:92] Creating Layer conv9_2_mbox_conf_flat
I0726 06:57:17.731098 51095 net.cpp:470] conv9_2_mbox_conf_flat <- conv9_2_mbox_conf_perm
I0726 06:57:17.731192 51095 net.cpp:444] conv9_2_mbox_conf_flat -> conv9_2_mbox_conf_flat
I0726 06:57:17.731657 51095 net.cpp:142] Setting up conv9_2_mbox_conf_flat
I0726 06:57:17.731878 51095 net.cpp:149] Top shape: 2 84 (168)
I0726 06:57:17.731967 51095 net.cpp:157] Memory required for data: 499737824
I0726 06:57:17.732039 51095 layer_factory.hpp:77] Creating layer conv9_2_mbox_priorbox
I0726 06:57:17.732102 51095 layer_factory.hpp:77] Creating layer conv9_2_mbox_priorbox
I0726 06:57:17.732381 51095 net.cpp:92] Creating Layer conv9_2_mbox_priorbox
I0726 06:57:17.732547 51095 net.cpp:470] conv9_2_mbox_priorbox <- conv9_2_conv9_2_relu_0_split_2
I0726 06:57:17.732759 51095 net.cpp:470] conv9_2_mbox_priorbox <- data_data_0_split_6
I0726 06:57:17.733011 51095 net.cpp:444] conv9_2_mbox_priorbox -> conv9_2_mbox_priorbox
I0726 06:57:17.733376 51095 net.cpp:142] Setting up conv9_2_mbox_priorbox
I0726 06:57:17.733582 51095 net.cpp:149] Top shape: 1 2 16 (32)
I0726 06:57:17.734239 51095 net.cpp:157] Memory required for data: 499737952
I0726 06:57:17.734266 51095 layer_factory.hpp:77] Creating layer mbox_loc
I0726 06:57:17.734397 51095 layer_factory.hpp:77] Creating layer mbox_loc
I0726 06:57:17.734536 51095 net.cpp:92] Creating Layer mbox_loc
I0726 06:57:17.735045 51095 net.cpp:470] mbox_loc <- conv4_3_norm_mbox_loc_flat
I0726 06:57:17.735117 51095 net.cpp:470] mbox_loc <- fc7_mbox_loc_flat
I0726 06:57:17.735189 51095 net.cpp:470] mbox_loc <- conv6_2_mbox_loc_flat
I0726 06:57:17.735239 51095 net.cpp:470] mbox_loc <- conv7_2_mbox_loc_flat
I0726 06:57:17.735432 51095 net.cpp:470] mbox_loc <- conv8_2_mbox_loc_flat
I0726 06:57:17.735509 51095 net.cpp:470] mbox_loc <- conv9_2_mbox_loc_flat
I0726 06:57:17.735852 51095 net.cpp:444] mbox_loc -> mbox_loc
I0726 06:57:17.736184 51095 net.cpp:142] Setting up mbox_loc
I0726 06:57:17.736274 51095 net.cpp:149] Top shape: 2 34928 (69856)
I0726 06:57:17.736611 51095 net.cpp:157] Memory required for data: 500017376
I0726 06:57:17.736665 51095 layer_factory.hpp:77] Creating layer mbox_conf
I0726 06:57:17.736922 51095 layer_factory.hpp:77] Creating layer mbox_conf
I0726 06:57:17.737120 51095 net.cpp:92] Creating Layer mbox_conf
I0726 06:57:17.737399 51095 net.cpp:470] mbox_conf <- conv4_3_norm_mbox_conf_flat
I0726 06:57:17.737579 51095 net.cpp:470] mbox_conf <- fc7_mbox_conf_flat
I0726 06:57:17.737629 51095 net.cpp:470] mbox_conf <- conv6_2_mbox_conf_flat
I0726 06:57:17.737782 51095 net.cpp:470] mbox_conf <- conv7_2_mbox_conf_flat
I0726 06:57:17.737854 51095 net.cpp:470] mbox_conf <- conv8_2_mbox_conf_flat
I0726 06:57:17.737962 51095 net.cpp:470] mbox_conf <- conv9_2_mbox_conf_flat
I0726 06:57:17.738056 51095 net.cpp:444] mbox_conf -> mbox_conf
I0726 06:57:17.738200 51095 net.cpp:142] Setting up mbox_conf
I0726 06:57:17.738227 51095 net.cpp:149] Top shape: 2 183372 (366744)
I0726 06:57:17.738260 51095 net.cpp:157] Memory required for data: 501484352
I0726 06:57:17.738371 51095 layer_factory.hpp:77] Creating layer mbox_priorbox
I0726 06:57:17.738551 51095 layer_factory.hpp:77] Creating layer mbox_priorbox
I0726 06:57:17.739042 51095 net.cpp:92] Creating Layer mbox_priorbox
I0726 06:57:17.739285 51095 net.cpp:470] mbox_priorbox <- conv4_3_norm_mbox_priorbox
I0726 06:57:17.739411 51095 net.cpp:470] mbox_priorbox <- fc7_mbox_priorbox
I0726 06:57:17.739578 51095 net.cpp:470] mbox_priorbox <- conv6_2_mbox_priorbox
I0726 06:57:17.739775 51095 net.cpp:470] mbox_priorbox <- conv7_2_mbox_priorbox
I0726 06:57:17.739969 51095 net.cpp:470] mbox_priorbox <- conv8_2_mbox_priorbox
I0726 06:57:17.740171 51095 net.cpp:470] mbox_priorbox <- conv9_2_mbox_priorbox
I0726 06:57:17.740478 51095 net.cpp:444] mbox_priorbox -> mbox_priorbox
I0726 06:57:17.740797 51095 net.cpp:142] Setting up mbox_priorbox
I0726 06:57:17.741035 51095 net.cpp:149] Top shape: 1 2 34928 (69856)
I0726 06:57:17.741161 51095 net.cpp:157] Memory required for data: 501763776
I0726 06:57:17.741436 51095 layer_factory.hpp:77] Creating layer mbox_conf_reshape
I0726 06:57:17.741796 51095 layer_factory.hpp:77] Creating layer mbox_conf_reshape
I0726 06:57:17.741921 51095 net.cpp:92] Creating Layer mbox_conf_reshape
I0726 06:57:17.741998 51095 net.cpp:470] mbox_conf_reshape <- mbox_conf
I0726 06:57:17.742182 51095 net.cpp:444] mbox_conf_reshape -> mbox_conf_reshape
I0726 06:57:17.742416 51095 net.cpp:142] Setting up mbox_conf_reshape
I0726 06:57:17.742533 51095 net.cpp:149] Top shape: 2 8732 21 (366744)
I0726 06:57:17.742956 51095 net.cpp:157] Memory required for data: 503230752
I0726 06:57:17.743091 51095 layer_factory.hpp:77] Creating layer mbox_conf_softmax
I0726 06:57:17.743136 51095 layer_factory.hpp:77] Creating layer mbox_conf_softmax
I0726 06:57:17.743155 51095 net.cpp:92] Creating Layer mbox_conf_softmax
I0726 06:57:17.743181 51095 net.cpp:470] mbox_conf_softmax <- mbox_conf_reshape
I0726 06:57:17.743213 51095 net.cpp:444] mbox_conf_softmax -> mbox_conf_softmax
I0726 06:57:17.743312 51095 net.cpp:142] Setting up mbox_conf_softmax
I0726 06:57:17.743412 51095 net.cpp:149] Top shape: 2 8732 21 (366744)
I0726 06:57:17.743433 51095 net.cpp:157] Memory required for data: 504697728
I0726 06:57:17.743451 51095 layer_factory.hpp:77] Creating layer mbox_conf_flatten
I0726 06:57:17.743532 51095 layer_factory.hpp:77] Creating layer mbox_conf_flatten
I0726 06:57:17.743582 51095 net.cpp:92] Creating Layer mbox_conf_flatten
I0726 06:57:17.743600 51095 net.cpp:470] mbox_conf_flatten <- mbox_conf_softmax
I0726 06:57:17.743700 51095 net.cpp:444] mbox_conf_flatten -> mbox_conf_flatten
I0726 06:57:17.743829 51095 net.cpp:142] Setting up mbox_conf_flatten
I0726 06:57:17.743847 51095 net.cpp:149] Top shape: 2 183372 (366744)
I0726 06:57:17.743883 51095 net.cpp:157] Memory required for data: 506164704
I0726 06:57:17.743928 51095 layer_factory.hpp:77] Creating layer detection_out
I0726 06:57:17.743986 51095 layer_factory.hpp:77] Creating layer detection_out
I0726 06:57:17.744045 51095 net.cpp:92] Creating Layer detection_out
I0726 06:57:17.744099 51095 net.cpp:470] detection_out <- mbox_loc
I0726 06:57:17.744199 51095 net.cpp:470] detection_out <- mbox_conf_flatten
I0726 06:57:17.744283 51095 net.cpp:470] detection_out <- mbox_priorbox
I0726 06:57:17.744315 51095 net.cpp:444] detection_out -> detection_out
W0726 06:57:17.744423 51095 detection_output_layer.cpp:49] Failed to create directory: /home/chiachi//data/VOCdevkit/results/VOC2007/SSD_300x300/Main
I0726 06:57:17.745683 51095 net.cpp:142] Setting up detection_out
I0726 06:57:17.745746 51095 net.cpp:149] Top shape: 1 1 1 7 (7)
I0726 06:57:17.745769 51095 net.cpp:157] Memory required for data: 506164732
I0726 06:57:17.745841 51095 layer_factory.hpp:77] Creating layer detection_eval
I0726 06:57:17.745885 51095 layer_factory.hpp:77] Creating layer detection_eval
I0726 06:57:17.745908 51095 net.cpp:92] Creating Layer detection_eval
I0726 06:57:17.745939 51095 net.cpp:470] detection_eval <- detection_out
I0726 06:57:17.746011 51095 net.cpp:470] detection_eval <- label
I0726 06:57:17.746052 51095 net.cpp:444] detection_eval -> detection_eval
I0726 06:57:17.746853 51095 net.cpp:142] Setting up detection_eval
I0726 06:57:17.746881 51095 net.cpp:149] Top shape: 1 1 21 5 (105)
I0726 06:57:17.746934 51095 net.cpp:157] Memory required for data: 506165152
I0726 06:57:17.747078 51095 net.cpp:220] detection_eval does not need backward computation.
I0726 06:57:17.747110 51095 net.cpp:220] detection_out does not need backward computation.
I0726 06:57:17.747141 51095 net.cpp:220] mbox_conf_flatten does not need backward computation.
I0726 06:57:17.747177 51095 net.cpp:220] mbox_conf_softmax does not need backward computation.
…
