…
      sampler {
        min_scale: 0.3
        max_scale: 1
        min_aspect_ratio: 0.5
        max_aspect_ratio: 2
      }
      sample_constraint {
        min_jaccard_overlap: 0.9
      }
      max_sample: 1
      max_trials: 50
    }
    batch_sampler {
      sampler {
        min_scale: 0.3
        max_scale: 1
        min_aspect_ratio: 0.5
        max_aspect_ratio: 2
      }
      sample_constraint {
        max_jaccard_overlap: 1
      }
      max_sample: 1
      max_trials: 50
    }
    label_map_file: "data/VOC0712/labelmap_voc.prototxt"
  }
}
layer {
  name: "conv1_1"
  type: "Convolution"
  bottom: "data"
  top: "conv1_1"
  param {
    lr_mult: 1
    decay_mult: 1
  }
  param {
    lr_mult: 2
    decay_mult: 0
  }
  convolution_param {
    num_output: 64
    pad: 1
    kernel_size: 3
    weight_filler {
      type: "xavier"
    }
    bias_filler {
      type: "constant"
      value: 0
    }
  }
}
layer {
  name: "relu1_1"
  type: "ReLU"
  bottom: "conv1_1"
  top: "conv1_1"
}
layer {
  name: "conv1_2"
  type: "Convolution"
  bottom: "conv1_1"
  top: "conv1_2"
  param {
    lr_mult: 1
    decay_mult: 1
  }
  param {
    lr_mult: 2
    decay_mult: 0
  }
  convolution_param {
    num_output: 64
    pad: 1
    kernel_size: 3
    weight_filler {
      type: "xavier"
    }
    bias_filler {
      type: "constant"
      value: 0
    }
  }
}
layer {
  name: "relu1_2"
  type: "ReLU"
  bottom: "conv1_2"
  top: "conv1_2"
}
layer {
  name: "pool1"
  type: "Pooling"
  bottom: "conv1_2"
  top: "pool1"
  pooling_param {
    pool: MAX
    kernel_size: 2
    stride: 2
  }
}
layer {
  name: "conv2_1"
  type: "Convolution"
  bottom: "pool1"
  top: "conv2_1"
  param {
    lr_mult: 1
    decay_mult: 1
  }
  param {
    lr_mult: 2
    decay_mult: 0
  }
  convolution_param {
    num_output: 128
    pad: 1
    kernel_size: 3
    weight_filler {
      type: "xavier"
    }
    bias_filler {
      type: "constant"
      value: 0
    }
  }
}
layer {
  name: "relu2_1"
  type: "ReLU"
  bottom: "conv2_1"
  top: "conv2_1"
}
layer {
  name: "conv2_2"
  type: "Convolution"
  bottom: "conv2_1"
  top: "conv2_2"
  param {
    lr_mult: 1
    decay_mult: 1
  }
  param {
    lr_mult: 2
    decay_mult: 0
  }
  convolution_param {
    num_output: 128
    pad: 1
    kernel_size: 3
    weight_filler {
      type: "xavier"
    }
    bias_filler {
      type: "constant"
      value: 0
    }
  }
}
layer {
  name: "relu2_2"
  type: "ReLU"
  bottom: "conv2_2"
  top: "conv2_2"
}
layer {
  name: "pool2"
  type: "Pooling"
  bottom: "conv2_2"
  top: "pool2"
  pooling_param {
    pool: MAX
    kernel_size: 2
    stride: 2
  }
}
layer {
  name: "conv3_1"
  type: "Convolution"
  bottom: "pool2"
  top: "conv3_1"
  param {
    lr_mult: 1
    decay_mult: 1
  }
  param {
    lr_mult: 2
    decay_mult: 0
  }
  convolution_param {
    num_output: 256
    pad: 1
    kernel_size: 3
    weight_filler {
      type: "xavier"
    }
    bias_filler {
      type: "constant"
      value: 0
    }
  }
}
layer {
  name: "relu3_1"
  type: "ReLU"
  bottom: "conv3_1"
  top: "conv3_1"
}
layer {
  name: "conv3_2"
  type: "Convolution"
  bottom: "conv3_1"
  top: "conv3_2"
  param {
    lr_mult: 1
    decay_mult: 1
  }
  param {
    lr_mult: 2
    decay_mult: 0
  }
  convolution_param {
    num_output: 256
    pad: 1
    kernel_size: 3
    weight_filler {
      type: "xavier"
    }
    bias_filler {
      type: "constant"
      value: 0
    }
  }
}
layer {
  name: "relu3_2"
  type: "ReLU"
  bottom: "conv3_2"
  top: "conv3_2"
}
layer {
  name: "conv3_3"
  type: "Convolution"
  bottom: "conv3_2"
  top: "conv3_3"
  param {
    lr_mult: 1
    decay_mult: 1
  }
  param {
    lr_mult: 2
    decay_mult: 0
  }
  convolution_param {
    num_output: 256
    pad: 1
    kernel_size: 3
    weight_filler {
      type: "xavier"
    }
    bias_filler {
      type: "constant"
      value: 0
    }
  }
}
layer {
  name: "relu3_3"
  type: "ReLU"
  bottom: "conv3_3"
  top: "conv3_3"
}
layer {
  name: "pool3"
  type: "Pooling"
  bottom: "conv3_3"
  top: "pool3"
  pooling_param {
    pool: MAX
    kernel_size: 2
    stride: 2
  }
}
layer {
  name: "conv4_1"
  type: "Convolution"
  bottom: "pool3"
  top: "conv4_1"
  param {
    lr_mult: 1
    decay_mult: 1
  }
  param {
    lr_mult: 2
    decay_mult: 0
  }
  convolution_param {
    num_output: 512
    pad: 1
    kernel_size: 3
    weight_filler {
      type: "xavier"
    }
    bias_filler {
      type: "constant"
      value: 0
    }
  }
}
layer {
  name: "relu4_1"
  type: "ReLU"
  bottom: "conv4_1"
  top: "conv4_1"
}
layer {
  name: "conv4_2"
  type: "Convolution"
  bottom: "conv4_1"
  top: "conv4_2"
  param {
    lr_mult: 1
    decay_mult: 1
  }
  param {
    lr_mult: 2
    decay_mult: 0
  }
  convolution_param {
    num_output: 512
    pad: 1
    kernel_size: 3
    weight_filler {
      type: "xavier"
    }
    bias_filler {
      type: "constant"
      value: 0
    }
  }
}
layer {
  name: "relu4_2"
  type: "ReLU"
  bottom: "conv4_2"
  top: "conv4_2"
}
layer {
  name: "conv4_3"
  type: "Convolution"
  bottom: "conv4_2"
  top: "conv4_3"
  param {
    lr_mult: 1
    decay_mult: 1
  }
  param {
    lr_mult: 2
    decay_mult: 0
  }
  convolution_param {
    num_output: 512
    pad: 1
    kernel_size: 3
    weight_filler {
      type: "xavier"
    }
    bias_filler {
      type: "constant"
      value: 0
    }
  }
}
layer {
  name: "relu4_3"
  type: "ReLU"
  bottom: "conv4_3"
  top: "conv4_3"
}
layer {
  name: "pool4"
  type: "Pooling"
  bottom: "conv4_3"
  top: "pool4"
  pooling_param {
    pool: MAX
    kernel_size: 2
    stride: 2
  }
}
layer {
  name: "conv5_1"
  type: "Convolution"
  bottom: "pool4"
  top: "conv5_1"
  param {
    lr_mult: 1
    decay_mult: 1
  }
  param {
    lr_mult: 2
    decay_mult: 0
  }
  convolution_param {
    num_output: 512
    pad: 1
    kernel_size: 3
    weight_filler {
      type: "xavier"
    }
    bias_filler {
      type: "constant"
      value: 0
    }
    dilation: 1
  }
}
layer {
  name: "relu5_1"
  type: "ReLU"
  bottom: "conv5_1"
  top: "conv5_1"
}
layer {
  name: "conv5_2"
  type: "Convolution"
  bottom: "conv5_1"
  top: "conv5_2"
  param {
    lr_mult: 1
    decay_mult: 1
  }
  param {
    lr_mult: 2
    decay_mult: 0
  }
  convolution_param {
    num_output: 512
    pad: 1
    kernel_size: 3
    weight_filler {
      type: "xavier"
    }
    bias_filler {
      type: "constant"
      value: 0
    }
    dilation: 1
  }
}
layer {
  name: "relu5_2"
  type: "ReLU"
  bottom: "conv5_2"
  top: "conv5_2"
}
layer {
  name: "conv5_3"
  type: "Convolution"
  bottom: "conv5_2"
  top: "conv5_3"
  param {
    lr_mult: 1
    decay_mult: 1
  }
  param {
    lr_mult: 2
    decay_mult: 0
  }
  convolution_param {
    num_output: 512
    pad: 1
    kernel_size: 3
    weight_filler {
      type: "xavier"
    }
    bias_filler {
      type: "constant"
      value: 0
    }
    dilation: 1
  }
}
layer {
  name: "relu5_3"
  type: "ReLU"
  bottom: "conv5_3"
  top: "conv5_3"
}
layer {
  name: "pool5"
  type: "Pooling"
  bottom: "conv5_3"
  top: "pool5"
  pooling_param {
    pool: MAX
    kernel_size: 3
    stride: 1
    pad: 1
  }
}
layer {
  name: "fc6"
  type: "Convolution"
  bottom: "pool5"
  top: "fc6"
  param {
    lr_mult: 1
    decay_mult: 1
  }
  param {
    lr_mult: 2
    decay_mult: 0
  }
  convolution_param {
    num_output: 1024
    pad: 6
    kernel_size: 3
    weight_filler {
      type: "xavier"
    }
    bias_filler {
      type: "constant"
      value: 0
    }
    dilation: 6
  }
}
layer {
  name: "relu6"
  type: "ReLU"
  bottom: "fc6"
  top: "fc6"
}
layer {
  name: "fc7"
  type: "Convolution"
  bottom: "fc6"
  top: "fc7"
  param {
    lr_mult: 1
    decay_mult: 1
  }
  param {
    lr_mult: 2
    decay_mult: 0
  }
  convolution_param {
    num_output: 1024
    kernel_size: 1
    weight_filler {
      type: "xavier"
    }
    bias_filler {
      type: "constant"
      value: 0
    }
  }
}
layer {
  name: "relu7"
  type: "ReLU"
  bottom: "fc7"
  top: "fc7"
}
layer {
  name: "conv6_1"
  type: "Convolution"
  bottom: "fc7"
  top: "conv6_1"
  param {
    lr_mult: 1
    decay_mult: 1
  }
  param {
    lr_mult: 2
    decay_mult: 0
  }
  convolution_param {
    num_output: 256
    pad: 0
    kernel_size: 1
    stride: 1
    weight_filler {
      type: "xavier"
    }
    bias_filler {
      type: "constant"
      value: 0
    }
  }
}
layer {
  name: "conv6_1_relu"
  type: "ReLU"
  bottom: "conv6_1"
  top: "conv6_1"
}
layer {
  name: "conv6_2"
  type: "Convolution"
  bottom: "conv6_1"
  top: "conv6_2"
  param {
    lr_mult: 1
    decay_mult: 1
  }
  param {
    lr_mult: 2
    decay_mult: 0
  }
  convolution_param {
    num_output: 512
    pad: 1
    kernel_size: 3
    stride: 2
    weight_filler {
      type: "xavier"
    }
    bias_filler {
      type: "constant"
      value: 0
    }
  }
}
layer {
  name: "conv6_2_relu"
  type: "ReLU"
  bottom: "conv6_2"
  top: "conv6_2"
}
layer {
  name: "conv7_1"
  type: "Convolution"
  bottom: "conv6_2"
  top: "conv7_1"
  param {
    lr_mult: 1
    decay_mult: 1
  }
  param {
    lr_mult: 2
    decay_mult: 0
  }
  convolution_param {
    num_output: 128
    pad: 0
    kernel_size: 1
    stride: 1
    weight_filler {
      type: "xavier"
    }
    bias_filler {
      type: "constant"
      value: 0
    }
  }
}
layer {
  name: "conv7_1_relu"
  type: "ReLU"
  bottom: "conv7_1"
  top: "conv7_1"
}
layer {
  name: "conv7_2"
  type: "Convolution"
  bottom: "conv7_1"
  top: "conv7_2"
  param {
    lr_mult: 1
    decay_mult: 1
  }
  param {
    lr_mult: 2
    decay_mult: 0
  }
  convolution_param {
    num_output: 256
    pad: 1
    kernel_size: 3
    stride: 2
    weight_filler {
      type: "xavier"
    }
    bias_filler {
      type: "constant"
      value: 0
    }
  }
}
layer {
  name: "conv7_2_relu"
  type: "ReLU"
  bottom: "conv7_2"
  top: "conv7_2"
}
layer {
  name: "conv8_1"
  type: "Convolution"
  bottom: "conv7_2"
  top: "conv8_1"
  param {
    lr_mult: 1
    decay_mult: 1
  }
  param {
    lr_mult: 2
    decay_mult: 0
  }
  convolution_param {
    num_output: 128
    pad: 0
    kernel_size: 1
    stride: 1
    weight_filler {
      type: "xavier"
    }
    bias_filler {
      type: "constant"
      value: 0
    }
  }
}
layer {
  name: "conv8_1_relu"
  type: "ReLU"
  bottom: "conv8_1"
  top: "conv8_1"
}
layer {
  name: "conv8_2"
  type: "Convolution"
  bottom: "conv8_1"
  top: "conv8_2"
  param {
    lr_mult: 1
    decay_mult: 1
  }
  param {
    lr_mult: 2
    decay_mult: 0
  }
  convolution_param {
    num_output: 256
    pad: 0
    kernel_size: 3
    stride: 1
    weight_filler {
      type: "xavier"
    }
    bias_filler {
      type: "constant"
      value: 0
    }
  }
}
layer {
  name: "conv8_2_relu"
  type: "ReLU"
  bottom: "conv8_2"
  top: "conv8_2"
}
layer {
  name: "conv9_1"
  type: "Convolution"
  bottom: "conv8_2"
  top: "conv9_1"
  param {
    lr_mult: 1
    decay_mult: 1
  }
  param {
    lr_mult: 2
    decay_mult: 0
  }
  convolution_param {
    num_output: 128
    pad: 0
    kernel_size: 1
    stride: 1
    weight_filler {
      type: "xavier"
    }
    bias_filler {
      type: "constant"
      value: 0
    }
  }
}
layer {
  name: "conv9_1_relu"
  type: "ReLU"
  bottom: "conv9_1"
  top: "conv9_1"
}
layer {
  name: "conv9_2"
  type: "Convolution"
  bottom: "conv9_1"
  top: "conv9_2"
  param {
    lr_mult: 1
    decay_mult: 1
  }
  param {
    lr_mult: 2
    decay_mult: 0
  }
  convolution_param {
    num_output: 256
    pad: 0
    kernel_size: 3
    stride: 1
    weight_filler {
      type: "xavier"
    }
    bias_filler {
      type: "constant"
      value: 0
    }
  }
}
layer {
  name: "conv9_2_relu"
  type: "ReLU"
  bottom: "conv9_2"
  top: "conv9_2"
}
layer {
  name: "conv4_3_norm"
  type: "Normalize"
  bottom: "conv4_3"
  top: "conv4_3_norm"
  norm_param {
    across_spatial: false
    scale_filler {
      type: "constant"
      value: 20
    }
    channel_shared: false
  }
}
layer {
  name: "conv4_3_norm_mbox_loc"
  type: "Convolution"
  bottom: "conv4_3_norm"
  top: "conv4_3_norm_mbox_loc"
  param {
    lr_mult: 1
    decay_mult: 1
  }
  param {
    lr_mult: 2
    decay_mult: 0
  }
  convolution_param {
    num_output: 16
    pad: 1
    kernel_size: 3
    stride: 1
    weight_filler {
      type: "xavier"
    }
    bias_filler {
      type: "constant"
      value: 0
    }
  }
}
layer {
  name: "conv4_3_norm_mbox_loc_perm"
  type: "Permute"
  bottom: "conv4_3_norm_mbox_loc"
  top: "conv4_3_norm_mbox_loc_perm"
  permute_param {
    order: 0
    order: 2
    order: 3
    order: 1
  }
}
layer {
  name: "conv4_3_norm_mbox_loc_flat"
  type: "Flatten"
  bottom: "conv4_3_norm_mbox_loc_perm"
  top: "conv4_3_norm_mbox_loc_flat"
  flatten_param {
    axis: 1
  }
}
layer {
  name: "conv4_3_norm_mbox_conf"
  type: "Convolution"
  bottom: "conv4_3_norm"
  top: "conv4_3_norm_mbox_conf"
  param {
    lr_mult: 1
    decay_mult: 1
  }
  param {
    lr_mult: 2
    decay_mult: 0
  }
  convolution_param {
    num_output: 84
    pad: 1
    kernel_size: 3
    stride: 1
    weight_filler {
      type: "xavier"
    }
    bias_filler {
      type: "constant"
      value: 0
    }
  }
}
layer {
  name: "conv4_3_norm_mbox_conf_perm"
  type: "Permute"
  bottom: "conv4_3_norm_mbox_conf"
  top: "conv4_3_norm_mbox_conf_perm"
  permute_param {
    order: 0
    order: 2
    order: 3
    order: 1
  }
}
layer {
  name: "conv4_3_norm_mbox_conf_flat"
  type: "Flatten"
  bottom: "conv4_3_norm_mbox_conf_perm"
  top: "conv4_3_norm_mbox_conf_flat"
  flatten_param {
    axis: 1
  }
}
layer {
  name: "conv4_3_norm_mbox_priorbox"
  type: "PriorBox"
  bottom: "conv4_3_norm"
  bottom: "data"
  top: "conv4_3_norm_mbox_priorbox"
  prior_box_param {
    min_size: 30
    max_size: 60
    aspect_ratio: 2
    flip: true
    clip: false
    variance: 0.1
    variance: 0.1
    variance: 0.2
    variance: 0.2
    step: 8
    offset: 0.5
  }
}
layer {
  name: "fc7_mbox_loc"
  type: "Convolution"
  bottom: "fc7"
  top: "fc7_mbox_loc"
  param {
    lr_mult: 1
    decay_mult: 1
  }
  param {
    lr_mult: 2
    decay_mult: 0
  }
  convolution_param {
    num_output: 24
    pad: 1
    kernel_size: 3
    stride: 1
    weight_filler {
      type: "xavier"
    }
    bias_filler {
      type: "constant"
      value: 0
    }
  }
}
layer {
  name: "fc7_mbox_loc_perm"
  type: "Permute"
  bottom: "fc7_mbox_loc"
  top: "fc7_mbox_loc_perm"
  permute_param {
    order: 0
    order: 2
    order: 3
    order: 1
  }
}
layer {
  name: "fc7_mbox_loc_flat"
  type: "Flatten"
  bottom: "fc7_mbox_loc_perm"
  top: "fc7_mbox_loc_flat"
  flatten_param {
    axis: 1
  }
}
layer {
  name: "fc7_mbox_conf"
  type: "Convolution"
  bottom: "fc7"
  top: "fc7_mbox_conf"
  param {
    lr_mult: 1
    decay_mult: 1
  }
  param {
    lr_mult: 2
    decay_mult: 0
  }
  convolution_param {
    num_output: 126
    pad: 1
    kernel_size: 3
    stride: 1
    weight_filler {
      type: "xavier"
    }
    bias_filler {
      type: "constant"
      value: 0
    }
  }
}
layer {
  name: "fc7_mbox_conf_perm"
  type: "Permute"
  bottom: "fc7_mbox_conf"
  top: "fc7_mbox_conf_perm"
  permute_param {
    order: 0
    order: 2
    order: 3
    order: 1
  }
}
layer {
  name: "fc7_mbox_conf_flat"
  type: "Flatten"
  bottom: "fc7_mbox_conf_perm"
  top: "fc7_mbox_conf_flat"
  flatten_param {
    axis: 1
  }
}
layer {
  name: "fc7_mbox_priorbox"
  type: "PriorBox"
  bottom: "fc7"
  bottom: "data"
  top: "fc7_mbox_priorbox"
  prior_box_param {
    min_size: 60
    max_size: 111
    aspect_ratio: 2
    aspect_ratio: 3
    flip: true
    clip: false
    variance: 0.1
    variance: 0.1
    variance: 0.2
    variance: 0.2
    step: 16
    offset: 0.5
  }
}
layer {
  name: "conv6_2_mbox_loc"
  type: "Convolution"
  bottom: "conv6_2"
  top: "conv6_2_mbox_loc"
  param {
    lr_mult: 1
    decay_mult: 1
  }
  param {
    lr_mult: 2
    decay_mult: 0
  }
  convolution_param {
    num_output: 24
    pad: 1
    kernel_size: 3
    stride: 1
    weight_filler {
      type: "xavier"
    }
    bias_filler {
      type: "constant"
      value: 0
    }
  }
}
layer {
  name: "conv6_2_mbox_loc_perm"
  type: "Permute"
  bottom: "conv6_2_mbox_loc"
  top: "conv6_2_mbox_loc_perm"
  permute_param {
    order: 0
    order: 2
    order: 3
    order: 1
  }
}
layer {
  name: "conv6_2_mbox_loc_flat"
  type: "Flatten"
  bottom: "conv6_2_mbox_loc_perm"
  top: "conv6_2_mbox_loc_flat"
  flatten_param {
    axis: 1
  }
}
layer {
  name: "conv6_2_mbox_conf"
  type: "Convolution"
  bottom: "conv6_2"
  top: "conv6_2_mbox_conf"
  param {
    lr_mult: 1
    decay_mult: 1
  }
  param {
    lr_mult: 2
    decay_mult: 0
  }
  convolution_param {
    num_output: 126
    pad: 1
    kernel_size: 3
    stride: 1
    weight_filler {
      type: "xavier"
    }
    bias_filler {
      type: "constant"
      value: 0
    }
  }
}
layer {
  name: "conv6_2_mbox_conf_perm"
  type: "Permute"
  bottom: "conv6_2_mbox_conf"
  top: "conv6_2_mbox_conf_perm"
  permute_param {
    order: 0
    order: 2
    order: 3
    order: 1
  }
}
layer {
  name: "conv6_2_mbox_conf_flat"
  type: "Flatten"
  bottom: "conv6_2_mbox_conf_perm"
  top: "conv6_2_mbox_conf_flat"
  flatten_param {
    axis: 1
  }
}
layer {
  name: "conv6_2_mbox_priorbox"
  type: "PriorBox"
  bottom: "conv6_2"
  bottom: "data"
  top: "conv6_2_mbox_priorbox"
  prior_box_param {
    min_size: 111
    max_size: 162
    aspect_ratio: 2
    aspect_ratio: 3
    flip: true
    clip: false
    variance: 0.1
    variance: 0.1
    variance: 0.2
    variance: 0.2
    step: 32
    offset: 0.5
  }
}
layer {
  name: "conv7_2_mbox_loc"
  type: "Convolution"
  bottom: "conv7_2"
  top: "conv7_2_mbox_loc"
  param {
    lr_mult: 1
    decay_mult: 1
  }
  param {
    lr_mult: 2
    decay_mult: 0
  }
  convolution_param {
    num_output: 24
    pad: 1
    kernel_size: 3
    stride: 1
    weight_filler {
      type: "xavier"
    }
    bias_filler {
      type: "constant"
      value: 0
    }
  }
}
layer {
  name: "conv7_2_mbox_loc_perm"
  type: "Permute"
  bottom: "conv7_2_mbox_loc"
  top: "conv7_2_mbox_loc_perm"
  permute_param {
    order: 0
    order: 2
    order: 3
    order: 1
  }
}
layer {
  name: "conv7_2_mbox_loc_flat"
  type: "Flatten"
  bottom: "conv7_2_mbox_loc_perm"
  top: "conv7_2_mbox_loc_flat"
  flatten_param {
    axis: 1
  }
}
layer {
  name: "conv7_2_mbox_conf"
  type: "Convolution"
  bottom: "conv7_2"
  top: "conv7_2_mbox_conf"
  param {
    lr_mult: 1
    decay_mult: 1
  }
  param {
    lr_mult: 2
    decay_mult: 0
  }
  convolution_param {
    num_output: 126
    pad: 1
    kernel_size: 3
    stride: 1
    weight_filler {
      type: "xavier"
    }
    bias_filler {
      type: "constant"
      value: 0
    }
  }
}
layer {
  name: "conv7_2_mbox_conf_perm"
  type: "Permute"
  bottom: "conv7_2_mbox_conf"
  top: "conv7_2_mbox_conf_perm"
  permute_param {
    order: 0
    order: 2
    order: 3
    order: 1
  }
}
layer {
  name: "conv7_2_mbox_conf_flat"
  type: "Flatten"
  bottom: "conv7_2_mbox_conf_perm"
  top: "conv7_2_mbox_conf_flat"
  flatten_param {
    axis: 1
  }
}
layer {
  name: "conv7_2_mbox_priorbox"
  type: "PriorBox"
  bottom: "conv7_2"
  bottom: "data"
  top: "conv7_2_mbox_priorbox"
  prior_box_param {
    min_size: 162
    max_size: 213
    aspect_ratio: 2
    aspect_ratio: 3
    flip: true
    clip: false
    variance: 0.1
    variance: 0.1
    variance: 0.2
    variance: 0.2
    step: 64
    offset: 0.5
  }
}
layer {
  name: "conv8_2_mbox_loc"
  type: "Convolution"
  bottom: "conv8_2"
  top: "conv8_2_mbox_loc"
  param {
    lr_mult: 1
    decay_mult: 1
  }
  param {
    lr_mult: 2
    decay_mult: 0
  }
  convolution_param {
    num_output: 16
    pad: 1
    kernel_size: 3
    stride: 1
    weight_filler {
      type: "xavier"
    }
    bias_filler {
      type: "constant"
      value: 0
    }
  }
}
layer {
  name: "conv8_2_mbox_loc_perm"
  type: "Permute"
  bottom: "conv8_2_mbox_loc"
  top: "conv8_2_mbox_loc_perm"
  permute_param {
    order: 0
    order: 2
    order: 3
    order: 1
  }
}
layer {
  name: "conv8_2_mbox_loc_flat"
  type: "Flatten"
  bottom: "conv8_2_mbox_loc_perm"
  top: "conv8_2_mbox_loc_flat"
  flatten_param {
    axis: 1
  }
}
layer {
  name: "conv8_2_mbox_conf"
  type: "Convolution"
  bottom: "conv8_2"
  top: "conv8_2_mbox_conf"
  param {
    lr_mult: 1
    decay_mult: 1
  }
  param {
    lr_mult: 2
    decay_mult: 0
  }
  convolution_param {
    num_output: 84
    pad: 1
    kernel_size: 3
    stride: 1
    weight_filler {
      type: "xavier"
    }
    bias_filler {
      type: "constant"
      value: 0
    }
  }
}
layer {
  name: "conv8_2_mbox_conf_perm"
  type: "Permute"
  bottom: "conv8_2_mbox_conf"
  top: "conv8_2_mbox_conf_perm"
  permute_param {
    order: 0
    order: 2
    order: 3
    order: 1
  }
}
layer {
  name: "conv8_2_mbox_conf_flat"
  type: "Flatten"
  bottom: "conv8_2_mbox_conf_perm"
  top: "conv8_2_mbox_conf_flat"
  flatten_param {
    axis: 1
  }
}
layer {
  name: "conv8_2_mbox_priorbox"
  type: "PriorBox"
  bottom: "conv8_2"
  bottom: "data"
  top: "conv8_2_mbox_priorbox"
  prior_box_param {
    min_size: 213
    max_size: 264
    aspect_ratio: 2
    flip: true
    clip: false
    variance: 0.1
    variance: 0.1
    variance: 0.2
    variance: 0.2
    step: 100
    offset: 0.5
  }
}
layer {
  name: "conv9_2_mbox_loc"
  type: "Convolution"
  bottom: "conv9_2"
  top: "conv9_2_mbox_loc"
  param {
    lr_mult: 1
    decay_mult: 1
  }
  param {
    lr_mult: 2
    decay_mult: 0
  }
  convolution_param {
    num_output: 16
    pad: 1
    kernel_size: 3
    stride: 1
    weight_filler {
      type: "xavier"
    }
    bias_filler {
      type: "constant"
      value: 0
    }
  }
}
layer {
  name: "conv9_2_mbox_loc_perm"
  type: "Permute"
  bottom: "conv9_2_mbox_loc"
  top: "conv9_2_mbox_loc_perm"
  permute_param {
    order: 0
    order: 2
    order: 3
    order: 1
  }
}
layer {
  name: "conv9_2_mbox_loc_flat"
  type: "Flatten"
  bottom: "conv9_2_mbox_loc_perm"
  top: "conv9_2_mbox_loc_flat"
  flatten_param {
    axis: 1
  }
}
layer {
  name: "conv9_2_mbox_conf"
  type: "Convolution"
  bottom: "conv9_2"
  top: "conv9_2_mbox_conf"
  param {
    lr_mult: 1
    decay_mult: 1
  }
  param {
    lr_mult: 2
    decay_mult: 0
  }
  convolution_param {
    num_output: 84
    pad: 1
    kernel_size: 3
    stride: 1
    weight_filler {
      type: "xavier"
    }
    bias_filler {
      type: "constant"
      value: 0
    }
  }
}
layer {
  name: "conv9_2_mbox_conf_perm"
  type: "Permute"
  bottom: "conv9_2_mbox_conf"
  top: "conv9_2_mbox_conf_perm"
  permute_param {
    order: 0
    order: 2
    order: 3
    order: 1
  }
}
layer {
  name: "conv9_2_mbox_conf_flat"
  type: "Flatten"
  bottom: "conv9_2_mbox_conf_perm"
  top: "conv9_2_mbox_conf_flat"
  flatten_param {
    axis: 1
  }
}
layer {
  name: "conv9_2_mbox_priorbox"
  type: "PriorBox"
  bottom: "conv9_2"
  bottom: "data"
  top: "conv9_2_mbox_priorbox"
  prior_box_param {
    min_size: 264
    max_size: 315
    aspect_ratio: 2
    flip: true
    clip: false
    variance: 0.1
    variance: 0.1
    variance: 0.2
    variance: 0.2
    step: 300
    offset: 0.5
  }
}
layer {
  name: "mbox_loc"
  type: "Concat"
  bottom: "conv4_3_norm_mbox_loc_flat"
  bottom: "fc7_mbox_loc_flat"
  bottom: "conv6_2_mbox_loc_flat"
  bottom: "conv7_2_mbox_loc_flat"
  bottom: "conv8_2_mbox_loc_flat"
  bottom: "conv9_2_mbox_loc_flat"
  top: "mbox_loc"
  concat_param {
    axis: 1
  }
}
layer {
  name: "mbox_conf"
  type: "Concat"
  bottom: "conv4_3_norm_mbox_conf_flat"
  bottom: "fc7_mbox_conf_flat"
  bottom: "conv6_2_mbox_conf_flat"
  bottom: "conv7_2_mbox_conf_flat"
  bottom: "conv8_2_mbox_conf_flat"
  bottom: "conv9_2_mbox_conf_flat"
  top: "mbox_conf"
  concat_param {
    axis: 1
  }
}
layer {
  name: "mbox_priorbox"
  type: "Concat"
  bottom: "conv4_3_norm_mbox_priorbox"
  bottom: "fc7_mbox_priorbox"
  bottom: "conv6_2_mbox_priorbox"
  bottom: "conv7_2_mbox_priorbox"
  bottom: "conv8_2_mbox_priorbox"
  bottom: "conv9_2_mbox_priorbox"
  top: "mbox_priorbox"
  concat_param {
    axis: 2
  }
}
layer {
  name: "mbox_loss"
  type: "MultiBoxLoss"
  bottom: "mbox_loc"
  bottom: "mbox_conf"
  bottom: "mbox_priorbox"
  bottom: "label"
  top: "mbox_loss"
  include {
    phase: TRAIN
  }
  propagate_down: true
  propagate_down: true
  propagate_down: false
  propagate_down: false
  loss_param {
    normalization: VALID
  }
  multibox_loss_param {
    loc_loss_type: SMOOTH_L1
    conf_loss_type: SOFTMAX
    loc_weight: 1
    num_classes: 21
    share_location: true
    match_type: PER_PREDICTION
    overlap_threshold: 0.5
    use_prior_for_matching: true
    background_label_id: 0
    use_difficult_gt: true
    neg_pos_ratio: 3
    neg_overlap: 0.5
    code_type: CENTER_SIZE
    ignore_cross_boundary_bbox: false
    mining_type: MAX_NEGATIVE
  }
}
I0725 15:21:39.136029 17185 layer_factory.hpp:77] Creating layer data
I0725 15:21:39.148597 17210 db_lmdb.cpp:35] Opened lmdb examples/VOC0712/VOC0712_trainval_lmdb
I0725 15:21:39.149843 17185 layer_factory.hpp:77] Creating layer data
I0725 15:21:39.150194 17185 net.cpp:92] Creating Layer data
I0725 15:21:39.150239 17185 net.cpp:444] data -> data
I0725 15:21:39.150311 17185 net.cpp:444] data -> label
I0725 15:21:39.151872 17211 db_lmdb.cpp:35] Opened lmdb examples/VOC0712/VOC0712_trainval_lmdb
I0725 15:21:39.184511 17185 annotated_data_layer.cpp:62] output data size: 1,3,300,300
I0725 15:21:39.187872 17185 net.cpp:142] Setting up data
I0725 15:21:39.187908 17185 net.cpp:149] Top shape: 1 3 300 300 (270000)
I0725 15:21:39.188043 17185 net.cpp:149] Top shape: 1 1 2 8 (16)
I0725 15:21:39.188071 17185 net.cpp:157] Memory required for data: 1080064
I0725 15:21:39.188112 17185 layer_factory.hpp:77] Creating layer data_data_0_split
I0725 15:21:39.188228 17185 layer_factory.hpp:77] Creating layer data_data_0_split
I0725 15:21:39.188313 17185 net.cpp:92] Creating Layer data_data_0_split
I0725 15:21:39.188417 17185 net.cpp:470] data_data_0_split <- data
I0725 15:21:39.188484 17185 net.cpp:444] data_data_0_split -> data_data_0_split_0
I0725 15:21:39.188616 17185 net.cpp:444] data_data_0_split -> data_data_0_split_1
I0725 15:21:39.188683 17185 net.cpp:444] data_data_0_split -> data_data_0_split_2
I0725 15:21:39.188741 17185 net.cpp:444] data_data_0_split -> data_data_0_split_3
I0725 15:21:39.188804 17185 net.cpp:444] data_data_0_split -> data_data_0_split_4
I0725 15:21:39.188907 17185 net.cpp:444] data_data_0_split -> data_data_0_split_5
I0725 15:21:39.188988 17185 net.cpp:444] data_data_0_split -> data_data_0_split_6
I0725 15:21:39.189083 17185 net.cpp:142] Setting up data_data_0_split
I0725 15:21:39.189168 17185 net.cpp:149] Top shape: 1 3 300 300 (270000)
I0725 15:21:39.189222 17185 net.cpp:149] Top shape: 1 3 300 300 (270000)
I0725 15:21:39.189263 17185 net.cpp:149] Top shape: 1 3 300 300 (270000)
I0725 15:21:39.189291 17185 net.cpp:149] Top shape: 1 3 300 300 (270000)
I0725 15:21:39.189330 17185 net.cpp:149] Top shape: 1 3 300 300 (270000)
I0725 15:21:39.189402 17185 net.cpp:149] Top shape: 1 3 300 300 (270000)
I0725 15:21:39.189582 17185 net.cpp:149] Top shape: 1 3 300 300 (270000)
I0725 15:21:39.189726 17185 net.cpp:157] Memory required for data: 8640064
I0725 15:21:39.189906 17185 layer_factory.hpp:77] Creating layer conv1_1
I0725 15:21:39.189978 17185 layer_factory.hpp:77] Creating layer conv1_1
I0725 15:21:39.190037 17185 net.cpp:92] Creating Layer conv1_1
I0725 15:21:39.190104 17185 net.cpp:470] conv1_1 <- data_data_0_split_0
I0725 15:21:39.190155 17185 net.cpp:444] conv1_1 -> conv1_1
I0725 15:21:39.190896 17185 net.cpp:142] Setting up conv1_1
I0725 15:21:39.190928 17185 net.cpp:149] Top shape: 1 64 300 300 (5760000)
I0725 15:21:39.191004 17185 net.cpp:157] Memory required for data: 31680064
I0725 15:21:39.191099 17185 layer_factory.hpp:77] Creating layer relu1_1
I0725 15:21:39.191180 17185 layer_factory.hpp:77] Creating layer relu1_1
I0725 15:21:39.191274 17185 net.cpp:92] Creating Layer relu1_1
I0725 15:21:39.191329 17185 net.cpp:470] relu1_1 <- conv1_1
I0725 15:21:39.191409 17185 net.cpp:431] relu1_1 -> conv1_1 (in-place)
I0725 15:21:39.191473 17185 net.cpp:142] Setting up relu1_1
I0725 15:21:39.191499 17185 net.cpp:149] Top shape: 1 64 300 300 (5760000)
I0725 15:21:39.191643 17185 net.cpp:157] Memory required for data: 54720064
I0725 15:21:39.191838 17185 layer_factory.hpp:77] Creating layer conv1_2
I0725 15:21:39.191972 17185 layer_factory.hpp:77] Creating layer conv1_2
I0725 15:21:39.192426 17185 net.cpp:92] Creating Layer conv1_2
I0725 15:21:39.192503 17185 net.cpp:470] conv1_2 <- conv1_1
I0725 15:21:39.192557 17185 net.cpp:444] conv1_2 -> conv1_2
I0725 15:21:39.193106 17185 net.cpp:142] Setting up conv1_2
I0725 15:21:39.193264 17185 net.cpp:149] Top shape: 1 64 300 300 (5760000)
I0725 15:21:39.193344 17185 net.cpp:157] Memory required for data: 77760064
I0725 15:21:39.193389 17185 layer_factory.hpp:77] Creating layer relu1_2
I0725 15:21:39.193506 17185 layer_factory.hpp:77] Creating layer relu1_2
I0725 15:21:39.193574 17185 net.cpp:92] Creating Layer relu1_2
I0725 15:21:39.193682 17185 net.cpp:470] relu1_2 <- conv1_2
I0725 15:21:39.194028 17185 net.cpp:431] relu1_2 -> conv1_2 (in-place)
I0725 15:21:39.194092 17185 net.cpp:142] Setting up relu1_2
I0725 15:21:39.194253 17185 net.cpp:149] Top shape: 1 64 300 300 (5760000)
I0725 15:21:39.194321 17185 net.cpp:157] Memory required for data: 100800064
I0725 15:21:39.194407 17185 layer_factory.hpp:77] Creating layer pool1
I0725 15:21:39.194479 17185 layer_factory.hpp:77] Creating layer pool1
I0725 15:21:39.194924 17185 net.cpp:92] Creating Layer pool1
I0725 15:21:39.195173 17185 net.cpp:470] pool1 <- conv1_2
I0725 15:21:39.195226 17185 net.cpp:444] pool1 -> pool1
I0725 15:21:39.195348 17185 net.cpp:142] Setting up pool1
I0725 15:21:39.195446 17185 net.cpp:149] Top shape: 1 64 150 150 (1440000)
I0725 15:21:39.195644 17185 net.cpp:157] Memory required for data: 106560064
I0725 15:21:39.195842 17185 layer_factory.hpp:77] Creating layer conv2_1
I0725 15:21:39.195973 17185 layer_factory.hpp:77] Creating layer conv2_1
I0725 15:21:39.196208 17185 net.cpp:92] Creating Layer conv2_1
I0725 15:21:39.196535 17185 net.cpp:470] conv2_1 <- pool1
I0725 15:21:39.196585 17185 net.cpp:444] conv2_1 -> conv2_1
I0725 15:21:39.197031 17185 net.cpp:142] Setting up conv2_1
I0725 15:21:39.197228 17185 net.cpp:149] Top shape: 1 128 150 150 (2880000)
I0725 15:21:39.197345 17185 net.cpp:157] Memory required for data: 118080064
I0725 15:21:39.197710 17185 layer_factory.hpp:77] Creating layer relu2_1
I0725 15:21:39.197800 17185 layer_factory.hpp:77] Creating layer relu2_1
I0725 15:21:39.197823 17185 net.cpp:92] Creating Layer relu2_1
I0725 15:21:39.197881 17185 net.cpp:470] relu2_1 <- conv2_1
I0725 15:21:39.197944 17185 net.cpp:431] relu2_1 -> conv2_1 (in-place)
I0725 15:21:39.198128 17185 net.cpp:142] Setting up relu2_1
I0725 15:21:39.198164 17185 net.cpp:149] Top shape: 1 128 150 150 (2880000)
I0725 15:21:39.198251 17185 net.cpp:157] Memory required for data: 129600064
I0725 15:21:39.198290 17185 layer_factory.hpp:77] Creating layer conv2_2
I0725 15:21:39.198323 17185 layer_factory.hpp:77] Creating layer conv2_2
I0725 15:21:39.198380 17185 net.cpp:92] Creating Layer conv2_2
I0725 15:21:39.198488 17185 net.cpp:470] conv2_2 <- conv2_1
I0725 15:21:39.199141 17185 net.cpp:444] conv2_2 -> conv2_2
I0725 15:21:39.200006 17185 net.cpp:142] Setting up conv2_2
I0725 15:21:39.200037 17185 net.cpp:149] Top shape: 1 128 150 150 (2880000)
I0725 15:21:39.200086 17185 net.cpp:157] Memory required for data: 141120064
I0725 15:21:39.200181 17185 layer_factory.hpp:77] Creating layer relu2_2
I0725 15:21:39.200222 17185 layer_factory.hpp:77] Creating layer relu2_2
I0725 15:21:39.200253 17185 net.cpp:92] Creating Layer relu2_2
I0725 15:21:39.200455 17185 net.cpp:470] relu2_2 <- conv2_2
I0725 15:21:39.200608 17185 net.cpp:431] relu2_2 -> conv2_2 (in-place)
I0725 15:21:39.200707 17185 net.cpp:142] Setting up relu2_2
I0725 15:21:39.200815 17185 net.cpp:149] Top shape: 1 128 150 150 (2880000)
I0725 15:21:39.200986 17185 net.cpp:157] Memory required for data: 152640064
I0725 15:21:39.201040 17185 layer_factory.hpp:77] Creating layer pool2
I0725 15:21:39.201148 17185 layer_factory.hpp:77] Creating layer pool2
I0725 15:21:39.201198 17185 net.cpp:92] Creating Layer pool2
I0725 15:21:39.201261 17185 net.cpp:470] pool2 <- conv2_2
I0725 15:21:39.201297 17185 net.cpp:444] pool2 -> pool2
I0725 15:21:39.201346 17185 net.cpp:142] Setting up pool2
I0725 15:21:39.201378 17185 net.cpp:149] Top shape: 1 128 75 75 (720000)
I0725 15:21:39.201400 17185 net.cpp:157] Memory required for data: 155520064
I0725 15:21:39.201490 17185 layer_factory.hpp:77] Creating layer conv3_1
I0725 15:21:39.201535 17185 layer_factory.hpp:77] Creating layer conv3_1
I0725 15:21:39.201617 17185 net.cpp:92] Creating Layer conv3_1
I0725 15:21:39.201648 17185 net.cpp:470] conv3_1 <- pool2
I0725 15:21:39.201689 17185 net.cpp:444] conv3_1 -> conv3_1
I0725 15:21:39.204879 17185 net.cpp:142] Setting up conv3_1
I0725 15:21:39.204942 17185 net.cpp:149] Top shape: 1 256 75 75 (1440000)
I0725 15:21:39.205041 17185 net.cpp:157] Memory required for data: 161280064
I0725 15:21:39.205091 17185 layer_factory.hpp:77] Creating layer relu3_1
I0725 15:21:39.205163 17185 layer_factory.hpp:77] Creating layer relu3_1
I0725 15:21:39.205235 17185 net.cpp:92] Creating Layer relu3_1
I0725 15:21:39.205302 17185 net.cpp:470] relu3_1 <- conv3_1
I0725 15:21:39.205338 17185 net.cpp:431] relu3_1 -> conv3_1 (in-place)
I0725 15:21:39.205410 17185 net.cpp:142] Setting up relu3_1
I0725 15:21:39.205482 17185 net.cpp:149] Top shape: 1 256 75 75 (1440000)
I0725 15:21:39.205631 17185 net.cpp:157] Memory required for data: 167040064
I0725 15:21:39.205689 17185 layer_factory.hpp:77] Creating layer conv3_2
I0725 15:21:39.205797 17185 layer_factory.hpp:77] Creating layer conv3_2
I0725 15:21:39.205901 17185 net.cpp:92] Creating Layer conv3_2
I0725 15:21:39.206022 17185 net.cpp:470] conv3_2 <- conv3_1
I0725 15:21:39.206121 17185 net.cpp:444] conv3_2 -> conv3_2
I0725 15:21:39.210383 17185 net.cpp:142] Setting up conv3_2
I0725 15:21:39.210474 17185 net.cpp:149] Top shape: 1 256 75 75 (1440000)
I0725 15:21:39.210518 17185 net.cpp:157] Memory required for data: 172800064
I0725 15:21:39.210567 17185 layer_factory.hpp:77] Creating layer relu3_2
I0725 15:21:39.210927 17185 layer_factory.hpp:77] Creating layer relu3_2
I0725 15:21:39.211031 17185 net.cpp:92] Creating Layer relu3_2
I0725 15:21:39.211117 17185 net.cpp:470] relu3_2 <- conv3_2
I0725 15:21:39.211170 17185 net.cpp:431] relu3_2 -> conv3_2 (in-place)
I0725 15:21:39.211189 17185 net.cpp:142] Setting up relu3_2
I0725 15:21:39.211211 17185 net.cpp:149] Top shape: 1 256 75 75 (1440000)
I0725 15:21:39.211359 17185 net.cpp:157] Memory required for data: 178560064
I0725 15:21:39.211441 17185 layer_factory.hpp:77] Creating layer conv3_3
I0725 15:21:39.211521 17185 layer_factory.hpp:77] Creating layer conv3_3
I0725 15:21:39.211571 17185 net.cpp:92] Creating Layer conv3_3
I0725 15:21:39.211638 17185 net.cpp:470] conv3_3 <- conv3_2
I0725 15:21:39.211679 17185 net.cpp:444] conv3_3 -> conv3_3
I0725 15:21:39.218993 17185 net.cpp:142] Setting up conv3_3
I0725 15:21:39.219092 17185 net.cpp:149] Top shape: 1 256 75 75 (1440000)
I0725 15:21:39.219223 17185 net.cpp:157] Memory required for data: 184320064
I0725 15:21:39.219542 17185 layer_factory.hpp:77] Creating layer relu3_3
I0725 15:21:39.219605 17185 layer_factory.hpp:77] Creating layer relu3_3
I0725 15:21:39.219686 17185 net.cpp:92] Creating Layer relu3_3
I0725 15:21:39.219768 17185 net.cpp:470] relu3_3 <- conv3_3
I0725 15:21:39.219862 17185 net.cpp:431] relu3_3 -> conv3_3 (in-place)
I0725 15:21:39.220060 17185 net.cpp:142] Setting up relu3_3
I0725 15:21:39.220244 17185 net.cpp:149] Top shape: 1 256 75 75 (1440000)
I0725 15:21:39.220474 17185 net.cpp:157] Memory required for data: 190080064
I0725 15:21:39.220587 17185 layer_factory.hpp:77] Creating layer pool3
I0725 15:21:39.220628 17185 layer_factory.hpp:77] Creating layer pool3
I0725 15:21:39.220901 17185 net.cpp:92] Creating Layer pool3
I0725 15:21:39.221032 17185 net.cpp:470] pool3 <- conv3_3
I0725 15:21:39.221194 17185 net.cpp:444] pool3 -> pool3
I0725 15:21:39.221338 17185 net.cpp:142] Setting up pool3
I0725 15:21:39.221423 17185 net.cpp:149] Top shape: 1 256 38 38 (369664)
I0725 15:21:39.221504 17185 net.cpp:157] Memory required for data: 191558720
I0725 15:21:39.221807 17185 layer_factory.hpp:77] Creating layer conv4_1
I0725 15:21:39.222044 17185 layer_factory.hpp:77] Creating layer conv4_1
I0725 15:21:39.222152 17185 net.cpp:92] Creating Layer conv4_1
I0725 15:21:39.222256 17185 net.cpp:470] conv4_1 <- pool3
I0725 15:21:39.222373 17185 net.cpp:444] conv4_1 -> conv4_1
I0725 15:21:39.235211 17185 net.cpp:142] Setting up conv4_1
I0725 15:21:39.235260 17185 net.cpp:149] Top shape: 1 512 38 38 (739328)
I0725 15:21:39.235296 17185 net.cpp:157] Memory required for data: 194516032
I0725 15:21:39.235404 17185 layer_factory.hpp:77] Creating layer relu4_1
I0725 15:21:39.235455 17185 layer_factory.hpp:77] Creating layer relu4_1
I0725 15:21:39.235512 17185 net.cpp:92] Creating Layer relu4_1
I0725 15:21:39.235543 17185 net.cpp:470] relu4_1 <- conv4_1
I0725 15:21:39.235615 17185 net.cpp:431] relu4_1 -> conv4_1 (in-place)
I0725 15:21:39.235669 17185 net.cpp:142] Setting up relu4_1
I0725 15:21:39.235697 17185 net.cpp:149] Top shape: 1 512 38 38 (739328)
I0725 15:21:39.235746 17185 net.cpp:157] Memory required for data: 197473344
I0725 15:21:39.235795 17185 layer_factory.hpp:77] Creating layer conv4_2
I0725 15:21:39.235882 17185 layer_factory.hpp:77] Creating layer conv4_2
I0725 15:21:39.235935 17185 net.cpp:92] Creating Layer conv4_2
I0725 15:21:39.236034 17185 net.cpp:470] conv4_2 <- conv4_1
I0725 15:21:39.236065 17185 net.cpp:444] conv4_2 -> conv4_2
I0725 15:21:39.256841 17185 net.cpp:142] Setting up conv4_2
I0725 15:21:39.256881 17185 net.cpp:149] Top shape: 1 512 38 38 (739328)
I0725 15:21:39.256904 17185 net.cpp:157] Memory required for data: 200430656
I0725 15:21:39.256935 17185 layer_factory.hpp:77] Creating layer relu4_2
I0725 15:21:39.256963 17185 layer_factory.hpp:77] Creating layer relu4_2
I0725 15:21:39.256989 17185 net.cpp:92] Creating Layer relu4_2
I0725 15:21:39.257012 17185 net.cpp:470] relu4_2 <- conv4_2
I0725 15:21:39.257043 17185 net.cpp:431] relu4_2 -> conv4_2 (in-place)
I0725 15:21:39.257076 17185 net.cpp:142] Setting up relu4_2
I0725 15:21:39.257124 17185 net.cpp:149] Top shape: 1 512 38 38 (739328)
I0725 15:21:39.257160 17185 net.cpp:157] Memory required for data: 203387968
I0725 15:21:39.257251 17185 layer_factory.hpp:77] Creating layer conv4_3
I0725 15:21:39.257277 17185 layer_factory.hpp:77] Creating layer conv4_3
I0725 15:21:39.257295 17185 net.cpp:92] Creating Layer conv4_3
I0725 15:21:39.257318 17185 net.cpp:470] conv4_3 <- conv4_2
I0725 15:21:39.257426 17185 net.cpp:444] conv4_3 -> conv4_3
I0725 15:21:39.279299 17185 net.cpp:142] Setting up conv4_3
I0725 15:21:39.279343 17185 net.cpp:149] Top shape: 1 512 38 38 (739328)
I0725 15:21:39.279366 17185 net.cpp:157] Memory required for data: 206345280
I0725 15:21:39.279402 17185 layer_factory.hpp:77] Creating layer relu4_3
I0725 15:21:39.279451 17185 layer_factory.hpp:77] Creating layer relu4_3
I0725 15:21:39.279492 17185 net.cpp:92] Creating Layer relu4_3
I0725 15:21:39.279541 17185 net.cpp:470] relu4_3 <- conv4_3
I0725 15:21:39.279595 17185 net.cpp:431] relu4_3 -> conv4_3 (in-place)
I0725 15:21:39.279623 17185 net.cpp:142] Setting up relu4_3
I0725 15:21:39.279654 17185 net.cpp:149] Top shape: 1 512 38 38 (739328)
I0725 15:21:39.279708 17185 net.cpp:157] Memory required for data: 209302592
I0725 15:21:39.279726 17185 layer_factory.hpp:77] Creating layer conv4_3_relu4_3_0_split
I0725 15:21:39.279748 17185 layer_factory.hpp:77] Creating layer conv4_3_relu4_3_0_split
I0725 15:21:39.279780 17185 net.cpp:92] Creating Layer conv4_3_relu4_3_0_split
I0725 15:21:39.279803 17185 net.cpp:470] conv4_3_relu4_3_0_split <- conv4_3
I0725 15:21:39.279820 17185 net.cpp:444] conv4_3_relu4_3_0_split -> conv4_3_relu4_3_0_split_0
I0725 15:21:39.279888 17185 net.cpp:444] conv4_3_relu4_3_0_split -> conv4_3_relu4_3_0_split_1
I0725 15:21:39.280045 17185 net.cpp:142] Setting up conv4_3_relu4_3_0_split
I0725 15:21:39.280095 17185 net.cpp:149] Top shape: 1 512 38 38 (739328)
I0725 15:21:39.280122 17185 net.cpp:149] Top shape: 1 512 38 38 (739328)
I0725 15:21:39.280149 17185 net.cpp:157] Memory required for data: 215217216
I0725 15:21:39.280171 17185 layer_factory.hpp:77] Creating layer pool4
I0725 15:21:39.280225 17185 layer_factory.hpp:77] Creating layer pool4
I0725 15:21:39.280270 17185 net.cpp:92] Creating Layer pool4
I0725 15:21:39.280360 17185 net.cpp:470] pool4 <- conv4_3_relu4_3_0_split_0
I0725 15:21:39.280405 17185 net.cpp:444] pool4 -> pool4
I0725 15:21:39.280558 17185 net.cpp:142] Setting up pool4
I0725 15:21:39.280622 17185 net.cpp:149] Top shape: 1 512 19 19 (184832)
I0725 15:21:39.280689 17185 net.cpp:157] Memory required for data: 215956544
I0725 15:21:39.280756 17185 layer_factory.hpp:77] Creating layer conv5_1
I0725 15:21:39.280954 17185 layer_factory.hpp:77] Creating layer conv5_1
I0725 15:21:39.280982 17185 net.cpp:92] Creating Layer conv5_1
I0725 15:21:39.281018 17185 net.cpp:470] conv5_1 <- pool4
I0725 15:21:39.281067 17185 net.cpp:444] conv5_1 -> conv5_1
I0725 15:21:39.301565 17185 net.cpp:142] Setting up conv5_1
I0725 15:21:39.301606 17185 net.cpp:149] Top shape: 1 512 19 19 (184832)
I0725 15:21:39.301640 17185 net.cpp:157] Memory required for data: 216695872
I0725 15:21:39.301666 17185 layer_factory.hpp:77] Creating layer relu5_1
I0725 15:21:39.301698 17185 layer_factory.hpp:77] Creating layer relu5_1
I0725 15:21:39.301717 17185 net.cpp:92] Creating Layer relu5_1
I0725 15:21:39.301753 17185 net.cpp:470] relu5_1 <- conv5_1
I0725 15:21:39.301806 17185 net.cpp:431] relu5_1 -> conv5_1 (in-place)
I0725 15:21:39.301887 17185 net.cpp:142] Setting up relu5_1
I0725 15:21:39.301914 17185 net.cpp:149] Top shape: 1 512 19 19 (184832)
I0725 15:21:39.301932 17185 net.cpp:157] Memory required for data: 217435200
I0725 15:21:39.301950 17185 layer_factory.hpp:77] Creating layer conv5_2
I0725 15:21:39.301995 17185 layer_factory.hpp:77] Creating layer conv5_2
I0725 15:21:39.302022 17185 net.cpp:92] Creating Layer conv5_2
I0725 15:21:39.302080 17185 net.cpp:470] conv5_2 <- conv5_1
I0725 15:21:39.302134 17185 net.cpp:444] conv5_2 -> conv5_2
I0725 15:21:39.324725 17185 net.cpp:142] Setting up conv5_2
I0725 15:21:39.324792 17185 net.cpp:149] Top shape: 1 512 19 19 (184832)
I0725 15:21:39.324837 17185 net.cpp:157] Memory required for data: 218174528
I0725 15:21:39.324864 17185 layer_factory.hpp:77] Creating layer relu5_2
I0725 15:21:39.324909 17185 layer_factory.hpp:77] Creating layer relu5_2
I0725 15:21:39.324936 17185 net.cpp:92] Creating Layer relu5_2
I0725 15:21:39.324972 17185 net.cpp:470] relu5_2 <- conv5_2
I0725 15:21:39.325017 17185 net.cpp:431] relu5_2 -> conv5_2 (in-place)
I0725 15:21:39.325053 17185 net.cpp:142] Setting up relu5_2
I0725 15:21:39.325071 17185 net.cpp:149] Top shape: 1 512 19 19 (184832)
I0725 15:21:39.325121 17185 net.cpp:157] Memory required for data: 218913856
I0725 15:21:39.325152 17185 layer_factory.hpp:77] Creating layer conv5_3
I0725 15:21:39.325202 17185 layer_factory.hpp:77] Creating layer conv5_3
I0725 15:21:39.325224 17185 net.cpp:92] Creating Layer conv5_3
I0725 15:21:39.325292 17185 net.cpp:470] conv5_3 <- conv5_2
I0725 15:21:39.325364 17185 net.cpp:444] conv5_3 -> conv5_3
I0725 15:21:39.338161 17185 net.cpp:142] Setting up conv5_3
I0725 15:21:39.338207 17185 net.cpp:149] Top shape: 1 512 19 19 (184832)
I0725 15:21:39.338224 17185 net.cpp:157] Memory required for data: 219653184
I0725 15:21:39.338269 17185 layer_factory.hpp:77] Creating layer relu5_3
I0725 15:21:39.338296 17185 layer_factory.hpp:77] Creating layer relu5_3
I0725 15:21:39.338318 17185 net.cpp:92] Creating Layer relu5_3
I0725 15:21:39.338346 17185 net.cpp:470] relu5_3 <- conv5_3
I0725 15:21:39.338408 17185 net.cpp:431] relu5_3 -> conv5_3 (in-place)
I0725 15:21:39.338462 17185 net.cpp:142] Setting up relu5_3
I0725 15:21:39.338507 17185 net.cpp:149] Top shape: 1 512 19 19 (184832)
I0725 15:21:39.338562 17185 net.cpp:157] Memory required for data: 220392512
I0725 15:21:39.338971 17185 layer_factory.hpp:77] Creating layer pool5
I0725 15:21:39.339092 17185 layer_factory.hpp:77] Creating layer pool5
I0725 15:21:39.339254 17185 net.cpp:92] Creating Layer pool5
I0725 15:21:39.339308 17185 net.cpp:470] pool5 <- conv5_3
I0725 15:21:39.339371 17185 net.cpp:444] pool5 -> pool5
I0725 15:21:39.339443 17185 net.cpp:142] Setting up pool5
I0725 15:21:39.339560 17185 net.cpp:149] Top shape: 1 512 19 19 (184832)
I0725 15:21:39.339623 17185 net.cpp:157] Memory required for data: 221131840
I0725 15:21:39.339691 17185 layer_factory.hpp:77] Creating layer fc6
I0725 15:21:39.339758 17185 layer_factory.hpp:77] Creating layer fc6
I0725 15:21:39.339821 17185 net.cpp:92] Creating Layer fc6
I0725 15:21:39.339890 17185 net.cpp:470] fc6 <- pool5
I0725 15:21:39.339911 17185 net.cpp:444] fc6 -> fc6
I0725 15:21:39.361493 17185 net.cpp:142] Setting up fc6
I0725 15:21:39.361542 17185 net.cpp:149] Top shape: 1 1024 19 19 (369664)
I0725 15:21:39.361603 17185 net.cpp:157] Memory required for data: 222610496
I0725 15:21:39.361639 17185 layer_factory.hpp:77] Creating layer relu6
I0725 15:21:39.361665 17185 layer_factory.hpp:77] Creating layer relu6
I0725 15:21:39.361711 17185 net.cpp:92] Creating Layer relu6
I0725 15:21:39.361742 17185 net.cpp:470] relu6 <- fc6
I0725 15:21:39.361783 17185 net.cpp:431] relu6 -> fc6 (in-place)
I0725 15:21:39.361814 17185 net.cpp:142] Setting up relu6
I0725 15:21:39.361850 17185 net.cpp:149] Top shape: 1 1024 19 19 (369664)
I0725 15:21:39.361886 17185 net.cpp:157] Memory required for data: 224089152
I0725 15:21:39.361935 17185 layer_factory.hpp:77] Creating layer fc7
I0725 15:21:39.361980 17185 layer_factory.hpp:77] Creating layer fc7
I0725 15:21:39.362052 17185 net.cpp:92] Creating Layer fc7
I0725 15:21:39.362097 17185 net.cpp:470] fc7 <- fc6
I0725 15:21:39.362120 17185 net.cpp:444] fc7 -> fc7
I0725 15:21:39.367843 17185 net.cpp:142] Setting up fc7
I0725 15:21:39.367910 17185 net.cpp:149] Top shape: 1 1024 19 19 (369664)
I0725 15:21:39.367951 17185 net.cpp:157] Memory required for data: 225567808
I0725 15:21:39.368005 17185 layer_factory.hpp:77] Creating layer relu7
I0725 15:21:39.368050 17185 layer_factory.hpp:77] Creating layer relu7
I0725 15:21:39.368086 17185 net.cpp:92] Creating Layer relu7
I0725 15:21:39.368171 17185 net.cpp:470] relu7 <- fc7
I0725 15:21:39.368248 17185 net.cpp:431] relu7 -> fc7 (in-place)
I0725 15:21:39.368266 17185 net.cpp:142] Setting up relu7
I0725 15:21:39.368333 17185 net.cpp:149] Top shape: 1 1024 19 19 (369664)
I0725 15:21:39.368369 17185 net.cpp:157] Memory required for data: 227046464
I0725 15:21:39.368505 17185 layer_factory.hpp:77] Creating layer fc7_relu7_0_split
I0725 15:21:39.368567 17185 layer_factory.hpp:77] Creating layer fc7_relu7_0_split
I0725 15:21:39.368613 17185 net.cpp:92] Creating Layer fc7_relu7_0_split
I0725 15:21:39.368639 17185 net.cpp:470] fc7_relu7_0_split <- fc7
I0725 15:21:39.368738 17185 net.cpp:444] fc7_relu7_0_split -> fc7_relu7_0_split_0
I0725 15:21:39.368846 17185 net.cpp:444] fc7_relu7_0_split -> fc7_relu7_0_split_1
I0725 15:21:39.368891 17185 net.cpp:444] fc7_relu7_0_split -> fc7_relu7_0_split_2
I0725 15:21:39.368914 17185 net.cpp:444] fc7_relu7_0_split -> fc7_relu7_0_split_3
I0725 15:21:39.369004 17185 net.cpp:142] Setting up fc7_relu7_0_split
I0725 15:21:39.369057 17185 net.cpp:149] Top shape: 1 1024 19 19 (369664)
I0725 15:21:39.369201 17185 net.cpp:149] Top shape: 1 1024 19 19 (369664)
I0725 15:21:39.369359 17185 net.cpp:149] Top shape: 1 1024 19 19 (369664)
I0725 15:21:39.369444 17185 net.cpp:149] Top shape: 1 1024 19 19 (369664)
I0725 15:21:39.369472 17185 net.cpp:157] Memory required for data: 232961088
I0725 15:21:39.369530 17185 layer_factory.hpp:77] Creating layer conv6_1
I0725 15:21:39.369593 17185 layer_factory.hpp:77] Creating layer conv6_1
I0725 15:21:39.369674 17185 net.cpp:92] Creating Layer conv6_1
I0725 15:21:39.369696 17185 net.cpp:470] conv6_1 <- fc7_relu7_0_split_0
I0725 15:21:39.369750 17185 net.cpp:444] conv6_1 -> conv6_1
I0725 15:21:39.372087 17185 net.cpp:142] Setting up conv6_1
I0725 15:21:39.372126 17185 net.cpp:149] Top shape: 1 256 19 19 (92416)
I0725 15:21:39.372153 17185 net.cpp:157] Memory required for data: 233330752
I0725 15:21:39.372216 17185 layer_factory.hpp:77] Creating layer conv6_1_relu
I0725 15:21:39.372275 17185 layer_factory.hpp:77] Creating layer conv6_1_relu
I0725 15:21:39.372324 17185 net.cpp:92] Creating Layer conv6_1_relu
I0725 15:21:39.372365 17185 net.cpp:470] conv6_1_relu <- conv6_1
I0725 15:21:39.372423 17185 net.cpp:431] conv6_1_relu -> conv6_1 (in-place)
I0725 15:21:39.372483 17185 net.cpp:142] Setting up conv6_1_relu
I0725 15:21:39.372522 17185 net.cpp:149] Top shape: 1 256 19 19 (92416)
I0725 15:21:39.372545 17185 net.cpp:157] Memory required for data: 233700416
I0725 15:21:39.372666 17185 layer_factory.hpp:77] Creating layer conv6_2
I0725 15:21:39.372694 17185 layer_factory.hpp:77] Creating layer conv6_2
I0725 15:21:39.372747 17185 net.cpp:92] Creating Layer conv6_2
I0725 15:21:39.372814 17185 net.cpp:470] conv6_2 <- conv6_1
I0725 15:21:39.372833 17185 net.cpp:444] conv6_2 -> conv6_2
I0725 15:21:39.378968 17185 net.cpp:142] Setting up conv6_2
I0725 15:21:39.379007 17185 net.cpp:149] Top shape: 1 512 10 10 (51200)
I0725 15:21:39.379030 17185 net.cpp:157] Memory required for data: 233905216
I0725 15:21:39.379079 17185 layer_factory.hpp:77] Creating layer conv6_2_relu
I0725 15:21:39.379106 17185 layer_factory.hpp:77] Creating layer conv6_2_relu
I0725 15:21:39.379124 17185 net.cpp:92] Creating Layer conv6_2_relu
I0725 15:21:39.379151 17185 net.cpp:470] conv6_2_relu <- conv6_2
I0725 15:21:39.379179 17185 net.cpp:431] conv6_2_relu -> conv6_2 (in-place)
I0725 15:21:39.379232 17185 net.cpp:142] Setting up conv6_2_relu
I0725 15:21:39.379295 17185 net.cpp:149] Top shape: 1 512 10 10 (51200)
I0725 15:21:39.379354 17185 net.cpp:157] Memory required for data: 234110016
I0725 15:21:39.379444 17185 layer_factory.hpp:77] Creating layer conv6_2_conv6_2_relu_0_split
I0725 15:21:39.379472 17185 layer_factory.hpp:77] Creating layer conv6_2_conv6_2_relu_0_split
I0725 15:21:39.379493 17185 net.cpp:92] Creating Layer conv6_2_conv6_2_relu_0_split
I0725 15:21:39.379516 17185 net.cpp:470] conv6_2_conv6_2_relu_0_split <- conv6_2
I0725 15:21:39.379552 17185 net.cpp:444] conv6_2_conv6_2_relu_0_split -> conv6_2_conv6_2_relu_0_split_0
I0725 15:21:39.379592 17185 net.cpp:444] conv6_2_conv6_2_relu_0_split -> conv6_2_conv6_2_relu_0_split_1
I0725 15:21:39.379664 17185 net.cpp:444] conv6_2_conv6_2_relu_0_split -> conv6_2_conv6_2_relu_0_split_2
I0725 15:21:39.379705 17185 net.cpp:444] conv6_2_conv6_2_relu_0_split -> conv6_2_conv6_2_relu_0_split_3
I0725 15:21:39.379781 17185 net.cpp:142] Setting up conv6_2_conv6_2_relu_0_split
I0725 15:21:39.379817 17185 net.cpp:149] Top shape: 1 512 10 10 (51200)
I0725 15:21:39.379849 17185 net.cpp:149] Top shape: 1 512 10 10 (51200)
I0725 15:21:39.379907 17185 net.cpp:149] Top shape: 1 512 10 10 (51200)
I0725 15:21:39.380128 17185 net.cpp:149] Top shape: 1 512 10 10 (51200)
I0725 15:21:39.380151 17185 net.cpp:157] Memory required for data: 234929216
I0725 15:21:39.380245 17185 layer_factory.hpp:77] Creating layer conv7_1
I0725 15:21:39.380285 17185 layer_factory.hpp:77] Creating layer conv7_1
I0725 15:21:39.380416 17185 net.cpp:92] Creating Layer conv7_1
I0725 15:21:39.380456 17185 net.cpp:470] conv7_1 <- conv6_2_conv6_2_relu_0_split_0
I0725 15:21:39.380488 17185 net.cpp:444] conv7_1 -> conv7_1
I0725 15:21:39.380879 17185 net.cpp:142] Setting up conv7_1
I0725 15:21:39.380942 17185 net.cpp:149] Top shape: 1 128 10 10 (12800)
I0725 15:21:39.381055 17185 net.cpp:157] Memory required for data: 234980416
I0725 15:21:39.381140 17185 layer_factory.hpp:77] Creating layer conv7_1_relu
I0725 15:21:39.381239 17185 layer_factory.hpp:77] Creating layer conv7_1_relu
I0725 15:21:39.381266 17185 net.cpp:92] Creating Layer conv7_1_relu
I0725 15:21:39.381366 17185 net.cpp:470] conv7_1_relu <- conv7_1
I0725 15:21:39.381407 17185 net.cpp:431] conv7_1_relu -> conv7_1 (in-place)
I0725 15:21:39.381474 17185 net.cpp:142] Setting up conv7_1_relu
I0725 15:21:39.381527 17185 net.cpp:149] Top shape: 1 128 10 10 (12800)
I0725 15:21:39.381613 17185 net.cpp:157] Memory required for data: 235031616
I0725 15:21:39.381703 17185 layer_factory.hpp:77] Creating layer conv7_2
I0725 15:21:39.381806 17185 layer_factory.hpp:77] Creating layer conv7_2
I0725 15:21:39.382135 17185 net.cpp:92] Creating Layer conv7_2
I0725 15:21:39.382184 17185 net.cpp:470] conv7_2 <- conv7_1
I0725 15:21:39.382517 17185 net.cpp:444] conv7_2 -> conv7_2
I0725 15:21:39.386869 17185 net.cpp:142] Setting up conv7_2
I0725 15:21:39.386914 17185 net.cpp:149] Top shape: 1 256 5 5 (6400)
I0725 15:21:39.386932 17185 net.cpp:157] Memory required for data: 235057216
I0725 15:21:39.386996 17185 layer_factory.hpp:77] Creating layer conv7_2_relu
I0725 15:21:39.387049 17185 layer_factory.hpp:77] Creating layer conv7_2_relu
I0725 15:21:39.387085 17185 net.cpp:92] Creating Layer conv7_2_relu
I0725 15:21:39.387140 17185 net.cpp:470] conv7_2_relu <- conv7_2
I0725 15:21:39.387215 17185 net.cpp:431] conv7_2_relu -> conv7_2 (in-place)
I0725 15:21:39.387292 17185 net.cpp:142] Setting up conv7_2_relu
I0725 15:21:39.387351 17185 net.cpp:149] Top shape: 1 256 5 5 (6400)
I0725 15:21:39.387387 17185 net.cpp:157] Memory required for data: 235082816
I0725 15:21:39.387431 17185 layer_factory.hpp:77] Creating layer conv7_2_conv7_2_relu_0_split
I0725 15:21:39.387508 17185 layer_factory.hpp:77] Creating layer conv7_2_conv7_2_relu_0_split
I0725 15:21:39.387611 17185 net.cpp:92] Creating Layer conv7_2_conv7_2_relu_0_split
I0725 15:21:39.387670 17185 net.cpp:470] conv7_2_conv7_2_relu_0_split <- conv7_2
I0725 15:21:39.387715 17185 net.cpp:444] conv7_2_conv7_2_relu_0_split -> conv7_2_conv7_2_relu_0_split_0
I0725 15:21:39.387737 17185 net.cpp:444] conv7_2_conv7_2_relu_0_split -> conv7_2_conv7_2_relu_0_split_1
I0725 15:21:39.387913 17185 net.cpp:444] conv7_2_conv7_2_relu_0_split -> conv7_2_conv7_2_relu_0_split_2
I0725 15:21:39.387940 17185 net.cpp:444] conv7_2_conv7_2_relu_0_split -> conv7_2_conv7_2_relu_0_split_3
I0725 15:21:39.388067 17185 net.cpp:142] Setting up conv7_2_conv7_2_relu_0_split
I0725 15:21:39.388170 17185 net.cpp:149] Top shape: 1 256 5 5 (6400)
I0725 15:21:39.388391 17185 net.cpp:149] Top shape: 1 256 5 5 (6400)
I0725 15:21:39.388525 17185 net.cpp:149] Top shape: 1 256 5 5 (6400)
I0725 15:21:39.388763 17185 net.cpp:149] Top shape: 1 256 5 5 (6400)
I0725 15:21:39.389029 17185 net.cpp:157] Memory required for data: 235185216
I0725 15:21:39.389065 17185 layer_factory.hpp:77] Creating layer conv8_1
I0725 15:21:39.389096 17185 layer_factory.hpp:77] Creating layer conv8_1
I0725 15:21:39.389155 17185 net.cpp:92] Creating Layer conv8_1
I0725 15:21:39.389605 17185 net.cpp:470] conv8_1 <- conv7_2_conv7_2_relu_0_split_0
I0725 15:21:39.389874 17185 net.cpp:444] conv8_1 -> conv8_1
I0725 15:21:39.390815 17185 net.cpp:142] Setting up conv8_1
I0725 15:21:39.390900 17185 net.cpp:149] Top shape: 1 128 5 5 (3200)
I0725 15:21:39.390995 17185 net.cpp:157] Memory required for data: 235198016
I0725 15:21:39.391089 17185 layer_factory.hpp:77] Creating layer conv8_1_relu
I0725 15:21:39.391337 17185 layer_factory.hpp:77] Creating layer conv8_1_relu
I0725 15:21:39.391368 17185 net.cpp:92] Creating Layer conv8_1_relu
I0725 15:21:39.391805 17185 net.cpp:470] conv8_1_relu <- conv8_1
I0725 15:21:39.391968 17185 net.cpp:431] conv8_1_relu -> conv8_1 (in-place)
I0725 15:21:39.392133 17185 net.cpp:142] Setting up conv8_1_relu
I0725 15:21:39.392201 17185 net.cpp:149] Top shape: 1 128 5 5 (3200)
I0725 15:21:39.392264 17185 net.cpp:157] Memory required for data: 235210816
I0725 15:21:39.392381 17185 layer_factory.hpp:77] Creating layer conv8_2
I0725 15:21:39.392489 17185 layer_factory.hpp:77] Creating layer conv8_2
I0725 15:21:39.392534 17185 net.cpp:92] Creating Layer conv8_2
I0725 15:21:39.392624 17185 net.cpp:470] conv8_2 <- conv8_1
I0725 15:21:39.392691 17185 net.cpp:444] conv8_2 -> conv8_2
I0725 15:21:39.395495 17185 net.cpp:142] Setting up conv8_2
I0725 15:21:39.395526 17185 net.cpp:149] Top shape: 1 256 3 3 (2304)
I0725 15:21:39.395568 17185 net.cpp:157] Memory required for data: 235220032
I0725 15:21:39.395721 17185 layer_factory.hpp:77] Creating layer conv8_2_relu
I0725 15:21:39.395829 17185 layer_factory.hpp:77] Creating layer conv8_2_relu
I0725 15:21:39.396049 17185 net.cpp:92] Creating Layer conv8_2_relu
I0725 15:21:39.396076 17185 net.cpp:470] conv8_2_relu <- conv8_2
I0725 15:21:39.396117 17185 net.cpp:431] conv8_2_relu -> conv8_2 (in-place)
I0725 15:21:39.396157 17185 net.cpp:142] Setting up conv8_2_relu
I0725 15:21:39.396270 17185 net.cpp:149] Top shape: 1 256 3 3 (2304)
I0725 15:21:39.396315 17185 net.cpp:157] Memory required for data: 235229248
I0725 15:21:39.396351 17185 layer_factory.hpp:77] Creating layer conv8_2_conv8_2_relu_0_split
I0725 15:21:39.396419 17185 layer_factory.hpp:77] Creating layer conv8_2_conv8_2_relu_0_split
I0725 15:21:39.396711 17185 net.cpp:92] Creating Layer conv8_2_conv8_2_relu_0_split
I0725 15:21:39.396733 17185 net.cpp:470] conv8_2_conv8_2_relu_0_split <- conv8_2
I0725 15:21:39.396864 17185 net.cpp:444] conv8_2_conv8_2_relu_0_split -> conv8_2_conv8_2_relu_0_split_0
I0725 15:21:39.397125 17185 net.cpp:444] conv8_2_conv8_2_relu_0_split -> conv8_2_conv8_2_relu_0_split_1
I0725 15:21:39.397188 17185 net.cpp:444] conv8_2_conv8_2_relu_0_split -> conv8_2_conv8_2_relu_0_split_2
I0725 15:21:39.397210 17185 net.cpp:444] conv8_2_conv8_2_relu_0_split -> conv8_2_conv8_2_relu_0_split_3
I0725 15:21:39.397449 17185 net.cpp:142] Setting up conv8_2_conv8_2_relu_0_split
I0725 15:21:39.397485 17185 net.cpp:149] Top shape: 1 256 3 3 (2304)
I0725 15:21:39.397534 17185 net.cpp:149] Top shape: 1 256 3 3 (2304)
I0725 15:21:39.397665 17185 net.cpp:149] Top shape: 1 256 3 3 (2304)
I0725 15:21:39.397764 17185 net.cpp:149] Top shape: 1 256 3 3 (2304)
I0725 15:21:39.397939 17185 net.cpp:157] Memory required for data: 235266112
I0725 15:21:39.398007 17185 layer_factory.hpp:77] Creating layer conv9_1
I0725 15:21:39.398304 17185 layer_factory.hpp:77] Creating layer conv9_1
I0725 15:21:39.398398 17185 net.cpp:92] Creating Layer conv9_1
I0725 15:21:39.399037 17185 net.cpp:470] conv9_1 <- conv8_2_conv8_2_relu_0_split_0
I0725 15:21:39.399186 17185 net.cpp:444] conv9_1 -> conv9_1
I0725 15:21:39.399924 17185 net.cpp:142] Setting up conv9_1
I0725 15:21:39.400000 17185 net.cpp:149] Top shape: 1 128 3 3 (1152)
I0725 15:21:39.400040 17185 net.cpp:157] Memory required for data: 235270720
I0725 15:21:39.400229 17185 layer_factory.hpp:77] Creating layer conv9_1_relu
I0725 15:21:39.400424 17185 layer_factory.hpp:77] Creating layer conv9_1_relu
I0725 15:21:39.400477 17185 net.cpp:92] Creating Layer conv9_1_relu
I0725 15:21:39.400604 17185 net.cpp:470] conv9_1_relu <- conv9_1
I0725 15:21:39.400815 17185 net.cpp:431] conv9_1_relu -> conv9_1 (in-place)
I0725 15:21:39.400887 17185 net.cpp:142] Setting up conv9_1_relu
I0725 15:21:39.401116 17185 net.cpp:149] Top shape: 1 128 3 3 (1152)
I0725 15:21:39.401417 17185 net.cpp:157] Memory required for data: 235275328
I0725 15:21:39.401480 17185 layer_factory.hpp:77] Creating layer conv9_2
I0725 15:21:39.401876 17185 layer_factory.hpp:77] Creating layer conv9_2
I0725 15:21:39.401931 17185 net.cpp:92] Creating Layer conv9_2
I0725 15:21:39.401952 17185 net.cpp:470] conv9_2 <- conv9_1
I0725 15:21:39.402110 17185 net.cpp:444] conv9_2 -> conv9_2
I0725 15:21:39.405057 17185 net.cpp:142] Setting up conv9_2
I0725 15:21:39.405093 17185 net.cpp:149] Top shape: 1 256 1 1 (256)
I0725 15:21:39.405139 17185 net.cpp:157] Memory required for data: 235276352
I0725 15:21:39.405180 17185 layer_factory.hpp:77] Creating layer conv9_2_relu
I0725 15:21:39.405202 17185 layer_factory.hpp:77] Creating layer conv9_2_relu
I0725 15:21:39.405234 17185 net.cpp:92] Creating Layer conv9_2_relu
I0725 15:21:39.405261 17185 net.cpp:470] conv9_2_relu <- conv9_2
I0725 15:21:39.405292 17185 net.cpp:431] conv9_2_relu -> conv9_2 (in-place)
I0725 15:21:39.405315 17185 net.cpp:142] Setting up conv9_2_relu
I0725 15:21:39.405378 17185 net.cpp:149] Top shape: 1 256 1 1 (256)
I0725 15:21:39.405490 17185 net.cpp:157] Memory required for data: 235277376
I0725 15:21:39.405558 17185 layer_factory.hpp:77] Creating layer conv9_2_conv9_2_relu_0_split
I0725 15:21:39.405652 17185 layer_factory.hpp:77] Creating layer conv9_2_conv9_2_relu_0_split
I0725 15:21:39.405684 17185 net.cpp:92] Creating Layer conv9_2_conv9_2_relu_0_split
I0725 15:21:39.405725 17185 net.cpp:470] conv9_2_conv9_2_relu_0_split <- conv9_2
I0725 15:21:39.405756 17185 net.cpp:444] conv9_2_conv9_2_relu_0_split -> conv9_2_conv9_2_relu_0_split_0
I0725 15:21:39.405805 17185 net.cpp:444] conv9_2_conv9_2_relu_0_split -> conv9_2_conv9_2_relu_0_split_1
I0725 15:21:39.405891 17185 net.cpp:444] conv9_2_conv9_2_relu_0_split -> conv9_2_conv9_2_relu_0_split_2
I0725 15:21:39.406174 17185 net.cpp:142] Setting up conv9_2_conv9_2_relu_0_split
I0725 15:21:39.406345 17185 net.cpp:149] Top shape: 1 256 1 1 (256)
I0725 15:21:39.406916 17185 net.cpp:149] Top shape: 1 256 1 1 (256)
I0725 15:21:39.407024 17185 net.cpp:149] Top shape: 1 256 1 1 (256)
I0725 15:21:39.407177 17185 net.cpp:157] Memory required for data: 235280448
I0725 15:21:39.407249 17185 layer_factory.hpp:77] Creating layer conv4_3_norm
I0725 15:21:39.407384 17185 layer_factory.hpp:77] Creating layer conv4_3_norm
I0725 15:21:39.407694 17185 net.cpp:92] Creating Layer conv4_3_norm
I0725 15:21:39.407763 17185 net.cpp:470] conv4_3_norm <- conv4_3_relu4_3_0_split_1
I0725 15:21:39.407802 17185 net.cpp:444] conv4_3_norm -> conv4_3_norm
I0725 15:21:39.408221 17185 net.cpp:142] Setting up conv4_3_norm
I0725 15:21:39.408311 17185 net.cpp:149] Top shape: 1 512 38 38 (739328)
I0725 15:21:39.408419 17185 net.cpp:157] Memory required for data: 238237760
I0725 15:21:39.408509 17185 layer_factory.hpp:77] Creating layer conv4_3_norm_conv4_3_norm_0_split
I0725 15:21:39.408627 17185 layer_factory.hpp:77] Creating layer conv4_3_norm_conv4_3_norm_0_split
I0725 15:21:39.408747 17185 net.cpp:92] Creating Layer conv4_3_norm_conv4_3_norm_0_split
I0725 15:21:39.408923 17185 net.cpp:470] conv4_3_norm_conv4_3_norm_0_split <- conv4_3_norm
I0725 15:21:39.409090 17185 net.cpp:444] conv4_3_norm_conv4_3_norm_0_split -> conv4_3_norm_conv4_3_norm_0_split_0
I0725 15:21:39.409126 17185 net.cpp:444] conv4_3_norm_conv4_3_norm_0_split -> conv4_3_norm_conv4_3_norm_0_split_1
I0725 15:21:39.409270 17185 net.cpp:444] conv4_3_norm_conv4_3_norm_0_split -> conv4_3_norm_conv4_3_norm_0_split_2
I0725 15:21:39.409647 17185 net.cpp:142] Setting up conv4_3_norm_conv4_3_norm_0_split
I0725 15:21:39.409822 17185 net.cpp:149] Top shape: 1 512 38 38 (739328)
I0725 15:21:39.409858 17185 net.cpp:149] Top shape: 1 512 38 38 (739328)
I0725 15:21:39.409998 17185 net.cpp:149] Top shape: 1 512 38 38 (739328)
I0725 15:21:39.410101 17185 net.cpp:157] Memory required for data: 247109696
I0725 15:21:39.410205 17185 layer_factory.hpp:77] Creating layer conv4_3_norm_mbox_loc
I0725 15:21:39.410259 17185 layer_factory.hpp:77] Creating layer conv4_3_norm_mbox_loc
I0725 15:21:39.410358 17185 net.cpp:92] Creating Layer conv4_3_norm_mbox_loc
I0725 15:21:39.410416 17185 net.cpp:470] conv4_3_norm_mbox_loc <- conv4_3_norm_conv4_3_norm_0_split_0
I0725 15:21:39.410516 17185 net.cpp:444] conv4_3_norm_mbox_loc -> conv4_3_norm_mbox_loc
I0725 15:21:39.411991 17185 net.cpp:142] Setting up conv4_3_norm_mbox_loc
I0725 15:21:39.412050 17185 net.cpp:149] Top shape: 1 16 38 38 (23104)
I0725 15:21:39.412076 17185 net.cpp:157] Memory required for data: 247202112
I0725 15:21:39.412127 17185 layer_factory.hpp:77] Creating layer conv4_3_norm_mbox_loc_perm
I0725 15:21:39.412184 17185 layer_factory.hpp:77] Creating layer conv4_3_norm_mbox_loc_perm
I0725 15:21:39.412238 17185 net.cpp:92] Creating Layer conv4_3_norm_mbox_loc_perm
I0725 15:21:39.412297 17185 net.cpp:470] conv4_3_norm_mbox_loc_perm <- conv4_3_norm_mbox_loc
I0725 15:21:39.412364 17185 net.cpp:444] conv4_3_norm_mbox_loc_perm -> conv4_3_norm_mbox_loc_perm
I0725 15:21:39.412513 17185 net.cpp:142] Setting up conv4_3_norm_mbox_loc_perm
I0725 15:21:39.412544 17185 net.cpp:149] Top shape: 1 38 38 16 (23104)
I0725 15:21:39.412629 17185 net.cpp:157] Memory required for data: 247294528
I0725 15:21:39.412688 17185 layer_factory.hpp:77] Creating layer conv4_3_norm_mbox_loc_flat
I0725 15:21:39.412873 17185 layer_factory.hpp:77] Creating layer conv4_3_norm_mbox_loc_flat
I0725 15:21:39.412931 17185 net.cpp:92] Creating Layer conv4_3_norm_mbox_loc_flat
I0725 15:21:39.412967 17185 net.cpp:470] conv4_3_norm_mbox_loc_flat <- conv4_3_norm_mbox_loc_perm
I0725 15:21:39.413003 17185 net.cpp:444] conv4_3_norm_mbox_loc_flat -> conv4_3_norm_mbox_loc_flat
I0725 15:21:39.413133 17185 net.cpp:142] Setting up conv4_3_norm_mbox_loc_flat
I0725 15:21:39.413282 17185 net.cpp:149] Top shape: 1 23104 (23104)
I0725 15:21:39.413309 17185 net.cpp:157] Memory required for data: 247386944
I0725 15:21:39.413336 17185 layer_factory.hpp:77] Creating layer conv4_3_norm_mbox_conf
I0725 15:21:39.413498 17185 layer_factory.hpp:77] Creating layer conv4_3_norm_mbox_conf
I0725 15:21:39.413579 17185 net.cpp:92] Creating Layer conv4_3_norm_mbox_conf
I0725 15:21:39.413687 17185 net.cpp:470] conv4_3_norm_mbox_conf <- conv4_3_norm_conv4_3_norm_0_split_1
I0725 15:21:39.414037 17185 net.cpp:444] conv4_3_norm_mbox_conf -> conv4_3_norm_mbox_conf
I0725 15:21:39.417346 17185 net.cpp:142] Setting up conv4_3_norm_mbox_conf
I0725 15:21:39.417395 17185 net.cpp:149] Top shape: 1 84 38 38 (121296)
I0725 15:21:39.417438 17185 net.cpp:157] Memory required for data: 247872128
I0725 15:21:39.417465 17185 layer_factory.hpp:77] Creating layer conv4_3_norm_mbox_conf_perm
I0725 15:21:39.417523 17185 layer_factory.hpp:77] Creating layer conv4_3_norm_mbox_conf_perm
I0725 15:21:39.417582 17185 net.cpp:92] Creating Layer conv4_3_norm_mbox_conf_perm
I0725 15:21:39.417609 17185 net.cpp:470] conv4_3_norm_mbox_conf_perm <- conv4_3_norm_mbox_conf
I0725 15:21:39.417726 17185 net.cpp:444] conv4_3_norm_mbox_conf_perm -> conv4_3_norm_mbox_conf_perm
I0725 15:21:39.417914 17185 net.cpp:142] Setting up conv4_3_norm_mbox_conf_perm
I0725 15:21:39.418207 17185 net.cpp:149] Top shape: 1 38 38 84 (121296)
I0725 15:21:39.418262 17185 net.cpp:157] Memory required for data: 248357312
I0725 15:21:39.418292 17185 layer_factory.hpp:77] Creating layer conv4_3_norm_mbox_conf_flat
I0725 15:21:39.418360 17185 layer_factory.hpp:77] Creating layer conv4_3_norm_mbox_conf_flat
I0725 15:21:39.418526 17185 net.cpp:92] Creating Layer conv4_3_norm_mbox_conf_flat
I0725 15:21:39.419039 17185 net.cpp:470] conv4_3_norm_mbox_conf_flat <- conv4_3_norm_mbox_conf_perm
I0725 15:21:39.419214 17185 net.cpp:444] conv4_3_norm_mbox_conf_flat -> conv4_3_norm_mbox_conf_flat
I0725 15:21:39.419502 17185 net.cpp:142] Setting up conv4_3_norm_mbox_conf_flat
I0725 15:21:39.419673 17185 net.cpp:149] Top shape: 1 121296 (121296)
I0725 15:21:39.419750 17185 net.cpp:157] Memory required for data: 248842496
I0725 15:21:39.419804 17185 layer_factory.hpp:77] Creating layer conv4_3_norm_mbox_priorbox
I0725 15:21:39.419939 17185 layer_factory.hpp:77] Creating layer conv4_3_norm_mbox_priorbox
I0725 15:21:39.420042 17185 net.cpp:92] Creating Layer conv4_3_norm_mbox_priorbox
I0725 15:21:39.420078 17185 net.cpp:470] conv4_3_norm_mbox_priorbox <- conv4_3_norm_conv4_3_norm_0_split_2
I0725 15:21:39.420200 17185 net.cpp:470] conv4_3_norm_mbox_priorbox <- data_data_0_split_1
I0725 15:21:39.420290 17185 net.cpp:444] conv4_3_norm_mbox_priorbox -> conv4_3_norm_mbox_priorbox
I0725 15:21:39.420645 17185 net.cpp:142] Setting up conv4_3_norm_mbox_priorbox
I0725 15:21:39.420727 17185 net.cpp:149] Top shape: 1 2 23104 (46208)
I0725 15:21:39.421046 17185 net.cpp:157] Memory required for data: 249027328
I0725 15:21:39.421239 17185 layer_factory.hpp:77] Creating layer fc7_mbox_loc
I0725 15:21:39.421351 17185 layer_factory.hpp:77] Creating layer fc7_mbox_loc
I0725 15:21:39.421648 17185 net.cpp:92] Creating Layer fc7_mbox_loc
I0725 15:21:39.421770 17185 net.cpp:470] fc7_mbox_loc <- fc7_relu7_0_split_1
I0725 15:21:39.421846 17185 net.cpp:444] fc7_mbox_loc -> fc7_mbox_loc
I0725 15:21:39.423264 17185 net.cpp:142] Setting up fc7_mbox_loc
I0725 15:21:39.423326 17185 net.cpp:149] Top shape: 1 24 19 19 (8664)
I0725 15:21:39.423457 17185 net.cpp:157] Memory required for data: 249061984
I0725 15:21:39.423524 17185 layer_factory.hpp:77] Creating layer fc7_mbox_loc_perm
I0725 15:21:39.423557 17185 layer_factory.hpp:77] Creating layer fc7_mbox_loc_perm
I0725 15:21:39.423655 17185 net.cpp:92] Creating Layer fc7_mbox_loc_perm
I0725 15:21:39.423696 17185 net.cpp:470] fc7_mbox_loc_perm <- fc7_mbox_loc
I0725 15:21:39.424037 17185 net.cpp:444] fc7_mbox_loc_perm -> fc7_mbox_loc_perm
I0725 15:21:39.424443 17185 net.cpp:142] Setting up fc7_mbox_loc_perm
I0725 15:21:39.424559 17185 net.cpp:149] Top shape: 1 19 19 24 (8664)
I0725 15:21:39.424654 17185 net.cpp:157] Memory required for data: 249096640
I0725 15:21:39.424947 17185 layer_factory.hpp:77] Creating layer fc7_mbox_loc_flat
I0725 15:21:39.425040 17185 layer_factory.hpp:77] Creating layer fc7_mbox_loc_flat
I0725 15:21:39.425189 17185 net.cpp:92] Creating Layer fc7_mbox_loc_flat
I0725 15:21:39.425211 17185 net.cpp:470] fc7_mbox_loc_flat <- fc7_mbox_loc_perm
I0725 15:21:39.425314 17185 net.cpp:444] fc7_mbox_loc_flat -> fc7_mbox_loc_flat
I0725 15:21:39.425832 17185 net.cpp:142] Setting up fc7_mbox_loc_flat
I0725 15:21:39.425878 17185 net.cpp:149] Top shape: 1 8664 (8664)
I0725 15:21:39.426138 17185 net.cpp:157] Memory required for data: 249131296
I0725 15:21:39.426229 17185 layer_factory.hpp:77] Creating layer fc7_mbox_conf
I0725 15:21:39.426542 17185 layer_factory.hpp:77] Creating layer fc7_mbox_conf
I0725 15:21:39.427150 17185 net.cpp:92] Creating Layer fc7_mbox_conf
I0725 15:21:39.427258 17185 net.cpp:470] fc7_mbox_conf <- fc7_relu7_0_split_2
I0725 15:21:39.427376 17185 net.cpp:444] fc7_mbox_conf -> fc7_mbox_conf
I0725 15:21:39.433706 17185 net.cpp:142] Setting up fc7_mbox_conf
I0725 15:21:39.433759 17185 net.cpp:149] Top shape: 1 126 19 19 (45486)
I0725 15:21:39.433782 17185 net.cpp:157] Memory required for data: 249313240
I0725 15:21:39.433849 17185 layer_factory.hpp:77] Creating layer fc7_mbox_conf_perm
I0725 15:21:39.433998 17185 layer_factory.hpp:77] Creating layer fc7_mbox_conf_perm
I0725 15:21:39.434034 17185 net.cpp:92] Creating Layer fc7_mbox_conf_perm
I0725 15:21:39.434290 17185 net.cpp:470] fc7_mbox_conf_perm <- fc7_mbox_conf
I0725 15:21:39.434402 17185 net.cpp:444] fc7_mbox_conf_perm -> fc7_mbox_conf_perm
I0725 15:21:39.434813 17185 net.cpp:142] Setting up fc7_mbox_conf_perm
I0725 15:21:39.434978 17185 net.cpp:149] Top shape: 1 19 19 126 (45486)
I0725 15:21:39.435122 17185 net.cpp:157] Memory required for data: 249495184
I0725 15:21:39.435190 17185 layer_factory.hpp:77] Creating layer fc7_mbox_conf_flat
I0725 15:21:39.435253 17185 layer_factory.hpp:77] Creating layer fc7_mbox_conf_flat
I0725 15:21:39.435456 17185 net.cpp:92] Creating Layer fc7_mbox_conf_flat
I0725 15:21:39.435504 17185 net.cpp:470] fc7_mbox_conf_flat <- fc7_mbox_conf_perm
I0725 15:21:39.435636 17185 net.cpp:444] fc7_mbox_conf_flat -> fc7_mbox_conf_flat
I0725 15:21:39.435955 17185 net.cpp:142] Setting up fc7_mbox_conf_flat
I0725 15:21:39.436049 17185 net.cpp:149] Top shape: 1 45486 (45486)
I0725 15:21:39.436080 17185 net.cpp:157] Memory required for data: 249677128
I0725 15:21:39.436148 17185 layer_factory.hpp:77] Creating layer fc7_mbox_priorbox
I0725 15:21:39.436251 17185 layer_factory.hpp:77] Creating layer fc7_mbox_priorbox
I0725 15:21:39.436472 17185 net.cpp:92] Creating Layer fc7_mbox_priorbox
I0725 15:21:39.436566 17185 net.cpp:470] fc7_mbox_priorbox <- fc7_relu7_0_split_3
I0725 15:21:39.436594 17185 net.cpp:470] fc7_mbox_priorbox <- data_data_0_split_2
I0725 15:21:39.436769 17185 net.cpp:444] fc7_mbox_priorbox -> fc7_mbox_priorbox
I0725 15:21:39.436882 17185 net.cpp:142] Setting up fc7_mbox_priorbox
I0725 15:21:39.437142 17185 net.cpp:149] Top shape: 1 2 8664 (17328)
I0725 15:21:39.437331 17185 net.cpp:157] Memory required for data: 249746440
I0725 15:21:39.437515 17185 layer_factory.hpp:77] Creating layer conv6_2_mbox_loc
I0725 15:21:39.437677 17185 layer_factory.hpp:77] Creating layer conv6_2_mbox_loc
I0725 15:21:39.437871 17185 net.cpp:92] Creating Layer conv6_2_mbox_loc
I0725 15:21:39.438118 17185 net.cpp:470] conv6_2_mbox_loc <- conv6_2_conv6_2_relu_0_split_1
I0725 15:21:39.438460 17185 net.cpp:444] conv6_2_mbox_loc -> conv6_2_mbox_loc
I0725 15:21:39.439247 17185 net.cpp:142] Setting up conv6_2_mbox_loc
I0725 15:21:39.439360 17185 net.cpp:149] Top shape: 1 24 10 10 (2400)
I0725 15:21:39.439432 17185 net.cpp:157] Memory required for data: 249756040
I0725 15:21:39.439460 17185 layer_factory.hpp:77] Creating layer conv6_2_mbox_loc_perm
I0725 15:21:39.439508 17185 layer_factory.hpp:77] Creating layer conv6_2_mbox_loc_perm
I0725 15:21:39.439638 17185 net.cpp:92] Creating Layer conv6_2_mbox_loc_perm
I0725 15:21:39.439728 17185 net.cpp:470] conv6_2_mbox_loc_perm <- conv6_2_mbox_loc
I0725 15:21:39.439846 17185 net.cpp:444] conv6_2_mbox_loc_perm -> conv6_2_mbox_loc_perm
I0725 15:21:39.440034 17185 net.cpp:142] Setting up conv6_2_mbox_loc_perm
I0725 15:21:39.440187 17185 net.cpp:149] Top shape: 1 10 10 24 (2400)
I0725 15:21:39.440268 17185 net.cpp:157] Memory required for data: 249765640
I0725 15:21:39.440412 17185 layer_factory.hpp:77] Creating layer conv6_2_mbox_loc_flat
I0725 15:21:39.440562 17185 layer_factory.hpp:77] Creating layer conv6_2_mbox_loc_flat
I0725 15:21:39.440845 17185 net.cpp:92] Creating Layer conv6_2_mbox_loc_flat
I0725 15:21:39.440994 17185 net.cpp:470] conv6_2_mbox_loc_flat <- conv6_2_mbox_loc_perm
I0725 15:21:39.441169 17185 net.cpp:444] conv6_2_mbox_loc_flat -> conv6_2_mbox_loc_flat
I0725 15:21:39.441375 17185 net.cpp:142] Setting up conv6_2_mbox_loc_flat
I0725 15:21:39.441534 17185 net.cpp:149] Top shape: 1 2400 (2400)
I0725 15:21:39.441681 17185 net.cpp:157] Memory required for data: 249775240
I0725 15:21:39.441726 17185 layer_factory.hpp:77] Creating layer conv6_2_mbox_conf
I0725 15:21:39.441853 17185 layer_factory.hpp:77] Creating layer conv6_2_mbox_conf
I0725 15:21:39.441906 17185 net.cpp:92] Creating Layer conv6_2_mbox_conf
I0725 15:21:39.442068 17185 net.cpp:470] conv6_2_mbox_conf <- conv6_2_conv6_2_relu_0_split_2
I0725 15:21:39.442315 17185 net.cpp:444] conv6_2_mbox_conf -> conv6_2_mbox_conf
I0725 15:21:39.445938 17185 net.cpp:142] Setting up conv6_2_mbox_conf
I0725 15:21:39.445997 17185 net.cpp:149] Top shape: 1 126 10 10 (12600)
I0725 15:21:39.446015 17185 net.cpp:157] Memory required for data: 249825640
I0725 15:21:39.446038 17185 layer_factory.hpp:77] Creating layer conv6_2_mbox_conf_perm
I0725 15:21:39.446115 17185 layer_factory.hpp:77] Creating layer conv6_2_mbox_conf_perm
I0725 15:21:39.446202 17185 net.cpp:92] Creating Layer conv6_2_mbox_conf_perm
I0725 15:21:39.446269 17185 net.cpp:470] conv6_2_mbox_conf_perm <- conv6_2_mbox_conf
I0725 15:21:39.446394 17185 net.cpp:444] conv6_2_mbox_conf_perm -> conv6_2_mbox_conf_perm
I0725 15:21:39.446547 17185 net.cpp:142] Setting up conv6_2_mbox_conf_perm
I0725 15:21:39.446939 17185 net.cpp:149] Top shape: 1 10 10 126 (12600)
I0725 15:21:39.446997 17185 net.cpp:157] Memory required for data: 249876040
I0725 15:21:39.447083 17185 layer_factory.hpp:77] Creating layer conv6_2_mbox_conf_flat
I0725 15:21:39.447105 17185 layer_factory.hpp:77] Creating layer conv6_2_mbox_conf_flat
I0725 15:21:39.447124 17185 net.cpp:92] Creating Layer conv6_2_mbox_conf_flat
I0725 15:21:39.447150 17185 net.cpp:470] conv6_2_mbox_conf_flat <- conv6_2_mbox_conf_perm
I0725 15:21:39.447325 17185 net.cpp:444] conv6_2_mbox_conf_flat -> conv6_2_mbox_conf_flat
I0725 15:21:39.447420 17185 net.cpp:142] Setting up conv6_2_mbox_conf_flat
I0725 15:21:39.447505 17185 net.cpp:149] Top shape: 1 12600 (12600)
I0725 15:21:39.447636 17185 net.cpp:157] Memory required for data: 249926440
I0725 15:21:39.447700 17185 layer_factory.hpp:77] Creating layer conv6_2_mbox_priorbox
I0725 15:21:39.447816 17185 layer_factory.hpp:77] Creating layer conv6_2_mbox_priorbox
I0725 15:21:39.447942 17185 net.cpp:92] Creating Layer conv6_2_mbox_priorbox
I0725 15:21:39.448050 17185 net.cpp:470] conv6_2_mbox_priorbox <- conv6_2_conv6_2_relu_0_split_3
I0725 15:21:39.448252 17185 net.cpp:470] conv6_2_mbox_priorbox <- data_data_0_split_3
I0725 15:21:39.448384 17185 net.cpp:444] conv6_2_mbox_priorbox -> conv6_2_mbox_priorbox
I0725 15:21:39.448765 17185 net.cpp:142] Setting up conv6_2_mbox_priorbox
I0725 15:21:39.448959 17185 net.cpp:149] Top shape: 1 2 2400 (4800)
I0725 15:21:39.449121 17185 net.cpp:157] Memory required for data: 249945640
I0725 15:21:39.449157 17185 layer_factory.hpp:77] Creating layer conv7_2_mbox_loc
I0725 15:21:39.449445 17185 layer_factory.hpp:77] Creating layer conv7_2_mbox_loc
I0725 15:21:39.449503 17185 net.cpp:92] Creating Layer conv7_2_mbox_loc
I0725 15:21:39.449791 17185 net.cpp:470] conv7_2_mbox_loc <- conv7_2_conv7_2_relu_0_split_1
I0725 15:21:39.449954 17185 net.cpp:444] conv7_2_mbox_loc -> conv7_2_mbox_loc
I0725 15:21:39.450943 17185 net.cpp:142] Setting up conv7_2_mbox_loc
I0725 15:21:39.451110 17185 net.cpp:149] Top shape: 1 24 5 5 (600)
I0725 15:21:39.451258 17185 net.cpp:157] Memory required for data: 249948040
I0725 15:21:39.451326 17185 layer_factory.hpp:77] Creating layer conv7_2_mbox_loc_perm
I0725 15:21:39.451546 17185 layer_factory.hpp:77] Creating layer conv7_2_mbox_loc_perm
I0725 15:21:39.451606 17185 net.cpp:92] Creating Layer conv7_2_mbox_loc_perm
I0725 15:21:39.451726 17185 net.cpp:470] conv7_2_mbox_loc_perm <- conv7_2_mbox_loc
I0725 15:21:39.451925 17185 net.cpp:444] conv7_2_mbox_loc_perm -> conv7_2_mbox_loc_perm
I0725 15:21:39.452464 17185 net.cpp:142] Setting up conv7_2_mbox_loc_perm
I0725 15:21:39.452594 17185 net.cpp:149] Top shape: 1 5 5 24 (600)
I0725 15:21:39.452797 17185 net.cpp:157] Memory required for data: 249950440
I0725 15:21:39.452816 17185 layer_factory.hpp:77] Creating layer conv7_2_mbox_loc_flat
I0725 15:21:39.452941 17185 layer_factory.hpp:77] Creating layer conv7_2_mbox_loc_flat
I0725 15:21:39.453063 17185 net.cpp:92] Creating Layer conv7_2_mbox_loc_flat
I0725 15:21:39.453220 17185 net.cpp:470] conv7_2_mbox_loc_flat <- conv7_2_mbox_loc_perm
I0725 15:21:39.453243 17185 net.cpp:444] conv7_2_mbox_loc_flat -> conv7_2_mbox_loc_flat
I0725 15:21:39.453724 17185 net.cpp:142] Setting up conv7_2_mbox_loc_flat
I0725 15:21:39.453985 17185 net.cpp:149] Top shape: 1 600 (600)
I0725 15:21:39.454205 17185 net.cpp:157] Memory required for data: 249952840
I0725 15:21:39.454250 17185 layer_factory.hpp:77] Creating layer conv7_2_mbox_conf
I0725 15:21:39.454511 17185 layer_factory.hpp:77] Creating layer conv7_2_mbox_conf
I0725 15:21:39.454907 17185 net.cpp:92] Creating Layer conv7_2_mbox_conf
I0725 15:21:39.455159 17185 net.cpp:470] conv7_2_mbox_conf <- conv7_2_conv7_2_relu_0_split_2
I0725 15:21:39.455200 17185 net.cpp:444] conv7_2_mbox_conf -> conv7_2_mbox_conf
I0725 15:21:39.457648 17185 net.cpp:142] Setting up conv7_2_mbox_conf
I0725 15:21:39.457716 17185 net.cpp:149] Top shape: 1 126 5 5 (3150)
I0725 15:21:39.457756 17185 net.cpp:157] Memory required for data: 249965440
I0725 15:21:39.457783 17185 layer_factory.hpp:77] Creating layer conv7_2_mbox_conf_perm
I0725 15:21:39.457839 17185 layer_factory.hpp:77] Creating layer conv7_2_mbox_conf_perm
I0725 15:21:39.457924 17185 net.cpp:92] Creating Layer conv7_2_mbox_conf_perm
I0725 15:21:39.457988 17185 net.cpp:470] conv7_2_mbox_conf_perm <- conv7_2_mbox_conf
I0725 15:21:39.458065 17185 net.cpp:444] conv7_2_mbox_conf_perm -> conv7_2_mbox_conf_perm
I0725 15:21:39.458212 17185 net.cpp:142] Setting up conv7_2_mbox_conf_perm
I0725 15:21:39.458317 17185 net.cpp:149] Top shape: 1 5 5 126 (3150)
I0725 15:21:39.458392 17185 net.cpp:157] Memory required for data: 249978040
I0725 15:21:39.458956 17185 layer_factory.hpp:77] Creating layer conv7_2_mbox_conf_flat
I0725 15:21:39.459040 17185 layer_factory.hpp:77] Creating layer conv7_2_mbox_conf_flat
I0725 15:21:39.459144 17185 net.cpp:92] Creating Layer conv7_2_mbox_conf_flat
I0725 15:21:39.459225 17185 net.cpp:470] conv7_2_mbox_conf_flat <- conv7_2_mbox_conf_perm
I0725 15:21:39.459352 17185 net.cpp:444] conv7_2_mbox_conf_flat -> conv7_2_mbox_conf_flat
I0725 15:21:39.459580 17185 net.cpp:142] Setting up conv7_2_mbox_conf_flat
I0725 15:21:39.459743 17185 net.cpp:149] Top shape: 1 3150 (3150)
I0725 15:21:39.459892 17185 net.cpp:157] Memory required for data: 249990640
I0725 15:21:39.460098 17185 layer_factory.hpp:77] Creating layer conv7_2_mbox_priorbox
I0725 15:21:39.460286 17185 layer_factory.hpp:77] Creating layer conv7_2_mbox_priorbox
I0725 15:21:39.460440 17185 net.cpp:92] Creating Layer conv7_2_mbox_priorbox
I0725 15:21:39.460516 17185 net.cpp:470] conv7_2_mbox_priorbox <- conv7_2_conv7_2_relu_0_split_3
I0725 15:21:39.460675 17185 net.cpp:470] conv7_2_mbox_priorbox <- data_data_0_split_4
I0725 15:21:39.460850 17185 net.cpp:444] conv7_2_mbox_priorbox -> conv7_2_mbox_priorbox
I0725 15:21:39.461146 17185 net.cpp:142] Setting up conv7_2_mbox_priorbox
I0725 15:21:39.461236 17185 net.cpp:149] Top shape: 1 2 600 (1200)
I0725 15:21:39.461290 17185 net.cpp:157] Memory required for data: 249995440
I0725 15:21:39.461551 17185 layer_factory.hpp:77] Creating layer conv8_2_mbox_loc
I0725 15:21:39.462043 17185 layer_factory.hpp:77] Creating layer conv8_2_mbox_loc
I0725 15:21:39.462240 17185 net.cpp:92] Creating Layer conv8_2_mbox_loc
I0725 15:21:39.462370 17185 net.cpp:470] conv8_2_mbox_loc <- conv8_2_conv8_2_relu_0_split_1
I0725 15:21:39.463117 17185 net.cpp:444] conv8_2_mbox_loc -> conv8_2_mbox_loc
I0725 15:21:39.463635 17185 net.cpp:142] Setting up conv8_2_mbox_loc
I0725 15:21:39.463865 17185 net.cpp:149] Top shape: 1 16 3 3 (144)
I0725 15:21:39.463968 17185 net.cpp:157] Memory required for data: 249996016
I0725 15:21:39.464152 17185 layer_factory.hpp:77] Creating layer conv8_2_mbox_loc_perm
I0725 15:21:39.464437 17185 layer_factory.hpp:77] Creating layer conv8_2_mbox_loc_perm
I0725 15:21:39.464548 17185 net.cpp:92] Creating Layer conv8_2_mbox_loc_perm
I0725 15:21:39.464809 17185 net.cpp:470] conv8_2_mbox_loc_perm <- conv8_2_mbox_loc
I0725 15:21:39.464941 17185 net.cpp:444] conv8_2_mbox_loc_perm -> conv8_2_mbox_loc_perm
I0725 15:21:39.465556 17185 net.cpp:142] Setting up conv8_2_mbox_loc_perm
I0725 15:21:39.465637 17185 net.cpp:149] Top shape: 1 3 3 16 (144)
I0725 15:21:39.465804 17185 net.cpp:157] Memory required for data: 249996592
I0725 15:21:39.465948 17185 layer_factory.hpp:77] Creating layer conv8_2_mbox_loc_flat
I0725 15:21:39.466084 17185 layer_factory.hpp:77] Creating layer conv8_2_mbox_loc_flat
I0725 15:21:39.466281 17185 net.cpp:92] Creating Layer conv8_2_mbox_loc_flat
I0725 15:21:39.466411 17185 net.cpp:470] conv8_2_mbox_loc_flat <- conv8_2_mbox_loc_perm
I0725 15:21:39.466956 17185 net.cpp:444] conv8_2_mbox_loc_flat -> conv8_2_mbox_loc_flat
I0725 15:21:39.467109 17185 net.cpp:142] Setting up conv8_2_mbox_loc_flat
I0725 15:21:39.467257 17185 net.cpp:149] Top shape: 1 144 (144)
I0725 15:21:39.467401 17185 net.cpp:157] Memory required for data: 249997168
I0725 15:21:39.467532 17185 layer_factory.hpp:77] Creating layer conv8_2_mbox_conf
I0725 15:21:39.467707 17185 layer_factory.hpp:77] Creating layer conv8_2_mbox_conf
I0725 15:21:39.467860 17185 net.cpp:92] Creating Layer conv8_2_mbox_conf
I0725 15:21:39.467995 17185 net.cpp:470] conv8_2_mbox_conf <- conv8_2_conv8_2_relu_0_split_2
I0725 15:21:39.468324 17185 net.cpp:444] conv8_2_mbox_conf -> conv8_2_mbox_conf
I0725 15:21:39.469269 17185 net.cpp:142] Setting up conv8_2_mbox_conf
I0725 15:21:39.469388 17185 net.cpp:149] Top shape: 1 84 3 3 (756)
I0725 15:21:39.469468 17185 net.cpp:157] Memory required for data: 250000192
I0725 15:21:39.469517 17185 layer_factory.hpp:77] Creating layer conv8_2_mbox_conf_perm
I0725 15:21:39.469688 17185 layer_factory.hpp:77] Creating layer conv8_2_mbox_conf_perm
I0725 15:21:39.469756 17185 net.cpp:92] Creating Layer conv8_2_mbox_conf_perm
I0725 15:21:39.469837 17185 net.cpp:470] conv8_2_mbox_conf_perm <- conv8_2_mbox_conf
I0725 15:21:39.469918 17185 net.cpp:444] conv8_2_mbox_conf_perm -> conv8_2_mbox_conf_perm
I0725 15:21:39.470206 17185 net.cpp:142] Setting up conv8_2_mbox_conf_perm
I0725 15:21:39.470324 17185 net.cpp:149] Top shape: 1 3 3 84 (756)
I0725 15:21:39.470381 17185 net.cpp:157] Memory required for data: 250003216
I0725 15:21:39.470408 17185 layer_factory.hpp:77] Creating layer conv8_2_mbox_conf_flat
I0725 15:21:39.471150 17185 layer_factory.hpp:77] Creating layer conv8_2_mbox_conf_flat
I0725 15:21:39.471276 17185 net.cpp:92] Creating Layer conv8_2_mbox_conf_flat
I0725 15:21:39.471299 17185 net.cpp:470] conv8_2_mbox_conf_flat <- conv8_2_mbox_conf_perm
I0725 15:21:39.471411 17185 net.cpp:444] conv8_2_mbox_conf_flat -> conv8_2_mbox_conf_flat
I0725 15:21:39.471573 17185 net.cpp:142] Setting up conv8_2_mbox_conf_flat
I0725 15:21:39.471659 17185 net.cpp:149] Top shape: 1 756 (756)
I0725 15:21:39.471812 17185 net.cpp:157] Memory required for data: 250006240
I0725 15:21:39.471853 17185 layer_factory.hpp:77] Creating layer conv8_2_mbox_priorbox
I0725 15:21:39.472028 17185 layer_factory.hpp:77] Creating layer conv8_2_mbox_priorbox
I0725 15:21:39.472131 17185 net.cpp:92] Creating Layer conv8_2_mbox_priorbox
I0725 15:21:39.472244 17185 net.cpp:470] conv8_2_mbox_priorbox <- conv8_2_conv8_2_relu_0_split_3
I0725 15:21:39.472326 17185 net.cpp:470] conv8_2_mbox_priorbox <- data_data_0_split_5
I0725 15:21:39.472424 17185 net.cpp:444] conv8_2_mbox_priorbox -> conv8_2_mbox_priorbox
I0725 15:21:39.472563 17185 net.cpp:142] Setting up conv8_2_mbox_priorbox
I0725 15:21:39.472609 17185 net.cpp:149] Top shape: 1 2 144 (288)
I0725 15:21:39.472671 17185 net.cpp:157] Memory required for data: 250007392
I0725 15:21:39.472730 17185 layer_factory.hpp:77] Creating layer conv9_2_mbox_loc
I0725 15:21:39.472869 17185 layer_factory.hpp:77] Creating layer conv9_2_mbox_loc
I0725 15:21:39.472977 17185 net.cpp:92] Creating Layer conv9_2_mbox_loc
I0725 15:21:39.473067 17185 net.cpp:470] conv9_2_mbox_loc <- conv9_2_conv9_2_relu_0_split_0
I0725 15:21:39.473225 17185 net.cpp:444] conv9_2_mbox_loc -> conv9_2_mbox_loc
I0725 15:21:39.473680 17185 net.cpp:142] Setting up conv9_2_mbox_loc
I0725 15:21:39.473760 17185 net.cpp:149] Top shape: 1 16 1 1 (16)
I0725 15:21:39.473918 17185 net.cpp:157] Memory required for data: 250007456
I0725 15:21:39.474012 17185 layer_factory.hpp:77] Creating layer conv9_2_mbox_loc_perm
I0725 15:21:39.474174 17185 layer_factory.hpp:77] Creating layer conv9_2_mbox_loc_perm
I0725 15:21:39.474256 17185 net.cpp:92] Creating Layer conv9_2_mbox_loc_perm
I0725 15:21:39.474300 17185 net.cpp:470] conv9_2_mbox_loc_perm <- conv9_2_mbox_loc
I0725 15:21:39.474939 17185 net.cpp:444] conv9_2_mbox_loc_perm -> conv9_2_mbox_loc_perm
I0725 15:21:39.475294 17185 net.cpp:142] Setting up conv9_2_mbox_loc_perm
I0725 15:21:39.475510 17185 net.cpp:149] Top shape: 1 1 1 16 (16)
I0725 15:21:39.475699 17185 net.cpp:157] Memory required for data: 250007520
I0725 15:21:39.475762 17185 layer_factory.hpp:77] Creating layer conv9_2_mbox_loc_flat
I0725 15:21:39.475888 17185 layer_factory.hpp:77] Creating layer conv9_2_mbox_loc_flat
I0725 15:21:39.475934 17185 net.cpp:92] Creating Layer conv9_2_mbox_loc_flat
I0725 15:21:39.476073 17185 net.cpp:470] conv9_2_mbox_loc_flat <- conv9_2_mbox_loc_perm
I0725 15:21:39.476167 17185 net.cpp:444] conv9_2_mbox_loc_flat -> conv9_2_mbox_loc_flat
I0725 15:21:39.476383 17185 net.cpp:142] Setting up conv9_2_mbox_loc_flat
I0725 15:21:39.476567 17185 net.cpp:149] Top shape: 1 16 (16)
I0725 15:21:39.476779 17185 net.cpp:157] Memory required for data: 250007584
I0725 15:21:39.476954 17185 layer_factory.hpp:77] Creating layer conv9_2_mbox_conf
I0725 15:21:39.477157 17185 layer_factory.hpp:77] Creating layer conv9_2_mbox_conf
I0725 15:21:39.477382 17185 net.cpp:92] Creating Layer conv9_2_mbox_conf
I0725 15:21:39.477553 17185 net.cpp:470] conv9_2_mbox_conf <- conv9_2_conv9_2_relu_0_split_1
I0725 15:21:39.477607 17185 net.cpp:444] conv9_2_mbox_conf -> conv9_2_mbox_conf
I0725 15:21:39.478821 17185 net.cpp:142] Setting up conv9_2_mbox_conf
I0725 15:21:39.478956 17185 net.cpp:149] Top shape: 1 84 1 1 (84)
I0725 15:21:39.479069 17185 net.cpp:157] Memory required for data: 250007920
I0725 15:21:39.479087 17185 layer_factory.hpp:77] Creating layer conv9_2_mbox_conf_perm
I0725 15:21:39.479326 17185 layer_factory.hpp:77] Creating layer conv9_2_mbox_conf_perm
I0725 15:21:39.479388 17185 net.cpp:92] Creating Layer conv9_2_mbox_conf_perm
I0725 15:21:39.479614 17185 net.cpp:470] conv9_2_mbox_conf_perm <- conv9_2_mbox_conf
I0725 15:21:39.479691 17185 net.cpp:444] conv9_2_mbox_conf_perm -> conv9_2_mbox_conf_perm
I0725 15:21:39.479996 17185 net.cpp:142] Setting up conv9_2_mbox_conf_perm
I0725 15:21:39.480072 17185 net.cpp:149] Top shape: 1 1 1 84 (84)
I0725 15:21:39.480226 17185 net.cpp:157] Memory required for data: 250008256
I0725 15:21:39.480262 17185 layer_factory.hpp:77] Creating layer conv9_2_mbox_conf_flat
I0725 15:21:39.480450 17185 layer_factory.hpp:77] Creating layer conv9_2_mbox_conf_flat
I0725 15:21:39.480572 17185 net.cpp:92] Creating Layer conv9_2_mbox_conf_flat
I0725 15:21:39.480829 17185 net.cpp:470] conv9_2_mbox_conf_flat <- conv9_2_mbox_conf_perm
I0725 15:21:39.481089 17185 net.cpp:444] conv9_2_mbox_conf_flat -> conv9_2_mbox_conf_flat
I0725 15:21:39.481516 17185 net.cpp:142] Setting up conv9_2_mbox_conf_flat
I0725 15:21:39.481693 17185 net.cpp:149] Top shape: 1 84 (84)
I0725 15:21:39.481818 17185 net.cpp:157] Memory required for data: 250008592
I0725 15:21:39.481940 17185 layer_factory.hpp:77] Creating layer conv9_2_mbox_priorbox
I0725 15:21:39.482142 17185 layer_factory.hpp:77] Creating layer conv9_2_mbox_priorbox
I0725 15:21:39.482394 17185 net.cpp:92] Creating Layer conv9_2_mbox_priorbox
I0725 15:21:39.482533 17185 net.cpp:470] conv9_2_mbox_priorbox <- conv9_2_conv9_2_relu_0_split_2
I0725 15:21:39.482934 17185 net.cpp:470] conv9_2_mbox_priorbox <- data_data_0_split_6
I0725 15:21:39.483204 17185 net.cpp:444] conv9_2_mbox_priorbox -> conv9_2_mbox_priorbox
I0725 15:21:39.483352 17185 net.cpp:142] Setting up conv9_2_mbox_priorbox
I0725 15:21:39.483487 17185 net.cpp:149] Top shape: 1 2 16 (32)
I0725 15:21:39.483680 17185 net.cpp:157] Memory required for data: 250008720
I0725 15:21:39.483847 17185 layer_factory.hpp:77] Creating layer mbox_loc
I0725 15:21:39.484086 17185 layer_factory.hpp:77] Creating layer mbox_loc
I0725 15:21:39.484243 17185 net.cpp:92] Creating Layer mbox_loc
I0725 15:21:39.484414 17185 net.cpp:470] mbox_loc <- conv4_3_norm_mbox_loc_flat
I0725 15:21:39.484589 17185 net.cpp:470] mbox_loc <- fc7_mbox_loc_flat
I0725 15:21:39.484855 17185 net.cpp:470] mbox_loc <- conv6_2_mbox_loc_flat
I0725 15:21:39.485071 17185 net.cpp:470] mbox_loc <- conv7_2_mbox_loc_flat
I0725 15:21:39.485210 17185 net.cpp:470] mbox_loc <- conv8_2_mbox_loc_flat
I0725 15:21:39.485282 17185 net.cpp:470] mbox_loc <- conv9_2_mbox_loc_flat
I0725 15:21:39.485422 17185 net.cpp:444] mbox_loc -> mbox_loc
I0725 15:21:39.485836 17185 net.cpp:142] Setting up mbox_loc
I0725 15:21:39.486079 17185 net.cpp:149] Top shape: 1 34928 (34928)
I0725 15:21:39.486205 17185 net.cpp:157] Memory required for data: 250148432
I0725 15:21:39.486335 17185 layer_factory.hpp:77] Creating layer mbox_conf
I0725 15:21:39.486521 17185 layer_factory.hpp:77] Creating layer mbox_conf
I0725 15:21:39.487109 17185 net.cpp:92] Creating Layer mbox_conf
I0725 15:21:39.487329 17185 net.cpp:470] mbox_conf <- conv4_3_norm_mbox_conf_flat
I0725 15:21:39.487488 17185 net.cpp:470] mbox_conf <- fc7_mbox_conf_flat
I0725 15:21:39.487653 17185 net.cpp:470] mbox_conf <- conv6_2_mbox_conf_flat
I0725 15:21:39.487923 17185 net.cpp:470] mbox_conf <- conv7_2_mbox_conf_flat
I0725 15:21:39.488134 17185 net.cpp:470] mbox_conf <- conv8_2_mbox_conf_flat
I0725 15:21:39.488234 17185 net.cpp:470] mbox_conf <- conv9_2_mbox_conf_flat
I0725 15:21:39.488359 17185 net.cpp:444] mbox_conf -> mbox_conf
I0725 15:21:39.488683 17185 net.cpp:142] Setting up mbox_conf
I0725 15:21:39.488791 17185 net.cpp:149] Top shape: 1 183372 (183372)
I0725 15:21:39.488895 17185 net.cpp:157] Memory required for data: 250881920
I0725 15:21:39.488966 17185 layer_factory.hpp:77] Creating layer mbox_priorbox
I0725 15:21:39.489233 17185 layer_factory.hpp:77] Creating layer mbox_priorbox
I0725 15:21:39.489336 17185 net.cpp:92] Creating Layer mbox_priorbox
I0725 15:21:39.489485 17185 net.cpp:470] mbox_priorbox <- conv4_3_norm_mbox_priorbox
I0725 15:21:39.489632 17185 net.cpp:470] mbox_priorbox <- fc7_mbox_priorbox
I0725 15:21:39.489893 17185 net.cpp:470] mbox_priorbox <- conv6_2_mbox_priorbox
I0725 15:21:39.490092 17185 net.cpp:470] mbox_priorbox <- conv7_2_mbox_priorbox
I0725 15:21:39.490393 17185 net.cpp:470] mbox_priorbox <- conv8_2_mbox_priorbox
I0725 15:21:39.490532 17185 net.cpp:470] mbox_priorbox <- conv9_2_mbox_priorbox
I0725 15:21:39.490988 17185 net.cpp:444] mbox_priorbox -> mbox_priorbox
I0725 15:21:39.491487 17185 net.cpp:142] Setting up mbox_priorbox
I0725 15:21:39.491657 17185 net.cpp:149] Top shape: 1 2 34928 (69856)
I0725 15:21:39.491739 17185 net.cpp:157] Memory required for data: 251161344
I0725 15:21:39.491927 17185 layer_factory.hpp:77] Creating layer mbox_loss
I0725 15:21:39.492202 17185 layer_factory.hpp:77] Creating layer mbox_loss
I0725 15:21:39.492507 17185 net.cpp:92] Creating Layer mbox_loss
I0725 15:21:39.492656 17185 net.cpp:470] mbox_loss <- mbox_loc
I0725 15:21:39.492805 17185 net.cpp:470] mbox_loss <- mbox_conf
…
state {
  phase: TEST
}
layer {
  name: "data"
  type: "AnnotatedData"
  top: "data"
  top: "label"
  include {
    phase: TEST
  }
  transform_param {
    mean_value: 104
    mean_value: 117
    mean_value: 123
    resize_param {
      prob: 1
      resize_mode: WARP
      height: 300
      width: 300
      interp_mode: LINEAR
    }
  }
  data_param {
    source: "examples/VOC0712/VOC0712_test_lmdb"
    batch_size: 8
    backend: LMDB
  }
  annotated_data_param {
    batch_sampler {
    }
    label_map_file: "data/VOC0712/labelmap_voc.prototxt"
  }
}
layer {
  name: "conv1_1"
  type: "Convolution"
  bottom: "data"
  top: "conv1_1"
  param {
    lr_mult: 1
    decay_mult: 1
  }
  param {
    lr_mult: 2
    decay_mult: 0
  }
  convolution_param {
    num_output: 64
    pad: 1
    kernel_size: 3
    weight_filler {
      type: "xavier"
    }
    bias_filler {
      type: "constant"
      value: 0
    }
  }
}
layer {
  name: "relu1_1"
  type: "ReLU"
  bottom: "conv1_1"
  top: "conv1_1"
}
layer {
  name: "conv1_2"
  type: "Convolution"
  bottom: "conv1_1"
  top: "conv1_2"
  param {
    lr_mult: 1
    decay_mult: 1
  }
  param {
    lr_mult: 2
    decay_mult: 0
  }
  convolution_param {
    num_output: 64
    pad: 1
    kernel_size: 3
    weight_filler {
      type: "xavier"
    }
    bias_filler {
      type: "constant"
      value: 0
    }
  }
}
layer {
  name: "relu1_2"
  type: "ReLU"
  bottom: "conv1_2"
  top: "conv1_2"
}
layer {
  name: "pool1"
  type: "Pooling"
  bottom: "conv1_2"
  top: "pool1"
  pooling_param {
    pool: MAX
    kernel_size: 2
    stride: 2
  }
}
layer {
  name: "conv2_1"
  type: "Convolution"
  bottom: "pool1"
  top: "conv2_1"
  param {
    lr_mult: 1
    decay_mult: 1
  }
  param {
    lr_mult: 2
    decay_mult: 0
  }
  convolution_param {
    num_output: 128
    pad: 1
    kernel_size: 3
    weight_filler {
      type: "xavier"
    }
    bias_filler {
      type: "constant"
      value: 0
    }
  }
}
layer {
  name: "relu2_1"
  type: "ReLU"
  bottom: "conv2_1"
  top: "conv2_1"
}
layer {
  name: "conv2_2"
  type: "Convolution"
  bottom: "conv2_1"
  top: "conv2_2"
  param {
    lr_mult: 1
    decay_mult: 1
  }
  param {
    lr_mult: 2
    decay_mult: 0
  }
  convolution_param {
    num_output: 128
    pad: 1
    kernel_size: 3
    weight_filler {
      type: "xavier"
    }
    bias_filler {
      type: "constant"
      value: 0
    }
  }
}
layer {
  name: "relu2_2"
  type: "ReLU"
  bottom: "conv2_2"
  top: "conv2_2"
}
layer {
  name: "pool2"
  type: "Pooling"
  bottom: "conv2_2"
  top: "pool2"
  pooling_param {
    pool: MAX
    kernel_size: 2
    stride: 2
  }
}
layer {
  name: "conv3_1"
  type: "Convolution"
  bottom: "pool2"
  top: "conv3_1"
  param {
    lr_mult: 1
    decay_mult: 1
  }
  param {
    lr_mult: 2
    decay_mult: 0
  }
  convolution_param {
    num_output: 256
    pad: 1
    kernel_size: 3
    weight_filler {
      type: "xavier"
    }
    bias_filler {
      type: "constant"
      value: 0
    }
  }
}
layer {
  name: "relu3_1"
  type: "ReLU"
  bottom: "conv3_1"
  top: "conv3_1"
}
layer {
  name: "conv3_2"
  type: "Convolution"
  bottom: "conv3_1"
  top: "conv3_2"
  param {
    lr_mult: 1
    decay_mult: 1
  }
  param {
    lr_mult: 2
    decay_mult: 0
  }
  convolution_param {
    num_output: 256
    pad: 1
    kernel_size: 3
    weight_filler {
      type: "xavier"
    }
    bias_filler {
      type: "constant"
      value: 0
    }
  }
}
layer {
  name: "relu3_2"
  type: "ReLU"
  bottom: "conv3_2"
  top: "conv3_2"
}
layer {
  name: "conv3_3"
  type: "Convolution"
  bottom: "conv3_2"
  top: "conv3_3"
  param {
    lr_mult: 1
    decay_mult: 1
  }
  param {
    lr_mult: 2
    decay_mult: 0
  }
  convolution_param {
    num_output: 256
    pad: 1
    kernel_size: 3
    weight_filler {
      type: "xavier"
    }
    bias_filler {
      type: "constant"
      value: 0
    }
  }
}
layer {
  name: "relu3_3"
  type: "ReLU"
  bottom: "conv3_3"
  top: "conv3_3"
}
layer {
  name: "pool3"
  type: "Pooling"
  bottom: "conv3_3"
  top: "pool3"
  pooling_param {
    pool: MAX
    kernel_size: 2
    stride: 2
  }
}
layer {
  name: "conv4_1"
  type: "Convolution"
  bottom: "pool3"
  top: "conv4_1"
  param {
    lr_mult: 1
    decay_mult: 1
  }
  param {
    lr_mult: 2
    decay_mult: 0
  }
  convolution_param {
    num_output: 512
    pad: 1
    kernel_size: 3
    weight_filler {
      type: "xavier"
    }
    bias_filler {
      type: "constant"
      value: 0
    }
  }
}
layer {
  name: "relu4_1"
  type: "ReLU"
  bottom: "conv4_1"
  top: "conv4_1"
}
layer {
  name: "conv4_2"
  type: "Convolution"
  bottom: "conv4_1"
  top: "conv4_2"
  param {
    lr_mult: 1
    decay_mult: 1
  }
  param {
    lr_mult: 2
    decay_mult: 0
  }
  convolution_param {
    num_output: 512
    pad: 1
    kernel_size: 3
    weight_filler {
      type: "xavier"
    }
    bias_filler {
      type: "constant"
      value: 0
    }
  }
}
layer {
  name: "relu4_2"
  type: "ReLU"
  bottom: "conv4_2"
  top: "conv4_2"
}
layer {
  name: "conv4_3"
  type: "Convolution"
  bottom: "conv4_2"
  top: "conv4_3"
  param {
    lr_mult: 1
    decay_mult: 1
  }
  param {
    lr_mult: 2
    decay_mult: 0
  }
  convolution_param {
    num_output: 512
    pad: 1
    kernel_size: 3
    weight_filler {
      type: "xavier"
    }
    bias_filler {
      type: "constant"
      value: 0
    }
  }
}
layer {
  name: "relu4_3"
  type: "ReLU"
  bottom: "conv4_3"
  top: "conv4_3"
}
layer {
  name: "pool4"
  type: "Pooling"
  bottom: "conv4_3"
  top: "pool4"
  pooling_param {
    pool: MAX
    kernel_size: 2
    stride: 2
  }
}
layer {
  name: "conv5_1"
  type: "Convolution"
  bottom: "pool4"
  top: "conv5_1"
  param {
    lr_mult: 1
    decay_mult: 1
  }
  param {
    lr_mult: 2
    decay_mult: 0
  }
  convolution_param {
    num_output: 512
    pad: 1
    kernel_size: 3
    weight_filler {
      type: "xavier"
    }
    bias_filler {
      type: "constant"
      value: 0
    }
    dilation: 1
  }
}
layer {
  name: "relu5_1"
  type: "ReLU"
  bottom: "conv5_1"
  top: "conv5_1"
}
layer {
  name: "conv5_2"
  type: "Convolution"
  bottom: "conv5_1"
  top: "conv5_2"
  param {
    lr_mult: 1
    decay_mult: 1
  }
  param {
    lr_mult: 2
    decay_mult: 0
  }
  convolution_param {
    num_output: 512
    pad: 1
    kernel_size: 3
    weight_filler {
      type: "xavier"
    }
    bias_filler {
      type: "constant"
      value: 0
    }
    dilation: 1
  }
}
layer {
  name: "relu5_2"
  type: "ReLU"
  bottom: "conv5_2"
  top: "conv5_2"
}
layer {
  name: "conv5_3"
  type: "Convolution"
  bottom: "conv5_2"
  top: "conv5_3"
  param {
    lr_mult: 1
    decay_mult: 1
  }
  param {
    lr_mult: 2
    decay_mult: 0
  }
  convolution_param {
    num_output: 512
    pad: 1
    kernel_size: 3
    weight_filler {
      type: "xavier"
    }
    bias_filler {
      type: "constant"
      value: 0
    }
    dilation: 1
  }
}
layer {
  name: "relu5_3"
  type: "ReLU"
  bottom: "conv5_3"
  top: "conv5_3"
}
layer {
  name: "pool5"
  type: "Pooling"
  bottom: "conv5_3"
  top: "pool5"
  pooling_param {
    pool: MAX
    kernel_size: 3
    stride: 1
    pad: 1
  }
}
layer {
  name: "fc6"
  type: "Convolution"
  bottom: "pool5"
  top: "fc6"
  param {
    lr_mult: 1
    decay_mult: 1
  }
  param {
    lr_mult: 2
    decay_mult: 0
  }
  convolution_param {
    num_output: 1024
    pad: 6
    kernel_size: 3
    weight_filler {
      type: "xavier"
    }
    bias_filler {
      type: "constant"
      value: 0
    }
    dilation: 6
  }
}
layer {
  name: "relu6"
  type: "ReLU"
  bottom: "fc6"
  top: "fc6"
}
layer {
  name: "fc7"
  type: "Convolution"
  bottom: "fc6"
  top: "fc7"
  param {
    lr_mult: 1
    decay_mult: 1
  }
  param {
    lr_mult: 2
    decay_mult: 0
  }
  convolution_param {
    num_output: 1024
    kernel_size: 1
    weight_filler {
      type: "xavier"
    }
    bias_filler {
      type: "constant"
      value: 0
    }
  }
}
layer {
  name: "relu7"
  type: "ReLU"
  bottom: "fc7"
  top: "fc7"
}
layer {
  name: "conv6_1"
  type: "Convolution"
  bottom: "fc7"
  top: "conv6_1"
  param {
    lr_mult: 1
    decay_mult: 1
  }
  param {
    lr_mult: 2
    decay_mult: 0
  }
  convolution_param {
    num_output: 256
    pad: 0
    kernel_size: 1
    stride: 1
    weight_filler {
      type: "xavier"
    }
    bias_filler {
      type: "constant"
      value: 0
    }
  }
}
layer {
  name: "conv6_1_relu"
  type: "ReLU"
  bottom: "conv6_1"
  top: "conv6_1"
}
layer {
  name: "conv6_2"
  type: "Convolution"
  bottom: "conv6_1"
  top: "conv6_2"
  param {
    lr_mult: 1
    decay_mult: 1
  }
  param {
    lr_mult: 2
    decay_mult: 0
  }
  convolution_param {
    num_output: 512
    pad: 1
    kernel_size: 3
    stride: 2
    weight_filler {
      type: "xavier"
    }
    bias_filler {
      type: "constant"
      value: 0
    }
  }
}
layer {
  name: "conv6_2_relu"
  type: "ReLU"
  bottom: "conv6_2"
  top: "conv6_2"
}
layer {
  name: "conv7_1"
  type: "Convolution"
  bottom: "conv6_2"
  top: "conv7_1"
  param {
    lr_mult: 1
    decay_mult: 1
  }
  param {
    lr_mult: 2
    decay_mult: 0
  }
  convolution_param {
    num_output: 128
    pad: 0
    kernel_size: 1
    stride: 1
    weight_filler {
      type: "xavier"
    }
    bias_filler {
      type: "constant"
      value: 0
    }
  }
}
layer {
  name: "conv7_1_relu"
  type: "ReLU"
  bottom: "conv7_1"
  top: "conv7_1"
}
layer {
  name: "conv7_2"
  type: "Convolution"
  bottom: "conv7_1"
  top: "conv7_2"
  param {
    lr_mult: 1
    decay_mult: 1
  }
  param {
    lr_mult: 2
    decay_mult: 0
  }
  convolution_param {
    num_output: 256
    pad: 1
    kernel_size: 3
    stride: 2
    weight_filler {
      type: "xavier"
    }
    bias_filler {
      type: "constant"
      value: 0
    }
  }
}
layer {
  name: "conv7_2_relu"
  type: "ReLU"
  bottom: "conv7_2"
  top: "conv7_2"
}
layer {
  name: "conv8_1"
  type: "Convolution"
  bottom: "conv7_2"
  top: "conv8_1"
  param {
    lr_mult: 1
    decay_mult: 1
  }
  param {
    lr_mult: 2
    decay_mult: 0
  }
  convolution_param {
    num_output: 128
    pad: 0
    kernel_size: 1
    stride: 1
    weight_filler {
      type: "xavier"
    }
    bias_filler {
      type: "constant"
      value: 0
    }
  }
}
layer {
  name: "conv8_1_relu"
  type: "ReLU"
  bottom: "conv8_1"
  top: "conv8_1"
}
layer {
  name: "conv8_2"
  type: "Convolution"
  bottom: "conv8_1"
  top: "conv8_2"
  param {
    lr_mult: 1
    decay_mult: 1
  }
  param {
    lr_mult: 2
    decay_mult: 0
  }
  convolution_param {
    num_output: 256
    pad: 0
    kernel_size: 3
    stride: 1
    weight_filler {
      type: "xavier"
    }
    bias_filler {
      type: "constant"
      value: 0
    }
  }
}
layer {
  name: "conv8_2_relu"
  type: "ReLU"
  bottom: "conv8_2"
  top: "conv8_2"
}
layer {
  name: "conv9_1"
  type: "Convolution"
  bottom: "conv8_2"
  top: "conv9_1"
  param {
    lr_mult: 1
    decay_mult: 1
  }
  param {
    lr_mult: 2
    decay_mult: 0
  }
  convolution_param {
    num_output: 128
    pad: 0
    kernel_size: 1
    stride: 1
    weight_filler {
      type: "xavier"
    }
    bias_filler {
      type: "constant"
      value: 0
    }
  }
}
layer {
  name: "conv9_1_relu"
  type: "ReLU"
  bottom: "conv9_1"
  top: "conv9_1"
}
layer {
  name: "conv9_2"
  type: "Convolution"
  bottom: "conv9_1"
  top: "conv9_2"
  param {
    lr_mult: 1
    decay_mult: 1
  }
  param {
    lr_mult: 2
    decay_mult: 0
  }
  convolution_param {
    num_output: 256
    pad: 0
    kernel_size: 3
    stride: 1
    weight_filler {
      type: "xavier"
    }
    bias_filler {
      type: "constant"
      value: 0
    }
  }
}
layer {
  name: "conv9_2_relu"
  type: "ReLU"
  bottom: "conv9_2"
  top: "conv9_2"
}
layer {
  name: "conv4_3_norm"
  type: "Normalize"
  bottom: "conv4_3"
  top: "conv4_3_norm"
  norm_param {
    across_spatial: false
    scale_filler {
      type: "constant"
      value: 20
    }
    channel_shared: false
  }
}
layer {
  name: "conv4_3_norm_mbox_loc"
  type: "Convolution"
  bottom: "conv4_3_norm"
  top: "conv4_3_norm_mbox_loc"
  param {
    lr_mult: 1
    decay_mult: 1
  }
  param {
    lr_mult: 2
    decay_mult: 0
  }
  convolution_param {
    num_output: 16
    pad: 1
    kernel_size: 3
    stride: 1
    weight_filler {
      type: "xavier"
    }
    bias_filler {
      type: "constant"
      value: 0
    }
  }
}
layer {
  name: "conv4_3_norm_mbox_loc_perm"
  type: "Permute"
  bottom: "conv4_3_norm_mbox_loc"
  top: "conv4_3_norm_mbox_loc_perm"
  permute_param {
    order: 0
    order: 2
    order: 3
    order: 1
  }
}
layer {
  name: "conv4_3_norm_mbox_loc_flat"
  type: "Flatten"
  bottom: "conv4_3_norm_mbox_loc_perm"
  top: "conv4_3_norm_mbox_loc_flat"
  flatten_param {
    axis: 1
  }
}
layer {
  name: "conv4_3_norm_mbox_conf"
  type: "Convolution"
  bottom: "conv4_3_norm"
  top: "conv4_3_norm_mbox_conf"
  param {
    lr_mult: 1
    decay_mult: 1
  }
  param {
    lr_mult: 2
    decay_mult: 0
  }
  convolution_param {
    num_output: 84
    pad: 1
    kernel_size: 3
    stride: 1
    weight_filler {
      type: "xavier"
    }
    bias_filler {
      type: "constant"
      value: 0
    }
  }
}
layer {
  name: "conv4_3_norm_mbox_conf_perm"
  type: "Permute"
  bottom: "conv4_3_norm_mbox_conf"
  top: "conv4_3_norm_mbox_conf_perm"
  permute_param {
    order: 0
    order: 2
    order: 3
    order: 1
  }
}
layer {
  name: "conv4_3_norm_mbox_conf_flat"
  type: "Flatten"
  bottom: "conv4_3_norm_mbox_conf_perm"
  top: "conv4_3_norm_mbox_conf_flat"
  flatten_param {
    axis: 1
  }
}
layer {
  name: "conv4_3_norm_mbox_priorbox"
  type: "PriorBox"
  bottom: "conv4_3_norm"
  bottom: "data"
  top: "conv4_3_norm_mbox_priorbox"
  prior_box_param {
    min_size: 30
    max_size: 60
    aspect_ratio: 2
    flip: true
    clip: false
    variance: 0.1
    variance: 0.1
    variance: 0.2
    variance: 0.2
    step: 8
    offset: 0.5
  }
}
layer {
  name: "fc7_mbox_loc"
  type: "Convolution"
  bottom: "fc7"
  top: "fc7_mbox_loc"
  param {
    lr_mult: 1
    decay_mult: 1
  }
  param {
    lr_mult: 2
    decay_mult: 0
  }
  convolution_param {
    num_output: 24
    pad: 1
    kernel_size: 3
    stride: 1
    weight_filler {
      type: "xavier"
    }
    bias_filler {
      type: "constant"
      value: 0
    }
  }
}
layer {
  name: "fc7_mbox_loc_perm"
  type: "Permute"
  bottom: "fc7_mbox_loc"
  top: "fc7_mbox_loc_perm"
  permute_param {
    order: 0
    order: 2
    order: 3
    order: 1
  }
}
layer {
  name: "fc7_mbox_loc_flat"
  type: "Flatten"
  bottom: "fc7_mbox_loc_perm"
  top: "fc7_mbox_loc_flat"
  flatten_param {
    axis: 1
  }
}
layer {
  name: "fc7_mbox_conf"
  type: "Convolution"
  bottom: "fc7"
  top: "fc7_mbox_conf"
  param {
    lr_mult: 1
    decay_mult: 1
  }
  param {
    lr_mult: 2
    decay_mult: 0
  }
  convolution_param {
    num_output: 126
    pad: 1
    kernel_size: 3
    stride: 1
    weight_filler {
      type: "xavier"
    }
    bias_filler {
      type: "constant"
      value: 0
    }
  }
}
layer {
  name: "fc7_mbox_conf_perm"
  type: "Permute"
  bottom: "fc7_mbox_conf"
  top: "fc7_mbox_conf_perm"
  permute_param {
    order: 0
    order: 2
    order: 3
    order: 1
  }
}
layer {
  name: "fc7_mbox_conf_flat"
  type: "Flatten"
  bottom: "fc7_mbox_conf_perm"
  top: "fc7_mbox_conf_flat"
  flatten_param {
    axis: 1
  }
}
layer {
  name: "fc7_mbox_priorbox"
  type: "PriorBox"
  bottom: "fc7"
  bottom: "data"
  top: "fc7_mbox_priorbox"
  prior_box_param {
    min_size: 60
    max_size: 111
    aspect_ratio: 2
    aspect_ratio: 3
    flip: true
    clip: false
    variance: 0.1
    variance: 0.1
    variance: 0.2
    variance: 0.2
    step: 16
    offset: 0.5
  }
}
layer {
  name: "conv6_2_mbox_loc"
  type: "Convolution"
  bottom: "conv6_2"
  top: "conv6_2_mbox_loc"
  param {
    lr_mult: 1
    decay_mult: 1
  }
  param {
    lr_mult: 2
    decay_mult: 0
  }
  convolution_param {
    num_output: 24
    pad: 1
    kernel_size: 3
    stride: 1
    weight_filler {
      type: "xavier"
    }
    bias_filler {
      type: "constant"
      value: 0
    }
  }
}
layer {
  name: "conv6_2_mbox_loc_perm"
  type: "Permute"
  bottom: "conv6_2_mbox_loc"
  top: "conv6_2_mbox_loc_perm"
  permute_param {
    order: 0
    order: 2
    order: 3
    order: 1
  }
}
layer {
  name: "conv6_2_mbox_loc_flat"
  type: "Flatten"
  bottom: "conv6_2_mbox_loc_perm"
  top: "conv6_2_mbox_loc_flat"
  flatten_param {
    axis: 1
  }
}
layer {
  name: "conv6_2_mbox_conf"
  type: "Convolution"
  bottom: "conv6_2"
  top: "conv6_2_mbox_conf"
  param {
    lr_mult: 1
    decay_mult: 1
  }
  param {
    lr_mult: 2
    decay_mult: 0
  }
  convolution_param {
    num_output: 126
    pad: 1
    kernel_size: 3
    stride: 1
    weight_filler {
      type: "xavier"
    }
    bias_filler {
      type: "constant"
      value: 0
    }
  }
}
layer {
  name: "conv6_2_mbox_conf_perm"
  type: "Permute"
  bottom: "conv6_2_mbox_conf"
  top: "conv6_2_mbox_conf_perm"
  permute_param {
    order: 0
    order: 2
    order: 3
    order: 1
  }
}
layer {
  name: "conv6_2_mbox_conf_flat"
  type: "Flatten"
  bottom: "conv6_2_mbox_conf_perm"
  top: "conv6_2_mbox_conf_flat"
  flatten_param {
    axis: 1
  }
}
layer {
  name: "conv6_2_mbox_priorbox"
  type: "PriorBox"
  bottom: "conv6_2"
  bottom: "data"
  top: "conv6_2_mbox_priorbox"
  prior_box_param {
    min_size: 111
    max_size: 162
    aspect_ratio: 2
    aspect_ratio: 3
    flip: true
    clip: false
    variance: 0.1
    variance: 0.1
    variance: 0.2
    variance: 0.2
    step: 32
    offset: 0.5
  }
}
layer {
  name: "conv7_2_mbox_loc"
  type: "Convolution"
  bottom: "conv7_2"
  top: "conv7_2_mbox_loc"
  param {
    lr_mult: 1
    decay_mult: 1
  }
  param {
    lr_mult: 2
    decay_mult: 0
  }
  convolution_param {
    num_output: 24
    pad: 1
    kernel_size: 3
    stride: 1
    weight_filler {
      type: "xavier"
    }
    bias_filler {
      type: "constant"
      value: 0
    }
  }
}
layer {
  name: "conv7_2_mbox_loc_perm"
  type: "Permute"
  bottom: "conv7_2_mbox_loc"
  top: "conv7_2_mbox_loc_perm"
  permute_param {
    order: 0
    order: 2
    order: 3
    order: 1
  }
}
layer {
  name: "conv7_2_mbox_loc_flat"
  type: "Flatten"
  bottom: "conv7_2_mbox_loc_perm"
  top: "conv7_2_mbox_loc_flat"
  flatten_param {
    axis: 1
  }
}
layer {
  name: "conv7_2_mbox_conf"
  type: "Convolution"
  bottom: "conv7_2"
  top: "conv7_2_mbox_conf"
  param {
    lr_mult: 1
    decay_mult: 1
  }
  param {
    lr_mult: 2
    decay_mult: 0
  }
  convolution_param {
    num_output: 126
    pad: 1
    kernel_size: 3
    stride: 1
    weight_filler {
      type: "xavier"
    }
    bias_filler {
      type: "constant"
      value: 0
    }
  }
}
layer {
  name: "conv7_2_mbox_conf_perm"
  type: "Permute"
  bottom: "conv7_2_mbox_conf"
  top: "conv7_2_mbox_conf_perm"
  permute_param {
    order: 0
    order: 2
    order: 3
    order: 1
  }
}
layer {
  name: "conv7_2_mbox_conf_flat"
  type: "Flatten"
  bottom: "conv7_2_mbox_conf_perm"
  top: "conv7_2_mbox_conf_flat"
  flatten_param {
    axis: 1
  }
}
layer {
  name: "conv7_2_mbox_priorbox"
  type: "PriorBox"
  bottom: "conv7_2"
  bottom: "data"
  top: "conv7_2_mbox_priorbox"
  prior_box_param {
    min_size: 162
    max_size: 213
    aspect_ratio: 2
    aspect_ratio: 3
    flip: true
    clip: false
    variance: 0.1
    variance: 0.1
    variance: 0.2
    variance: 0.2
    step: 64
    offset: 0.5
  }
}
layer {
  name: "conv8_2_mbox_loc"
  type: "Convolution"
  bottom: "conv8_2"
  top: "conv8_2_mbox_loc"
  param {
    lr_mult: 1
    decay_mult: 1
  }
  param {
    lr_mult: 2
    decay_mult: 0
  }
  convolution_param {
    num_output: 16
    pad: 1
    kernel_size: 3
    stride: 1
    weight_filler {
      type: "xavier"
    }
    bias_filler {
      type: "constant"
      value: 0
    }
  }
}
layer {
  name: "conv8_2_mbox_loc_perm"
  type: "Permute"
  bottom: "conv8_2_mbox_loc"
  top: "conv8_2_mbox_loc_perm"
  permute_param {
    order: 0
    order: 2
    order: 3
    order: 1
  }
}
layer {
  name: "conv8_2_mbox_loc_flat"
  type: "Flatten"
  bottom: "conv8_2_mbox_loc_perm"
  top: "conv8_2_mbox_loc_flat"
  flatten_param {
    axis: 1
  }
}
layer {
  name: "conv8_2_mbox_conf"
  type: "Convolution"
  bottom: "conv8_2"
  top: "conv8_2_mbox_conf"
  param {
    lr_mult: 1
    decay_mult: 1
  }
  param {
    lr_mult: 2
    decay_mult: 0
  }
  convolution_param {
    num_output: 84
    pad: 1
    kernel_size: 3
    stride: 1
    weight_filler {
      type: "xavier"
    }
    bias_filler {
      type: "constant"
      value: 0
    }
  }
}
layer {
  name: "conv8_2_mbox_conf_perm"
  type: "Permute"
  bottom: "conv8_2_mbox_conf"
  top: "conv8_2_mbox_conf_perm"
  permute_param {
    order: 0
    order: 2
    order: 3
    order: 1
  }
}
layer {
  name: "conv8_2_mbox_conf_flat"
  type: "Flatten"
  bottom: "conv8_2_mbox_conf_perm"
  top: "conv8_2_mbox_conf_flat"
  flatten_param {
    axis: 1
  }
}
layer {
  name: "conv8_2_mbox_priorbox"
  type: "PriorBox"
  bottom: "conv8_2"
  bottom: "data"
  top: "conv8_2_mbox_priorbox"
  prior_box_param {
    min_size: 213
    max_size: 264
    aspect_ratio: 2
    flip: true
    clip: false
    variance: 0.1
    variance: 0.1
    variance: 0.2
    variance: 0.2
    step: 100
    offset: 0.5
  }
}
layer {
  name: "conv9_2_mbox_loc"
  type: "Convolution"
  bottom: "conv9_2"
  top: "conv9_2_mbox_loc"
  param {
    lr_mult: 1
    decay_mult: 1
  }
  param {
    lr_mult: 2
    decay_mult: 0
  }
  convolution_param {
    num_output: 16
    pad: 1
    kernel_size: 3
    stride: 1
    weight_filler {
      type: "xavier"
    }
    bias_filler {
      type: "constant"
      value: 0
    }
  }
}
layer {
  name: "conv9_2_mbox_loc_perm"
  type: "Permute"
  bottom: "conv9_2_mbox_loc"
  top: "conv9_2_mbox_loc_perm"
  permute_param {
    order: 0
    order: 2
    order: 3
    order: 1
  }
}
layer {
  name: "conv9_2_mbox_loc_flat"
  type: "Flatten"
  bottom: "conv9_2_mbox_loc_perm"
  top: "conv9_2_mbox_loc_flat"
  flatten_param {
    axis: 1
  }
}
layer {
  name: "conv9_2_mbox_conf"
  type: "Convolution"
  bottom: "conv9_2"
  top: "conv9_2_mbox_conf"
  param {
    lr_mult: 1
    decay_mult: 1
  }
  param {
    lr_mult: 2
    decay_mult: 0
  }
  convolution_param {
    num_output: 84
    pad: 1
    kernel_size: 3
    stride: 1
    weight_filler {
      type: "xavier"
    }
    bias_filler {
      type: "constant"
      value: 0
    }
  }
}
layer {
  name: "conv9_2_mbox_conf_perm"
  type: "Permute"
  bottom: "conv9_2_mbox_conf"
  top: "conv9_2_mbox_conf_perm"
  permute_param {
    order: 0
    order: 2
    order: 3
    order: 1
  }
}
layer {
  name: "conv9_2_mbox_conf_flat"
  type: "Flatten"
  bottom: "conv9_2_mbox_conf_perm"
  top: "conv9_2_mbox_conf_flat"
  flatten_param {
    axis: 1
  }
}
layer {
  name: "conv9_2_mbox_priorbox"
  type: "PriorBox"
  bottom: "conv9_2"
  bottom: "data"
  top: "conv9_2_mbox_priorbox"
  prior_box_param {
    min_size: 264
    max_size: 315
    aspect_ratio: 2
    flip: true
    clip: false
    variance: 0.1
    variance: 0.1
    variance: 0.2
    variance: 0.2
    step: 300
    offset: 0.5
  }
}
layer {
  name: "mbox_loc"
  type: "Concat"
  bottom: "conv4_3_norm_mbox_loc_flat"
  bottom: "fc7_mbox_loc_flat"
  bottom: "conv6_2_mbox_loc_flat"
  bottom: "conv7_2_mbox_loc_flat"
  bottom: "conv8_2_mbox_loc_flat"
  bottom: "conv9_2_mbox_loc_flat"
  top: "mbox_loc"
  concat_param {
    axis: 1
  }
}
layer {
  name: "mbox_conf"
  type: "Concat"
  bottom: "conv4_3_norm_mbox_conf_flat"
  bottom: "fc7_mbox_conf_flat"
  bottom: "conv6_2_mbox_conf_flat"
  bottom: "conv7_2_mbox_conf_flat"
  bottom: "conv8_2_mbox_conf_flat"
  bottom: "conv9_2_mbox_conf_flat"
  top: "mbox_conf"
  concat_param {
    axis: 1
  }
}
layer {
  name: "mbox_priorbox"
  type: "Concat"
  bottom: "conv4_3_norm_mbox_priorbox"
  bottom: "fc7_mbox_priorbox"
  bottom: "conv6_2_mbox_priorbox"
  bottom: "conv7_2_mbox_priorbox"
  bottom: "conv8_2_mbox_priorbox"
  bottom: "conv9_2_mbox_priorbox"
  top: "mbox_priorbox"
  concat_param {
    axis: 2
  }
}
layer {
  name: "mbox_conf_reshape"
  type: "Reshape"
  bottom: "mbox_conf"
  top: "mbox_conf_reshape"
  reshape_param {
    shape {
      dim: 0
      dim: -1
      dim: 21
    }
  }
}
layer {
  name: "mbox_conf_softmax"
  type: "Softmax"
  bottom: "mbox_conf_reshape"
  top: "mbox_conf_softmax"
  softmax_param {
    axis: 2
  }
}
layer {
  name: "mbox_conf_flatten"
  type: "Flatten"
  bottom: "mbox_conf_softmax"
  top: "mbox_conf_flatten"
  flatten_param {
    axis: 1
  }
}
layer {
  name: "detection_out"
  type: "DetectionOutput"
  bottom: "mbox_loc"
  bottom: "mbox_conf_flatten"
  bottom: "mbox_priorbox"
  top: "detection_out"
  include {
    phase: TEST
  }
  detection_output_param {
    num_classes: 21
    share_location: true
    background_label_id: 0
    nms_param {
      nms_threshold: 0.45
      top_k: 400
    }
    save_output_param {
      output_directory: "/home/chiachi//data/VOCdevkit/results/VOC2007/SSD_300x300_score/Main"
      output_name_prefix: "comp4_det_test_"
      output_format: "VOC"
      label_map_file: "data/VOC0712/labelmap_voc.prototxt"
      name_size_file: "data/VOC0712/test_name_size.txt"
      num_test_image: 4952
    }
    code_type: CENTER_SIZE
    keep_top_k: 200
    confidence_threshold: 0.01
  }
}
layer {
  name: "detection_eval"
  type: "DetectionEvaluate"
  bottom: "detection_out"
  bottom: "label"
  top: "detection_eval"
  include {
    phase: TEST
  }
  detection_evaluate_param {
    num_classes: 21
    background_label_id: 0
    overlap_threshold: 0.5
    evaluate_difficult_gt: false
    name_size_file: "data/VOC0712/test_name_size.txt"
  }
}
I0725 15:21:39.517796 17185 layer_factory.hpp:77] Creating layer data
I0725 15:21:39.522130 17232 db_lmdb.cpp:35] Opened lmdb examples/VOC0712/VOC0712_test_lmdb
I0725 15:21:39.522872 17185 layer_factory.hpp:77] Creating layer data
I0725 15:21:39.522975 17185 net.cpp:92] Creating Layer data
I0725 15:21:39.523007 17185 net.cpp:444] data -> data
I0725 15:21:39.523079 17185 net.cpp:444] data -> label
I0725 15:21:39.524682 17233 db_lmdb.cpp:35] Opened lmdb examples/VOC0712/VOC0712_test_lmdb
I0725 15:21:39.531121 17185 annotated_data_layer.cpp:62] output data size: 8,3,300,300
I0725 15:21:39.555816 17185 net.cpp:142] Setting up data
I0725 15:21:39.555855 17185 net.cpp:149] Top shape: 8 3 300 300 (2160000)
I0725 15:21:39.555886 17185 net.cpp:149] Top shape: 1 1 2 8 (16)
I0725 15:21:39.555909 17185 net.cpp:157] Memory required for data: 8640064
I0725 15:21:39.555945 17185 layer_factory.hpp:77] Creating layer data_data_0_split
I0725 15:21:39.555999 17185 layer_factory.hpp:77] Creating layer data_data_0_split
I0725 15:21:39.556017 17185 net.cpp:92] Creating Layer data_data_0_split
I0725 15:21:39.556044 17185 net.cpp:470] data_data_0_split <- data
I0725 15:21:39.556084 17185 net.cpp:444] data_data_0_split -> data_data_0_split_0
I0725 15:21:39.556111 17185 net.cpp:444] data_data_0_split -> data_data_0_split_1
I0725 15:21:39.556129 17185 net.cpp:444] data_data_0_split -> data_data_0_split_2
I0725 15:21:39.556152 17185 net.cpp:444] data_data_0_split -> data_data_0_split_3
I0725 15:21:39.556174 17185 net.cpp:444] data_data_0_split -> data_data_0_split_4
I0725 15:21:39.556206 17185 net.cpp:444] data_data_0_split -> data_data_0_split_5
I0725 15:21:39.556228 17185 net.cpp:444] data_data_0_split -> data_data_0_split_6
I0725 15:21:39.556396 17185 net.cpp:142] Setting up data_data_0_split
I0725 15:21:39.556809 17185 net.cpp:149] Top shape: 8 3 300 300 (2160000)
I0725 15:21:39.556836 17185 net.cpp:149] Top shape: 8 3 300 300 (2160000)
I0725 15:21:39.556885 17185 net.cpp:149] Top shape: 8 3 300 300 (2160000)
I0725 15:21:39.556921 17185 net.cpp:149] Top shape: 8 3 300 300 (2160000)
I0725 15:21:39.556939 17185 net.cpp:149] Top shape: 8 3 300 300 (2160000)
I0725 15:21:39.557016 17185 net.cpp:149] Top shape: 8 3 300 300 (2160000)
I0725 15:21:39.557101 17185 net.cpp:149] Top shape: 8 3 300 300 (2160000)
I0725 15:21:39.557178 17185 net.cpp:157] Memory required for data: 69120064
I0725 15:21:39.557263 17185 layer_factory.hpp:77] Creating layer conv1_1
I0725 15:21:39.557332 17185 layer_factory.hpp:77] Creating layer conv1_1
I0725 15:21:39.557416 17185 net.cpp:92] Creating Layer conv1_1
I0725 15:21:39.557587 17185 net.cpp:470] conv1_1 <- data_data_0_split_0
I0725 15:21:39.557816 17185 net.cpp:444] conv1_1 -> conv1_1
I0725 15:21:39.558262 17185 net.cpp:142] Setting up conv1_1
I0725 15:21:39.558326 17185 net.cpp:149] Top shape: 8 64 300 300 (46080000)
I0725 15:21:39.558370 17185 net.cpp:157] Memory required for data: 253440064
I0725 15:21:39.558465 17185 layer_factory.hpp:77] Creating layer relu1_1
I0725 15:21:39.558514 17185 layer_factory.hpp:77] Creating layer relu1_1
I0725 15:21:39.558532 17185 net.cpp:92] Creating Layer relu1_1
I0725 15:21:39.558578 17185 net.cpp:470] relu1_1 <- conv1_1
I0725 15:21:39.558986 17185 net.cpp:431] relu1_1 -> conv1_1 (in-place)
I0725 15:21:39.559234 17185 net.cpp:142] Setting up relu1_1
I0725 15:21:39.559360 17185 net.cpp:149] Top shape: 8 64 300 300 (46080000)
I0725 15:21:39.559634 17185 net.cpp:157] Memory required for data: 437760064
I0725 15:21:39.559787 17185 layer_factory.hpp:77] Creating layer conv1_2
I0725 15:21:39.559882 17185 layer_factory.hpp:77] Creating layer conv1_2
I0725 15:21:39.560071 17185 net.cpp:92] Creating Layer conv1_2
I0725 15:21:39.560246 17185 net.cpp:470] conv1_2 <- conv1_1
I0725 15:21:39.560359 17185 net.cpp:444] conv1_2 -> conv1_2
I0725 15:21:39.560746 17185 net.cpp:142] Setting up conv1_2
I0725 15:21:39.560786 17185 net.cpp:149] Top shape: 8 64 300 300 (46080000)
I0725 15:21:39.560837 17185 net.cpp:157] Memory required for data: 622080064
I0725 15:21:39.560876 17185 layer_factory.hpp:77] Creating layer relu1_2
I0725 15:21:39.560948 17185 layer_factory.hpp:77] Creating layer relu1_2
I0725 15:21:39.561101 17185 net.cpp:92] Creating Layer relu1_2
I0725 15:21:39.561173 17185 net.cpp:470] relu1_2 <- conv1_2
I0725 15:21:39.561569 17185 net.cpp:431] relu1_2 -> conv1_2 (in-place)
I0725 15:21:39.561722 17185 net.cpp:142] Setting up relu1_2
I0725 15:21:39.561794 17185 net.cpp:149] Top shape: 8 64 300 300 (46080000)
I0725 15:21:39.561836 17185 net.cpp:157] Memory required for data: 806400064
I0725 15:21:39.561889 17185 layer_factory.hpp:77] Creating layer pool1
I0725 15:21:39.561925 17185 layer_factory.hpp:77] Creating layer pool1
I0725 15:21:39.561952 17185 net.cpp:92] Creating Layer pool1
I0725 15:21:39.561980 17185 net.cpp:470] pool1 <- conv1_2
I0725 15:21:39.562073 17185 net.cpp:444] pool1 -> pool1
I0725 15:21:39.564575 17185 net.cpp:142] Setting up pool1
I0725 15:21:39.564607 17185 net.cpp:149] Top shape: 8 64 150 150 (11520000)
I0725 15:21:39.564625 17185 net.cpp:157] Memory required for data: 852480064
I0725 15:21:39.564647 17185 layer_factory.hpp:77] Creating layer conv2_1
I0725 15:21:39.564679 17185 layer_factory.hpp:77] Creating layer conv2_1
I0725 15:21:39.564707 17185 net.cpp:92] Creating Layer conv2_1
I0725 15:21:39.564796 17185 net.cpp:470] conv2_1 <- pool1
I0725 15:21:39.564818 17185 net.cpp:444] conv2_1 -> conv2_1
I0725 15:21:39.565313 17185 net.cpp:142] Setting up conv2_1
I0725 15:21:39.565354 17185 net.cpp:149] Top shape: 8 128 150 150 (23040000)
I0725 15:21:39.565471 17185 net.cpp:157] Memory required for data: 944640064
I0725 15:21:39.565493 17185 layer_factory.hpp:77] Creating layer relu2_1
I0725 15:21:39.565534 17185 layer_factory.hpp:77] Creating layer relu2_1
I0725 15:21:39.565579 17185 net.cpp:92] Creating Layer relu2_1
I0725 15:21:39.565754 17185 net.cpp:470] relu2_1 <- conv2_1
I0725 15:21:39.565903 17185 net.cpp:431] relu2_1 -> conv2_1 (in-place)
I0725 15:21:39.566069 17185 net.cpp:142] Setting up relu2_1
I0725 15:21:39.566205 17185 net.cpp:149] Top shape: 8 128 150 150 (23040000)
I0725 15:21:39.566249 17185 net.cpp:157] Memory required for data: 1036800064
I0725 15:21:39.566308 17185 layer_factory.hpp:77] Creating layer conv2_2
I0725 15:21:39.566357 17185 layer_factory.hpp:77] Creating layer conv2_2
I0725 15:21:39.566393 17185 net.cpp:92] Creating Layer conv2_2
I0725 15:21:39.566421 17185 net.cpp:470] conv2_2 <- conv2_1
I0725 15:21:39.566438 17185 net.cpp:444] conv2_2 -> conv2_2
I0725 15:21:39.568351 17185 net.cpp:142] Setting up conv2_2
I0725 15:21:39.568459 17185 net.cpp:149] Top shape: 8 128 150 150 (23040000)
I0725 15:21:39.568531 17185 net.cpp:157] Memory required for data: 1128960064
I0725 15:21:39.568567 17185 layer_factory.hpp:77] Creating layer relu2_2
I0725 15:21:39.568634 17185 layer_factory.hpp:77] Creating layer relu2_2
I0725 15:21:39.568765 17185 net.cpp:92] Creating Layer relu2_2
I0725 15:21:39.568873 17185 net.cpp:470] relu2_2 <- conv2_2
I0725 15:21:39.568967 17185 net.cpp:431] relu2_2 -> conv2_2 (in-place)
I0725 15:21:39.568985 17185 net.cpp:142] Setting up relu2_2
I0725 15:21:39.569031 17185 net.cpp:149] Top shape: 8 128 150 150 (23040000)
I0725 15:21:39.569053 17185 net.cpp:157] Memory required for data: 1221120064
I0725 15:21:39.569089 17185 layer_factory.hpp:77] Creating layer pool2
I0725 15:21:39.569134 17185 layer_factory.hpp:77] Creating layer pool2
I0725 15:21:39.569156 17185 net.cpp:92] Creating Layer pool2
I0725 15:21:39.569183 17185 net.cpp:470] pool2 <- conv2_2
I0725 15:21:39.569219 17185 net.cpp:444] pool2 -> pool2
I0725 15:21:39.569273 17185 net.cpp:142] Setting up pool2
I0725 15:21:39.569296 17185 net.cpp:149] Top shape: 8 128 75 75 (5760000)
I0725 15:21:39.569314 17185 net.cpp:157] Memory required for data: 1244160064
I0725 15:21:39.569341 17185 layer_factory.hpp:77] Creating layer conv3_1
I0725 15:21:39.569372 17185 layer_factory.hpp:77] Creating layer conv3_1
I0725 15:21:39.569408 17185 net.cpp:92] Creating Layer conv3_1
I0725 15:21:39.569476 17185 net.cpp:470] conv3_1 <- pool2
I0725 15:21:39.569535 17185 net.cpp:444] conv3_1 -> conv3_1
I0725 15:21:39.577278 17185 net.cpp:142] Setting up conv3_1
I0725 15:21:39.577318 17185 net.cpp:149] Top shape: 8 256 75 75 (11520000)
I0725 15:21:39.577349 17185 net.cpp:157] Memory required for data: 1290240064
I0725 15:21:39.577376 17185 layer_factory.hpp:77] Creating layer relu3_1
I0725 15:21:39.577417 17185 layer_factory.hpp:77] Creating layer relu3_1
I0725 15:21:39.577466 17185 net.cpp:92] Creating Layer relu3_1
I0725 15:21:39.577543 17185 net.cpp:470] relu3_1 <- conv3_1
I0725 15:21:39.577579 17185 net.cpp:431] relu3_1 -> conv3_1 (in-place)
I0725 15:21:39.577620 17185 net.cpp:142] Setting up relu3_1
I0725 15:21:39.577682 17185 net.cpp:149] Top shape: 8 256 75 75 (11520000)
I0725 15:21:39.577718 17185 net.cpp:157] Memory required for data: 1336320064
I0725 15:21:39.577741 17185 layer_factory.hpp:77] Creating layer conv3_2
I0725 15:21:39.577769 17185 layer_factory.hpp:77] Creating layer conv3_2
I0725 15:21:39.577795 17185 net.cpp:92] Creating Layer conv3_2
I0725 15:21:39.577844 17185 net.cpp:470] conv3_2 <- conv3_1
I0725 15:21:39.577872 17185 net.cpp:444] conv3_2 -> conv3_2
I0725 15:21:39.581965 17185 net.cpp:142] Setting up conv3_2
I0725 15:21:39.581992 17185 net.cpp:149] Top shape: 8 256 75 75 (11520000)
I0725 15:21:39.582010 17185 net.cpp:157] Memory required for data: 1382400064
I0725 15:21:39.582033 17185 layer_factory.hpp:77] Creating layer relu3_2
I0725 15:21:39.582064 17185 layer_factory.hpp:77] Creating layer relu3_2
I0725 15:21:39.582082 17185 net.cpp:92] Creating Layer relu3_2
I0725 15:21:39.582100 17185 net.cpp:470] relu3_2 <- conv3_2
I0725 15:21:39.582136 17185 net.cpp:431] relu3_2 -> conv3_2 (in-place)
I0725 15:21:39.582163 17185 net.cpp:142] Setting up relu3_2
I0725 15:21:39.582195 17185 net.cpp:149] Top shape: 8 256 75 75 (11520000)
I0725 15:21:39.582222 17185 net.cpp:157] Memory required for data: 1428480064
I0725 15:21:39.582249 17185 layer_factory.hpp:77] Creating layer conv3_3
I0725 15:21:39.582285 17185 layer_factory.hpp:77] Creating layer conv3_3
I0725 15:21:39.582321 17185 net.cpp:92] Creating Layer conv3_3
I0725 15:21:39.582348 17185 net.cpp:470] conv3_3 <- conv3_2
I0725 15:21:39.582397 17185 net.cpp:444] conv3_3 -> conv3_3
I0725 15:21:39.585939 17185 net.cpp:142] Setting up conv3_3
I0725 15:21:39.585971 17185 net.cpp:149] Top shape: 8 256 75 75 (11520000)
I0725 15:21:39.585989 17185 net.cpp:157] Memory required for data: 1474560064
I0725 15:21:39.586020 17185 layer_factory.hpp:77] Creating layer relu3_3
I0725 15:21:39.586043 17185 layer_factory.hpp:77] Creating layer relu3_3
I0725 15:21:39.586061 17185 net.cpp:92] Creating Layer relu3_3
I0725 15:21:39.586079 17185 net.cpp:470] relu3_3 <- conv3_3
I0725 15:21:39.586110 17185 net.cpp:431] relu3_3 -> conv3_3 (in-place)
I0725 15:21:39.586133 17185 net.cpp:142] Setting up relu3_3
I0725 15:21:39.586164 17185 net.cpp:149] Top shape: 8 256 75 75 (11520000)
I0725 15:21:39.586191 17185 net.cpp:157] Memory required for data: 1520640064
I0725 15:21:39.586236 17185 layer_factory.hpp:77] Creating layer pool3
I0725 15:21:39.586268 17185 layer_factory.hpp:77] Creating layer pool3
I0725 15:21:39.586304 17185 net.cpp:92] Creating Layer pool3
I0725 15:21:39.586331 17185 net.cpp:470] pool3 <- conv3_3
I0725 15:21:39.586385 17185 net.cpp:444] pool3 -> pool3
I0725 15:21:39.586421 17185 net.cpp:142] Setting up pool3
I0725 15:21:39.586443 17185 net.cpp:149] Top shape: 8 256 38 38 (2957312)
I0725 15:21:39.586479 17185 net.cpp:157] Memory required for data: 1532469312
I0725 15:21:39.586506 17185 layer_factory.hpp:77] Creating layer conv4_1
I0725 15:21:39.586542 17185 layer_factory.hpp:77] Creating layer conv4_1
I0725 15:21:39.586596 17185 net.cpp:92] Creating Layer conv4_1
I0725 15:21:39.586803 17185 net.cpp:470] conv4_1 <- pool3
I0725 15:21:39.586827 17185 net.cpp:444] conv4_1 -> conv4_1
I0725 15:21:39.593570 17185 net.cpp:142] Setting up conv4_1
I0725 15:21:39.593611 17185 net.cpp:149] Top shape: 8 512 38 38 (5914624)
I0725 15:21:39.593633 17185 net.cpp:157] Memory required for data: 1556127808
I0725 15:21:39.593660 17185 layer_factory.hpp:77] Creating layer relu4_1
I0725 15:21:39.593701 17185 layer_factory.hpp:77] Creating layer relu4_1
I0725 15:21:39.593732 17185 net.cpp:92] Creating Layer relu4_1
I0725 15:21:39.593822 17185 net.cpp:470] relu4_1 <- conv4_1
I0725 15:21:39.593849 17185 net.cpp:431] relu4_1 -> conv4_1 (in-place)
I0725 15:21:39.593904 17185 net.cpp:142] Setting up relu4_1
I0725 15:21:39.593998 17185 net.cpp:149] Top shape: 8 512 38 38 (5914624)
I0725 15:21:39.594038 17185 net.cpp:157] Memory required for data: 1579786304
I0725 15:21:39.594084 17185 layer_factory.hpp:77] Creating layer conv4_2
I0725 15:21:39.594110 17185 layer_factory.hpp:77] Creating layer conv4_2
I0725 15:21:39.594156 17185 net.cpp:92] Creating Layer conv4_2
I0725 15:21:39.594192 17185 net.cpp:470] conv4_2 <- conv4_1
I0725 15:21:39.594264 17185 net.cpp:444] conv4_2 -> conv4_2
I0725 15:21:39.606463 17185 net.cpp:142] Setting up conv4_2
I0725 15:21:39.606498 17185 net.cpp:149] Top shape: 8 512 38 38 (5914624)
I0725 15:21:39.606515 17185 net.cpp:157] Memory required for data: 1603444800
I0725 15:21:39.606532 17185 layer_factory.hpp:77] Creating layer relu4_2
I0725 15:21:39.606555 17185 layer_factory.hpp:77] Creating layer relu4_2
I0725 15:21:39.606573 17185 net.cpp:92] Creating Layer relu4_2
I0725 15:21:39.606748 17185 net.cpp:470] relu4_2 <- conv4_2
I0725 15:21:39.606820 17185 net.cpp:431] relu4_2 -> conv4_2 (in-place)
I0725 15:21:39.606865 17185 net.cpp:142] Setting up relu4_2
I0725 15:21:39.606889 17185 net.cpp:149] Top shape: 8 512 38 38 (5914624)
I0725 15:21:39.606915 17185 net.cpp:157] Memory required for data: 1627103296
I0725 15:21:39.606951 17185 layer_factory.hpp:77] Creating layer conv4_3
I0725 15:21:39.606978 17185 layer_factory.hpp:77] Creating layer conv4_3
I0725 15:21:39.607000 17185 net.cpp:92] Creating Layer conv4_3
I0725 15:21:39.607033 17185 net.cpp:470] conv4_3 <- conv4_2
I0725 15:21:39.607059 17185 net.cpp:444] conv4_3 -> conv4_3
I0725 15:21:39.618423 17185 net.cpp:142] Setting up conv4_3
I0725 15:21:39.618459 17185 net.cpp:149] Top shape: 8 512 38 38 (5914624)
I0725 15:21:39.618477 17185 net.cpp:157] Memory required for data: 1650761792
I0725 15:21:39.618505 17185 layer_factory.hpp:77] Creating layer relu4_3
I0725 15:21:39.618544 17185 layer_factory.hpp:77] Creating layer relu4_3
I0725 15:21:39.618562 17185 net.cpp:92] Creating Layer relu4_3
I0725 15:21:39.618580 17185 net.cpp:470] relu4_3 <- conv4_3
I0725 15:21:39.618805 17185 net.cpp:431] relu4_3 -> conv4_3 (in-place)
I0725 15:21:39.618855 17185 net.cpp:142] Setting up relu4_3
I0725 15:21:39.618882 17185 net.cpp:149] Top shape: 8 512 38 38 (5914624)
I0725 15:21:39.619328 17185 net.cpp:157] Memory required for data: 1674420288
I0725 15:21:39.619369 17185 layer_factory.hpp:77] Creating layer conv4_3_relu4_3_0_split
I0725 15:21:39.619405 17185 layer_factory.hpp:77] Creating layer conv4_3_relu4_3_0_split
I0725 15:21:39.619477 17185 net.cpp:92] Creating Layer conv4_3_relu4_3_0_split
I0725 15:21:39.619494 17185 net.cpp:470] conv4_3_relu4_3_0_split <- conv4_3
I0725 15:21:39.619516 17185 net.cpp:444] conv4_3_relu4_3_0_split -> conv4_3_relu4_3_0_split_0
I0725 15:21:39.619585 17185 net.cpp:444] conv4_3_relu4_3_0_split -> conv4_3_relu4_3_0_split_1
I0725 15:21:39.619652 17185 net.cpp:142] Setting up conv4_3_relu4_3_0_split
I0725 15:21:39.619714 17185 net.cpp:149] Top shape: 8 512 38 38 (5914624)
I0725 15:21:39.619832 17185 net.cpp:149] Top shape: 8 512 38 38 (5914624)
I0725 15:21:39.619858 17185 net.cpp:157] Memory required for data: 1721737280
I0725 15:21:39.619966 17185 layer_factory.hpp:77] Creating layer pool4
I0725 15:21:39.620079 17185 layer_factory.hpp:77] Creating layer pool4
I0725 15:21:39.620178 17185 net.cpp:92] Creating Layer pool4
I0725 15:21:39.620344 17185 net.cpp:470] pool4 <- conv4_3_relu4_3_0_split_0
I0725 15:21:39.620484 17185 net.cpp:444] pool4 -> pool4
I0725 15:21:39.620695 17185 net.cpp:142] Setting up pool4
I0725 15:21:39.620745 17185 net.cpp:149] Top shape: 8 512 19 19 (1478656)
I0725 15:21:39.620785 17185 net.cpp:157] Memory required for data: 1727651904
I0725 15:21:39.620812 17185 layer_factory.hpp:77] Creating layer conv5_1
I0725 15:21:39.620916 17185 layer_factory.hpp:77] Creating layer conv5_1
I0725 15:21:39.620947 17185 net.cpp:92] Creating Layer conv5_1
I0725 15:21:39.621001 17185 net.cpp:470] conv5_1 <- pool4
I0725 15:21:39.621096 17185 net.cpp:444] conv5_1 -> conv5_1
I0725 15:21:39.633909 17185 net.cpp:142] Setting up conv5_1
I0725 15:21:39.633972 17185 net.cpp:149] Top shape: 8 512 19 19 (1478656)
I0725 15:21:39.634008 17185 net.cpp:157] Memory required for data: 1733566528
I0725 15:21:39.634035 17185 layer_factory.hpp:77] Creating layer relu5_1
I0725 15:21:39.634063 17185 layer_factory.hpp:77] Creating layer relu5_1
I0725 15:21:39.634085 17185 net.cpp:92] Creating Layer relu5_1
I0725 15:21:39.634121 17185 net.cpp:470] relu5_1 <- conv5_1
I0725 15:21:39.634143 17185 net.cpp:431] relu5_1 -> conv5_1 (in-place)
I0725 15:21:39.634171 17185 net.cpp:142] Setting up relu5_1
I0725 15:21:39.634251 17185 net.cpp:149] Top shape: 8 512 19 19 (1478656)
I0725 15:21:39.634274 17185 net.cpp:157] Memory required for data: 1739481152
I0725 15:21:39.634315 17185 layer_factory.hpp:77] Creating layer conv5_2
I0725 15:21:39.634368 17185 layer_factory.hpp:77] Creating layer conv5_2
I0725 15:21:39.634428 17185 net.cpp:92] Creating Layer conv5_2
I0725 15:21:39.634467 17185 net.cpp:470] conv5_2 <- conv5_1
I0725 15:21:39.634521 17185 net.cpp:444] conv5_2 -> conv5_2
I0725 15:21:39.646481 17185 net.cpp:142] Setting up conv5_2
I0725 15:21:39.646518 17185 net.cpp:149] Top shape: 8 512 19 19 (1478656)
I0725 15:21:39.646536 17185 net.cpp:157] Memory required for data: 1745395776
I0725 15:21:39.646572 17185 layer_factory.hpp:77] Creating layer relu5_2
I0725 15:21:39.646653 17185 layer_factory.hpp:77] Creating layer relu5_2
I0725 15:21:39.646752 17185 net.cpp:92] Creating Layer relu5_2
I0725 15:21:39.646852 17185 net.cpp:470] relu5_2 <- conv5_2
I0725 15:21:39.646905 17185 net.cpp:431] relu5_2 -> conv5_2 (in-place)
I0725 15:21:39.646941 17185 net.cpp:142] Setting up relu5_2
I0725 15:21:39.646973 17185 net.cpp:149] Top shape: 8 512 19 19 (1478656)
I0725 15:21:39.647063 17185 net.cpp:157] Memory required for data: 1751310400
I0725 15:21:39.647162 17185 layer_factory.hpp:77] Creating layer conv5_3
I0725 15:21:39.647202 17185 layer_factory.hpp:77] Creating layer conv5_3
I0725 15:21:39.647225 17185 net.cpp:92] Creating Layer conv5_3
I0725 15:21:39.647325 17185 net.cpp:470] conv5_3 <- conv5_2
I0725 15:21:39.647378 17185 net.cpp:444] conv5_3 -> conv5_3
I0725 15:21:39.661278 17185 net.cpp:142] Setting up conv5_3
I0725 15:21:39.661319 17185 net.cpp:149] Top shape: 8 512 19 19 (1478656)
I0725 15:21:39.661350 17185 net.cpp:157] Memory required for data: 1757225024
I0725 15:21:39.661391 17185 layer_factory.hpp:77] Creating layer relu5_3
I0725 15:21:39.661417 17185 layer_factory.hpp:77] Creating layer relu5_3
I0725 15:21:39.661444 17185 net.cpp:92] Creating Layer relu5_3
I0725 15:21:39.661463 17185 net.cpp:470] relu5_3 <- conv5_3
I0725 15:21:39.661547 17185 net.cpp:431] relu5_3 -> conv5_3 (in-place)
I0725 15:21:39.661579 17185 net.cpp:142] Setting up relu5_3
I0725 15:21:39.661597 17185 net.cpp:149] Top shape: 8 512 19 19 (1478656)
I0725 15:21:39.661624 17185 net.cpp:157] Memory required for data: 1763139648
I0725 15:21:39.661687 17185 layer_factory.hpp:77] Creating layer pool5
I0725 15:21:39.661727 17185 layer_factory.hpp:77] Creating layer pool5
I0725 15:21:39.661751 17185 net.cpp:92] Creating Layer pool5
I0725 15:21:39.661787 17185 net.cpp:470] pool5 <- conv5_3
I0725 15:21:39.661813 17185 net.cpp:444] pool5 -> pool5
I0725 15:21:39.661871 17185 net.cpp:142] Setting up pool5
I0725 15:21:39.661983 17185 net.cpp:149] Top shape: 8 512 19 19 (1478656)
I0725 15:21:39.662034 17185 net.cpp:157] Memory required for data: 1769054272
I0725 15:21:39.662209 17185 layer_factory.hpp:77] Creating layer fc6
I0725 15:21:39.662276 17185 layer_factory.hpp:77] Creating layer fc6
I0725 15:21:39.662339 17185 net.cpp:92] Creating Layer fc6
I0725 15:21:39.662371 17185 net.cpp:470] fc6 <- pool5
I0725 15:21:39.662389 17185 net.cpp:444] fc6 -> fc6
I0725 15:21:39.686400 17185 net.cpp:142] Setting up fc6
I0725 15:21:39.686441 17185 net.cpp:149] Top shape: 8 1024 19 19 (2957312)
I0725 15:21:39.686460 17185 net.cpp:157] Memory required for data: 1780883520
I0725 15:21:39.686486 17185 layer_factory.hpp:77] Creating layer relu6
I0725 15:21:39.686545 17185 layer_factory.hpp:77] Creating layer relu6
I0725 15:21:39.686563 17185 net.cpp:92] Creating Layer relu6
I0725 15:21:39.686590 17185 net.cpp:470] relu6 <- fc6
I0725 15:21:39.686882 17185 net.cpp:431] relu6 -> fc6 (in-place)
I0725 15:21:39.686918 17185 net.cpp:142] Setting up relu6
I0725 15:21:39.686940 17185 net.cpp:149] Top shape: 8 1024 19 19 (2957312)
I0725 15:21:39.686976 17185 net.cpp:157] Memory required for data: 1792712768
I0725 15:21:39.687026 17185 layer_factory.hpp:77] Creating layer fc7
I0725 15:21:39.687072 17185 layer_factory.hpp:77] Creating layer fc7
I0725 15:21:39.687156 17185 net.cpp:92] Creating Layer fc7
I0725 15:21:39.687197 17185 net.cpp:470] fc7 <- fc6
I0725 15:21:39.687228 17185 net.cpp:444] fc7 -> fc7
I0725 15:21:39.692984 17185 net.cpp:142] Setting up fc7
I0725 15:21:39.693033 17185 net.cpp:149] Top shape: 8 1024 19 19 (2957312)
I0725 15:21:39.693146 17185 net.cpp:157] Memory required for data: 1804542016
I0725 15:21:39.693182 17185 layer_factory.hpp:77] Creating layer relu7
I0725 15:21:39.693236 17185 layer_factory.hpp:77] Creating layer relu7
I0725 15:21:39.693264 17185 net.cpp:92] Creating Layer relu7
I0725 15:21:39.693303 17185 net.cpp:470] relu7 <- fc7
I0725 15:21:39.693336 17185 net.cpp:431] relu7 -> fc7 (in-place)
I0725 15:21:39.693456 17185 net.cpp:142] Setting up relu7
I0725 15:21:39.693492 17185 net.cpp:149] Top shape: 8 1024 19 19 (2957312)
I0725 15:21:39.693537 17185 net.cpp:157] Memory required for data: 1816371264
I0725 15:21:39.693569 17185 layer_factory.hpp:77] Creating layer fc7_relu7_0_split
I0725 15:21:39.693596 17185 layer_factory.hpp:77] Creating layer fc7_relu7_0_split
I0725 15:21:39.693650 17185 net.cpp:92] Creating Layer fc7_relu7_0_split
I0725 15:21:39.693699 17185 net.cpp:470] fc7_relu7_0_split <- fc7
I0725 15:21:39.693789 17185 net.cpp:444] fc7_relu7_0_split -> fc7_relu7_0_split_0
I0725 15:21:39.693816 17185 net.cpp:444] fc7_relu7_0_split -> fc7_relu7_0_split_1
I0725 15:21:39.693884 17185 net.cpp:444] fc7_relu7_0_split -> fc7_relu7_0_split_2
I0725 15:21:39.693956 17185 net.cpp:444] fc7_relu7_0_split -> fc7_relu7_0_split_3
I0725 15:21:39.694028 17185 net.cpp:142] Setting up fc7_relu7_0_split
I0725 15:21:39.694064 17185 net.cpp:149] Top shape: 8 1024 19 19 (2957312)
I0725 15:21:39.694087 17185 net.cpp:149] Top shape: 8 1024 19 19 (2957312)
I0725 15:21:39.694128 17185 net.cpp:149] Top shape: 8 1024 19 19 (2957312)
I0725 15:21:39.694167 17185 net.cpp:149] Top shape: 8 1024 19 19 (2957312)
I0725 15:21:39.694221 17185 net.cpp:157] Memory required for data: 1863688256
I0725 15:21:39.694272 17185 layer_factory.hpp:77] Creating layer conv6_1
I0725 15:21:39.694356 17185 layer_factory.hpp:77] Creating layer conv6_1
I0725 15:21:39.694469 17185 net.cpp:92] Creating Layer conv6_1
I0725 15:21:39.694572 17185 net.cpp:470] conv6_1 <- fc7_relu7_0_split_0
I0725 15:21:39.694599 17185 net.cpp:444] conv6_1 -> conv6_1
I0725 15:21:39.699002 17185 net.cpp:142] Setting up conv6_1
I0725 15:21:39.699033 17185 net.cpp:149] Top shape: 8 256 19 19 (739328)
I0725 15:21:39.699064 17185 net.cpp:157] Memory required for data: 1866645568
I0725 15:21:39.699105 17185 layer_factory.hpp:77] Creating layer conv6_1_relu
I0725 15:21:39.699131 17185 layer_factory.hpp:77] Creating layer conv6_1_relu
I0725 15:21:39.699149 17185 net.cpp:92] Creating Layer conv6_1_relu
I0725 15:21:39.699167 17185 net.cpp:470] conv6_1_relu <- conv6_1
I0725 15:21:39.699194 17185 net.cpp:431] conv6_1_relu -> conv6_1 (in-place)
I0725 15:21:39.699230 17185 net.cpp:142] Setting up conv6_1_relu
I0725 15:21:39.699293 17185 net.cpp:149] Top shape: 8 256 19 19 (739328)
I0725 15:21:39.699357 17185 net.cpp:157] Memory required for data: 1869602880
I0725 15:21:39.699455 17185 layer_factory.hpp:77] Creating layer conv6_2
I0725 15:21:39.699482 17185 layer_factory.hpp:77] Creating layer conv6_2
I0725 15:21:39.699568 17185 net.cpp:92] Creating Layer conv6_2
I0725 15:21:39.699604 17185 net.cpp:470] conv6_2 <- conv6_1
I0725 15:21:39.699734 17185 net.cpp:444] conv6_2 -> conv6_2
I0725 15:21:39.706842 17185 net.cpp:142] Setting up conv6_2
I0725 15:21:39.706902 17185 net.cpp:149] Top shape: 8 512 10 10 (409600)
I0725 15:21:39.706928 17185 net.cpp:157] Memory required for data: 1871241280
I0725 15:21:39.706991 17185 layer_factory.hpp:77] Creating layer conv6_2_relu
I0725 15:21:39.707077 17185 layer_factory.hpp:77] Creating layer conv6_2_relu
I0725 15:21:39.707108 17185 net.cpp:92] Creating Layer conv6_2_relu
I0725 15:21:39.707216 17185 net.cpp:470] conv6_2_relu <- conv6_2
I0725 15:21:39.707238 17185 net.cpp:431] conv6_2_relu -> conv6_2 (in-place)
I0725 15:21:39.707257 17185 net.cpp:142] Setting up conv6_2_relu
I0725 15:21:39.707306 17185 net.cpp:149] Top shape: 8 512 10 10 (409600)
I0725 15:21:39.707329 17185 net.cpp:157] Memory required for data: 1872879680
I0725 15:21:39.707351 17185 layer_factory.hpp:77] Creating layer conv6_2_conv6_2_relu_0_split
I0725 15:21:39.707423 17185 layer_factory.hpp:77] Creating layer conv6_2_conv6_2_relu_0_split
I0725 15:21:39.707514 17185 net.cpp:92] Creating Layer conv6_2_conv6_2_relu_0_split
I0725 15:21:39.707540 17185 net.cpp:470] conv6_2_conv6_2_relu_0_split <- conv6_2
I0725 15:21:39.707607 17185 net.cpp:444] conv6_2_conv6_2_relu_0_split -> conv6_2_conv6_2_relu_0_split_0
I0725 15:21:39.707634 17185 net.cpp:444] conv6_2_conv6_2_relu_0_split -> conv6_2_conv6_2_relu_0_split_1
I0725 15:21:39.707661 17185 net.cpp:444] conv6_2_conv6_2_relu_0_split -> conv6_2_conv6_2_relu_0_split_2
I0725 15:21:39.707706 17185 net.cpp:444] conv6_2_conv6_2_relu_0_split -> conv6_2_conv6_2_relu_0_split_3
I0725 15:21:39.707877 17185 net.cpp:142] Setting up conv6_2_conv6_2_relu_0_split
I0725 15:21:39.707904 17185 net.cpp:149] Top shape: 8 512 10 10 (409600)
I0725 15:21:39.707940 17185 net.cpp:149] Top shape: 8 512 10 10 (409600)
I0725 15:21:39.707980 17185 net.cpp:149] Top shape: 8 512 10 10 (409600)
I0725 15:21:39.708016 17185 net.cpp:149] Top shape: 8 512 10 10 (409600)
I0725 15:21:39.708124 17185 net.cpp:157] Memory required for data: 1879433280
I0725 15:21:39.708201 17185 layer_factory.hpp:77] Creating layer conv7_1
I0725 15:21:39.708228 17185 layer_factory.hpp:77] Creating layer conv7_1
I0725 15:21:39.708304 17185 net.cpp:92] Creating Layer conv7_1
I0725 15:21:39.708367 17185 net.cpp:470] conv7_1 <- conv6_2_conv6_2_relu_0_split_0
I0725 15:21:39.708655 17185 net.cpp:444] conv7_1 -> conv7_1
I0725 15:21:39.709677 17185 net.cpp:142] Setting up conv7_1
I0725 15:21:39.709722 17185 net.cpp:149] Top shape: 8 128 10 10 (102400)
I0725 15:21:39.709762 17185 net.cpp:157] Memory required for data: 1879842880
I0725 15:21:39.709879 17185 layer_factory.hpp:77] Creating layer conv7_1_relu
I0725 15:21:39.710163 17185 layer_factory.hpp:77] Creating layer conv7_1_relu
I0725 15:21:39.710374 17185 net.cpp:92] Creating Layer conv7_1_relu
I0725 15:21:39.711081 17185 net.cpp:470] conv7_1_relu <- conv7_1
I0725 15:21:39.711338 17185 net.cpp:431] conv7_1_relu -> conv7_1 (in-place)
I0725 15:21:39.711589 17185 net.cpp:142] Setting up conv7_1_relu
I0725 15:21:39.711836 17185 net.cpp:149] Top shape: 8 128 10 10 (102400)
I0725 15:21:39.711931 17185 net.cpp:157] Memory required for data: 1880252480
I0725 15:21:39.712061 17185 layer_factory.hpp:77] Creating layer conv7_2
I0725 15:21:39.712106 17185 layer_factory.hpp:77] Creating layer conv7_2
I0725 15:21:39.712152 17185 net.cpp:92] Creating Layer conv7_2
I0725 15:21:39.712210 17185 net.cpp:470] conv7_2 <- conv7_1
I0725 15:21:39.712241 17185 net.cpp:444] conv7_2 -> conv7_2
I0725 15:21:39.714920 17185 net.cpp:142] Setting up conv7_2
I0725 15:21:39.714960 17185 net.cpp:149] Top shape: 8 256 5 5 (51200)
I0725 15:21:39.714987 17185 net.cpp:157] Memory required for data: 1880457280
I0725 15:21:39.715028 17185 layer_factory.hpp:77] Creating layer conv7_2_relu
I0725 15:21:39.715050 17185 layer_factory.hpp:77] Creating layer conv7_2_relu
I0725 15:21:39.715113 17185 net.cpp:92] Creating Layer conv7_2_relu
I0725 15:21:39.715157 17185 net.cpp:470] conv7_2_relu <- conv7_2
I0725 15:21:39.715198 17185 net.cpp:431] conv7_2_relu -> conv7_2 (in-place)
I0725 15:21:39.715225 17185 net.cpp:142] Setting up conv7_2_relu
I0725 15:21:39.715306 17185 net.cpp:149] Top shape: 8 256 5 5 (51200)
I0725 15:21:39.715324 17185 net.cpp:157] Memory required for data: 1880662080
I0725 15:21:39.715373 17185 layer_factory.hpp:77] Creating layer conv7_2_conv7_2_relu_0_split
I0725 15:21:39.715423 17185 layer_factory.hpp:77] Creating layer conv7_2_conv7_2_relu_0_split
I0725 15:21:39.715451 17185 net.cpp:92] Creating Layer conv7_2_conv7_2_relu_0_split
I0725 15:21:39.715499 17185 net.cpp:470] conv7_2_conv7_2_relu_0_split <- conv7_2
I0725 15:21:39.715576 17185 net.cpp:444] conv7_2_conv7_2_relu_0_split -> conv7_2_conv7_2_relu_0_split_0
I0725 15:21:39.715667 17185 net.cpp:444] conv7_2_conv7_2_relu_0_split -> conv7_2_conv7_2_relu_0_split_1
I0725 15:21:39.715698 17185 net.cpp:444] conv7_2_conv7_2_relu_0_split -> conv7_2_conv7_2_relu_0_split_2
I0725 15:21:39.715760 17185 net.cpp:444] conv7_2_conv7_2_relu_0_split -> conv7_2_conv7_2_relu_0_split_3
I0725 15:21:39.715922 17185 net.cpp:142] Setting up conv7_2_conv7_2_relu_0_split
I0725 15:21:39.715950 17185 net.cpp:149] Top shape: 8 256 5 5 (51200)
I0725 15:21:39.715967 17185 net.cpp:149] Top shape: 8 256 5 5 (51200)
I0725 15:21:39.715999 17185 net.cpp:149] Top shape: 8 256 5 5 (51200)
I0725 15:21:39.716030 17185 net.cpp:149] Top shape: 8 256 5 5 (51200)
I0725 15:21:39.716094 17185 net.cpp:157] Memory required for data: 1881481280
I0725 15:21:39.716147 17185 layer_factory.hpp:77] Creating layer conv8_1
I0725 15:21:39.716246 17185 layer_factory.hpp:77] Creating layer conv8_1
I0725 15:21:39.716387 17185 net.cpp:92] Creating Layer conv8_1
I0725 15:21:39.716531 17185 net.cpp:470] conv8_1 <- conv7_2_conv7_2_relu_0_split_0
I0725 15:21:39.716606 17185 net.cpp:444] conv8_1 -> conv8_1
I0725 15:21:39.716908 17185 net.cpp:142] Setting up conv8_1
I0725 15:21:39.716935 17185 net.cpp:149] Top shape: 8 128 5 5 (25600)
I0725 15:21:39.717025 17185 net.cpp:157] Memory required for data: 1881583680
I0725 15:21:39.717070 17185 layer_factory.hpp:77] Creating layer conv8_1_relu
I0725 15:21:39.717146 17185 layer_factory.hpp:77] Creating layer conv8_1_relu
I0725 15:21:39.717242 17185 net.cpp:92] Creating Layer conv8_1_relu
I0725 15:21:39.719108 17185 net.cpp:470] conv8_1_relu <- conv8_1
I0725 15:21:39.719180 17185 net.cpp:431] conv8_1_relu -> conv8_1 (in-place)
I0725 15:21:39.719213 17185 net.cpp:142] Setting up conv8_1_relu
I0725 15:21:39.719270 17185 net.cpp:149] Top shape: 8 128 5 5 (25600)
I0725 15:21:39.719297 17185 net.cpp:157] Memory required for data: 1881686080
I0725 15:21:39.719329 17185 layer_factory.hpp:77] Creating layer conv8_2
I0725 15:21:39.719369 17185 layer_factory.hpp:77] Creating layer conv8_2
I0725 15:21:39.719414 17185 net.cpp:92] Creating Layer conv8_2
I0725 15:21:39.719455 17185 net.cpp:470] conv8_2 <- conv8_1
I0725 15:21:39.719496 17185 net.cpp:444] conv8_2 -> conv8_2
I0725 15:21:39.723465 17185 net.cpp:142] Setting up conv8_2
I0725 15:21:39.723498 17185 net.cpp:149] Top shape: 8 256 3 3 (18432)
I0725 15:21:39.723516 17185 net.cpp:157] Memory required for data: 1881759808
I0725 15:21:39.723534 17185 layer_factory.hpp:77] Creating layer conv8_2_relu
I0725 15:21:39.723556 17185 layer_factory.hpp:77] Creating layer conv8_2_relu
I0725 15:21:39.723588 17185 net.cpp:92] Creating Layer conv8_2_relu
I0725 15:21:39.723606 17185 net.cpp:470] conv8_2_relu <- conv8_2
I0725 15:21:39.723628 17185 net.cpp:431] conv8_2_relu -> conv8_2 (in-place)
I0725 15:21:39.723646 17185 net.cpp:142] Setting up conv8_2_relu
I0725 15:21:39.723664 17185 net.cpp:149] Top shape: 8 256 3 3 (18432)
I0725 15:21:39.723696 17185 net.cpp:157] Memory required for data: 1881833536
I0725 15:21:39.723714 17185 layer_factory.hpp:77] Creating layer conv8_2_conv8_2_relu_0_split
I0725 15:21:39.723745 17185 layer_factory.hpp:77] Creating layer conv8_2_conv8_2_relu_0_split
I0725 15:21:39.723809 17185 net.cpp:92] Creating Layer conv8_2_conv8_2_relu_0_split
I0725 15:21:39.723845 17185 net.cpp:470] conv8_2_conv8_2_relu_0_split <- conv8_2
I0725 15:21:39.723867 17185 net.cpp:444] conv8_2_conv8_2_relu_0_split -> conv8_2_conv8_2_relu_0_split_0
I0725 15:21:39.723889 17185 net.cpp:444] conv8_2_conv8_2_relu_0_split -> conv8_2_conv8_2_relu_0_split_1
I0725 15:21:39.723917 17185 net.cpp:444] conv8_2_conv8_2_relu_0_split -> conv8_2_conv8_2_relu_0_split_2
I0725 15:21:39.723958 17185 net.cpp:444] conv8_2_conv8_2_relu_0_split -> conv8_2_conv8_2_relu_0_split_3
I0725 15:21:39.724033 17185 net.cpp:142] Setting up conv8_2_conv8_2_relu_0_split
I0725 15:21:39.724061 17185 net.cpp:149] Top shape: 8 256 3 3 (18432)
I0725 15:21:39.724133 17185 net.cpp:149] Top shape: 8 256 3 3 (18432)
I0725 15:21:39.724155 17185 net.cpp:149] Top shape: 8 256 3 3 (18432)
I0725 15:21:39.724186 17185 net.cpp:149] Top shape: 8 256 3 3 (18432)
I0725 15:21:39.724254 17185 net.cpp:157] Memory required for data: 1882128448
I0725 15:21:39.724277 17185 layer_factory.hpp:77] Creating layer conv9_1
I0725 15:21:39.724318 17185 layer_factory.hpp:77] Creating layer conv9_1
I0725 15:21:39.724380 17185 net.cpp:92] Creating Layer conv9_1
I0725 15:21:39.724411 17185 net.cpp:470] conv9_1 <- conv8_2_conv8_2_relu_0_split_0
I0725 15:21:39.724501 17185 net.cpp:444] conv9_1 -> conv9_1
I0725 15:21:39.724807 17185 net.cpp:142] Setting up conv9_1
I0725 15:21:39.724933 17185 net.cpp:149] Top shape: 8 128 3 3 (9216)
I0725 15:21:39.725005 17185 net.cpp:157] Memory required for data: 1882165312
I0725 15:21:39.725041 17185 layer_factory.hpp:77] Creating layer conv9_1_relu
I0725 15:21:39.725230 17185 layer_factory.hpp:77] Creating layer conv9_1_relu
I0725 15:21:39.725383 17185 net.cpp:92] Creating Layer conv9_1_relu
I0725 15:21:39.725437 17185 net.cpp:470] conv9_1_relu <- conv9_1
I0725 15:21:39.725478 17185 net.cpp:431] conv9_1_relu -> conv9_1 (in-place)
I0725 15:21:39.725564 17185 net.cpp:142] Setting up conv9_1_relu
I0725 15:21:39.725586 17185 net.cpp:149] Top shape: 8 128 3 3 (9216)
I0725 15:21:39.725662 17185 net.cpp:157] Memory required for data: 1882202176
I0725 15:21:39.725734 17185 layer_factory.hpp:77] Creating layer conv9_2
I0725 15:21:39.725775 17185 layer_factory.hpp:77] Creating layer conv9_2
I0725 15:21:39.725860 17185 net.cpp:92] Creating Layer conv9_2
I0725 15:21:39.725924 17185 net.cpp:470] conv9_2 <- conv9_1
I0725 15:21:39.726001 17185 net.cpp:444] conv9_2 -> conv9_2
I0725 15:21:39.728653 17185 net.cpp:142] Setting up conv9_2
I0725 15:21:39.728680 17185 net.cpp:149] Top shape: 8 256 1 1 (2048)
I0725 15:21:39.728698 17185 net.cpp:157] Memory required for data: 1882210368
I0725 15:21:39.728721 17185 layer_factory.hpp:77] Creating layer conv9_2_relu
I0725 15:21:39.728752 17185 layer_factory.hpp:77] Creating layer conv9_2_relu
I0725 15:21:39.728775 17185 net.cpp:92] Creating Layer conv9_2_relu
I0725 15:21:39.728793 17185 net.cpp:470] conv9_2_relu <- conv9_2
I0725 15:21:39.728821 17185 net.cpp:431] conv9_2_relu -> conv9_2 (in-place)
I0725 15:21:39.728842 17185 net.cpp:142] Setting up conv9_2_relu
I0725 15:21:39.728864 17185 net.cpp:149] Top shape: 8 256 1 1 (2048)
I0725 15:21:39.728932 17185 net.cpp:157] Memory required for data: 1882218560
I0725 15:21:39.728963 17185 layer_factory.hpp:77] Creating layer conv9_2_conv9_2_relu_0_split
I0725 15:21:39.728986 17185 layer_factory.hpp:77] Creating layer conv9_2_conv9_2_relu_0_split
I0725 15:21:39.729049 17185 net.cpp:92] Creating Layer conv9_2_conv9_2_relu_0_split
I0725 15:21:39.729080 17185 net.cpp:470] conv9_2_conv9_2_relu_0_split <- conv9_2
I0725 15:21:39.729135 17185 net.cpp:444] conv9_2_conv9_2_relu_0_split -> conv9_2_conv9_2_relu_0_split_0
I0725 15:21:39.729179 17185 net.cpp:444] conv9_2_conv9_2_relu_0_split -> conv9_2_conv9_2_relu_0_split_1
I0725 15:21:39.729220 17185 net.cpp:444] conv9_2_conv9_2_relu_0_split -> conv9_2_conv9_2_relu_0_split_2
I0725 15:21:39.729260 17185 net.cpp:142] Setting up conv9_2_conv9_2_relu_0_split
I0725 15:21:39.729301 17185 net.cpp:149] Top shape: 8 256 1 1 (2048)
I0725 15:21:39.729359 17185 net.cpp:149] Top shape: 8 256 1 1 (2048)
I0725 15:21:39.729382 17185 net.cpp:149] Top shape: 8 256 1 1 (2048)
I0725 15:21:39.729423 17185 net.cpp:157] Memory required for data: 1882243136
I0725 15:21:39.729440 17185 layer_factory.hpp:77] Creating layer conv4_3_norm
I0725 15:21:39.729481 17185 layer_factory.hpp:77] Creating layer conv4_3_norm
I0725 15:21:39.729593 17185 net.cpp:92] Creating Layer conv4_3_norm
I0725 15:21:39.729635 17185 net.cpp:470] conv4_3_norm <- conv4_3_relu4_3_0_split_1
I0725 15:21:39.729671 17185 net.cpp:444] conv4_3_norm -> conv4_3_norm
I0725 15:21:39.729787 17185 net.cpp:142] Setting up conv4_3_norm
I0725 15:21:39.729836 17185 net.cpp:149] Top shape: 8 512 38 38 (5914624)
I0725 15:21:39.729890 17185 net.cpp:157] Memory required for data: 1905901632
I0725 15:21:39.730003 17185 layer_factory.hpp:77] Creating layer conv4_3_norm_conv4_3_norm_0_split
I0725 15:21:39.730084 17185 layer_factory.hpp:77] Creating layer conv4_3_norm_conv4_3_norm_0_split
I0725 15:21:39.730124 17185 net.cpp:92] Creating Layer conv4_3_norm_conv4_3_norm_0_split
I0725 15:21:39.730192 17185 net.cpp:470] conv4_3_norm_conv4_3_norm_0_split <- conv4_3_norm
I0725 15:21:39.730314 17185 net.cpp:444] conv4_3_norm_conv4_3_norm_0_split -> conv4_3_norm_conv4_3_norm_0_split_0
I0725 15:21:39.730516 17185 net.cpp:444] conv4_3_norm_conv4_3_norm_0_split -> conv4_3_norm_conv4_3_norm_0_split_1
I0725 15:21:39.731078 17185 net.cpp:444] conv4_3_norm_conv4_3_norm_0_split -> conv4_3_norm_conv4_3_norm_0_split_2
I0725 15:21:39.731204 17185 net.cpp:142] Setting up conv4_3_norm_conv4_3_norm_0_split
I0725 15:21:39.731231 17185 net.cpp:149] Top shape: 8 512 38 38 (5914624)
I0725 15:21:39.731290 17185 net.cpp:149] Top shape: 8 512 38 38 (5914624)
I0725 15:21:39.731344 17185 net.cpp:149] Top shape: 8 512 38 38 (5914624)
I0725 15:21:39.731375 17185 net.cpp:157] Memory required for data: 1976877120
I0725 15:21:39.731438 17185 layer_factory.hpp:77] Creating layer conv4_3_norm_mbox_loc
I0725 15:21:39.731488 17185 layer_factory.hpp:77] Creating layer conv4_3_norm_mbox_loc
I0725 15:21:39.731573 17185 net.cpp:92] Creating Layer conv4_3_norm_mbox_loc
I0725 15:21:39.731623 17185 net.cpp:470] conv4_3_norm_mbox_loc <- conv4_3_norm_conv4_3_norm_0_split_0
I0725 15:21:39.731686 17185 net.cpp:444] conv4_3_norm_mbox_loc -> conv4_3_norm_mbox_loc
I0725 15:21:39.732213 17185 net.cpp:142] Setting up conv4_3_norm_mbox_loc
I0725 15:21:39.732326 17185 net.cpp:149] Top shape: 8 16 38 38 (184832)
I0725 15:21:39.732415 17185 net.cpp:157] Memory required for data: 1977616448
I0725 15:21:39.732455 17185 layer_factory.hpp:77] Creating layer conv4_3_norm_mbox_loc_perm
I0725 15:21:39.732581 17185 layer_factory.hpp:77] Creating layer conv4_3_norm_mbox_loc_perm
I0725 15:21:39.732686 17185 net.cpp:92] Creating Layer conv4_3_norm_mbox_loc_perm
I0725 15:21:39.732730 17185 net.cpp:470] conv4_3_norm_mbox_loc_perm <- conv4_3_norm_mbox_loc
I0725 15:21:39.732892 17185 net.cpp:444] conv4_3_norm_mbox_loc_perm -> conv4_3_norm_mbox_loc_perm
I0725 15:21:39.732977 17185 net.cpp:142] Setting up conv4_3_norm_mbox_loc_perm
I0725 15:21:39.733076 17185 net.cpp:149] Top shape: 8 38 38 16 (184832)
I0725 15:21:39.733094 17185 net.cpp:157] Memory required for data: 1978355776
I0725 15:21:39.733144 17185 layer_factory.hpp:77] Creating layer conv4_3_norm_mbox_loc_flat
I0725 15:21:39.733220 17185 layer_factory.hpp:77] Creating layer conv4_3_norm_mbox_loc_flat
I0725 15:21:39.733279 17185 net.cpp:92] Creating Layer conv4_3_norm_mbox_loc_flat
I0725 15:21:39.733301 17185 net.cpp:470] conv4_3_norm_mbox_loc_flat <- conv4_3_norm_mbox_loc_perm
I0725 15:21:39.733364 17185 net.cpp:444] conv4_3_norm_mbox_loc_flat -> conv4_3_norm_mbox_loc_flat
I0725 15:21:39.733441 17185 net.cpp:142] Setting up conv4_3_norm_mbox_loc_flat
I0725 15:21:39.733549 17185 net.cpp:149] Top shape: 8 23104 (184832)
I0725 15:21:39.733630 17185 net.cpp:157] Memory required for data: 1979095104
I0725 15:21:39.733738 17185 layer_factory.hpp:77] Creating layer conv4_3_norm_mbox_conf
I0725 15:21:39.733829 17185 layer_factory.hpp:77] Creating layer conv4_3_norm_mbox_conf
I0725 15:21:39.733958 17185 net.cpp:92] Creating Layer conv4_3_norm_mbox_conf
I0725 15:21:39.733994 17185 net.cpp:470] conv4_3_norm_mbox_conf <- conv4_3_norm_conv4_3_norm_0_split_1
I0725 15:21:39.734045 17185 net.cpp:444] conv4_3_norm_mbox_conf -> conv4_3_norm_mbox_conf
I0725 15:21:39.737176 17185 net.cpp:142] Setting up conv4_3_norm_mbox_conf
I0725 15:21:39.737207 17185 net.cpp:149] Top shape: 8 84 38 38 (970368)
I0725 15:21:39.737234 17185 net.cpp:157] Memory required for data: 1982976576
I0725 15:21:39.737257 17185 layer_factory.hpp:77] Creating layer conv4_3_norm_mbox_conf_perm
I0725 15:21:39.737298 17185 layer_factory.hpp:77] Creating layer conv4_3_norm_mbox_conf_perm
I0725 15:21:39.737315 17185 net.cpp:92] Creating Layer conv4_3_norm_mbox_conf_perm
I0725 15:21:39.737342 17185 net.cpp:470] conv4_3_norm_mbox_conf_perm <- conv4_3_norm_mbox_conf
I0725 15:21:39.737396 17185 net.cpp:444] conv4_3_norm_mbox_conf_perm -> conv4_3_norm_mbox_conf_perm
I0725 15:21:39.737504 17185 net.cpp:142] Setting up conv4_3_norm_mbox_conf_perm
I0725 15:21:39.737550 17185 net.cpp:149] Top shape: 8 38 38 84 (970368)
I0725 15:21:39.737599 17185 net.cpp:157] Memory required for data: 1986858048
I0725 15:21:39.737622 17185 layer_factory.hpp:77] Creating layer conv4_3_norm_mbox_conf_flat
I0725 15:21:39.737668 17185 layer_factory.hpp:77] Creating layer conv4_3_norm_mbox_conf_flat
I0725 15:21:39.737716 17185 net.cpp:92] Creating Layer conv4_3_norm_mbox_conf_flat
I0725 15:21:39.737743 17185 net.cpp:470] conv4_3_norm_mbox_conf_flat <- conv4_3_norm_mbox_conf_perm
I0725 15:21:39.737761 17185 net.cpp:444] conv4_3_norm_mbox_conf_flat -> conv4_3_norm_mbox_conf_flat
I0725 15:21:39.737838 17185 net.cpp:142] Setting up conv4_3_norm_mbox_conf_flat
I0725 15:21:39.737879 17185 net.cpp:149] Top shape: 8 121296 (970368)
I0725 15:21:39.737920 17185 net.cpp:157] Memory required for data: 1990739520
I0725 15:21:39.737951 17185 layer_factory.hpp:77] Creating layer conv4_3_norm_mbox_priorbox
I0725 15:21:39.737987 17185 layer_factory.hpp:77] Creating layer conv4_3_norm_mbox_priorbox
I0725 15:21:39.738008 17185 net.cpp:92] Creating Layer conv4_3_norm_mbox_priorbox
I0725 15:21:39.738035 17185 net.cpp:470] conv4_3_norm_mbox_priorbox <- conv4_3_norm_conv4_3_norm_0_split_2
I0725 15:21:39.738103 17185 net.cpp:470] conv4_3_norm_mbox_priorbox <- data_data_0_split_1
I0725 15:21:39.738143 17185 net.cpp:444] conv4_3_norm_mbox_priorbox -> conv4_3_norm_mbox_priorbox
I0725 15:21:39.738189 17185 net.cpp:142] Setting up conv4_3_norm_mbox_priorbox
I0725 15:21:39.738306 17185 net.cpp:149] Top shape: 1 2 23104 (46208)
I0725 15:21:39.738373 17185 net.cpp:157] Memory required for data: 1990924352
I0725 15:21:39.738499 17185 layer_factory.hpp:77] Creating layer fc7_mbox_loc
I0725 15:21:39.738963 17185 layer_factory.hpp:77] Creating layer fc7_mbox_loc
I0725 15:21:39.739017 17185 net.cpp:92] Creating Layer fc7_mbox_loc
I0725 15:21:39.739156 17185 net.cpp:470] fc7_mbox_loc <- fc7_relu7_0_split_1
I0725 15:21:39.739243 17185 net.cpp:444] fc7_mbox_loc -> fc7_mbox_loc
I0725 15:21:39.740218 17185 net.cpp:142] Setting up fc7_mbox_loc
I0725 15:21:39.740299 17185 net.cpp:149] Top shape: 8 24 19 19 (69312)
I0725 15:21:39.740358 17185 net.cpp:157] Memory required for data: 1991201600
I0725 15:21:39.740422 17185 layer_factory.hpp:77] Creating layer fc7_mbox_loc_perm
I0725 15:21:39.740448 17185 layer_factory.hpp:77] Creating layer fc7_mbox_loc_perm
I0725 15:21:39.740506 17185 net.cpp:92] Creating Layer fc7_mbox_loc_perm
I0725 15:21:39.740646 17185 net.cpp:470] fc7_mbox_loc_perm <- fc7_mbox_loc
I0725 15:21:39.740669 17185 net.cpp:444] fc7_mbox_loc_perm -> fc7_mbox_loc_perm
I0725 15:21:39.740826 17185 net.cpp:142] Setting up fc7_mbox_loc_perm
I0725 15:21:39.740854 17185 net.cpp:149] Top shape: 8 19 19 24 (69312)
I0725 15:21:39.740911 17185 net.cpp:157] Memory required for data: 1991478848
I0725 15:21:39.740942 17185 layer_factory.hpp:77] Creating layer fc7_mbox_loc_flat
I0725 15:21:39.741068 17185 layer_factory.hpp:77] Creating layer fc7_mbox_loc_flat
I0725 15:21:39.741158 17185 net.cpp:92] Creating Layer fc7_mbox_loc_flat
I0725 15:21:39.741190 17185 net.cpp:470] fc7_mbox_loc_flat <- fc7_mbox_loc_perm
I0725 15:21:39.741266 17185 net.cpp:444] fc7_mbox_loc_flat -> fc7_mbox_loc_flat
I0725 15:21:39.741298 17185 net.cpp:142] Setting up fc7_mbox_loc_flat
I0725 15:21:39.741451 17185 net.cpp:149] Top shape: 8 8664 (69312)
I0725 15:21:39.741478 17185 net.cpp:157] Memory required for data: 1991756096
I0725 15:21:39.741572 17185 layer_factory.hpp:77] Creating layer fc7_mbox_conf
I0725 15:21:39.741636 17185 layer_factory.hpp:77] Creating layer fc7_mbox_conf
I0725 15:21:39.741677 17185 net.cpp:92] Creating Layer fc7_mbox_conf
I0725 15:21:39.741713 17185 net.cpp:470] fc7_mbox_conf <- fc7_relu7_0_split_2
I0725 15:21:39.741775 17185 net.cpp:444] fc7_mbox_conf -> fc7_mbox_conf
I0725 15:21:39.754976 17185 net.cpp:142] Setting up fc7_mbox_conf
I0725 15:21:39.755008 17185 net.cpp:149] Top shape: 8 126 19 19 (363888)
I0725 15:21:39.755026 17185 net.cpp:157] Memory required for data: 1993211648
I0725 15:21:39.755048 17185 layer_factory.hpp:77] Creating layer fc7_mbox_conf_perm
I0725 15:21:39.755080 17185 layer_factory.hpp:77] Creating layer fc7_mbox_conf_perm
I0725 15:21:39.755107 17185 net.cpp:92] Creating Layer fc7_mbox_conf_perm
I0725 15:21:39.755125 17185 net.cpp:470] fc7_mbox_conf_perm <- fc7_mbox_conf
I0725 15:21:39.755143 17185 net.cpp:444] fc7_mbox_conf_perm -> fc7_mbox_conf_perm
I0725 15:21:39.755242 17185 net.cpp:142] Setting up fc7_mbox_conf_perm
I0725 15:21:39.755264 17185 net.cpp:149] Top shape: 8 19 19 126 (363888)
I0725 15:21:39.755309 17185 net.cpp:157] Memory required for data: 1994667200
I0725 15:21:39.755350 17185 layer_factory.hpp:77] Creating layer fc7_mbox_conf_flat
I0725 15:21:39.755426 17185 layer_factory.hpp:77] Creating layer fc7_mbox_conf_flat
I0725 15:21:39.755458 17185 net.cpp:92] Creating Layer fc7_mbox_conf_flat
I0725 15:21:39.755481 17185 net.cpp:470] fc7_mbox_conf_flat <- fc7_mbox_conf_perm
I0725 15:21:39.755507 17185 net.cpp:444] fc7_mbox_conf_flat -> fc7_mbox_conf_flat
I0725 15:21:39.755534 17185 net.cpp:142] Setting up fc7_mbox_conf_flat
I0725 15:21:39.755566 17185 net.cpp:149] Top shape: 8 45486 (363888)
I0725 15:21:39.755597 17185 net.cpp:157] Memory required for data: 1996122752
I0725 15:21:39.755638 17185 layer_factory.hpp:77] Creating layer fc7_mbox_priorbox
I0725 15:21:39.755666 17185 layer_factory.hpp:77] Creating layer fc7_mbox_priorbox
I0725 15:21:39.755692 17185 net.cpp:92] Creating Layer fc7_mbox_priorbox
I0725 15:21:39.755710 17185 net.cpp:470] fc7_mbox_priorbox <- fc7_relu7_0_split_3
I0725 15:21:39.755769 17185 net.cpp:470] fc7_mbox_priorbox <- data_data_0_split_2
I0725 15:21:39.755827 17185 net.cpp:444] fc7_mbox_priorbox -> fc7_mbox_priorbox
I0725 15:21:39.755877 17185 net.cpp:142] Setting up fc7_mbox_priorbox
I0725 15:21:39.755908 17185 net.cpp:149] Top shape: 1 2 8664 (17328)
I0725 15:21:39.755930 17185 net.cpp:157] Memory required for data: 1996192064
I0725 15:21:39.755949 17185 layer_factory.hpp:77] Creating layer conv6_2_mbox_loc
I0725 15:21:39.756011 17185 layer_factory.hpp:77] Creating layer conv6_2_mbox_loc
I0725 15:21:39.756043 17185 net.cpp:92] Creating Layer conv6_2_mbox_loc
I0725 15:21:39.756062 17185 net.cpp:470] conv6_2_mbox_loc <- conv6_2_conv6_2_relu_0_split_1
I0725 15:21:39.756146 17185 net.cpp:444] conv6_2_mbox_loc -> conv6_2_mbox_loc
I0725 15:21:39.757046 17185 net.cpp:142] Setting up conv6_2_mbox_loc
I0725 15:21:39.757078 17185 net.cpp:149] Top shape: 8 24 10 10 (19200)
I0725 15:21:39.757231 17185 net.cpp:157] Memory required for data: 1996268864
I0725 15:21:39.757267 17185 layer_factory.hpp:77] Creating layer conv6_2_mbox_loc_perm
I0725 15:21:39.757325 17185 layer_factory.hpp:77] Creating layer conv6_2_mbox_loc_perm
I0725 15:21:39.757380 17185 net.cpp:92] Creating Layer conv6_2_mbox_loc_perm
I0725 15:21:39.757429 17185 net.cpp:470] conv6_2_mbox_loc_perm <- conv6_2_mbox_loc
I0725 15:21:39.757501 17185 net.cpp:444] conv6_2_mbox_loc_perm -> conv6_2_mbox_loc_perm
I0725 15:21:39.757681 17185 net.cpp:142] Setting up conv6_2_mbox_loc_perm
I0725 15:21:39.757771 17185 net.cpp:149] Top shape: 8 10 10 24 (19200)
I0725 15:21:39.757820 17185 net.cpp:157] Memory required for data: 1996345664
I0725 15:21:39.757848 17185 layer_factory.hpp:77] Creating layer conv6_2_mbox_loc_flat
I0725 15:21:39.757969 17185 layer_factory.hpp:77] Creating layer conv6_2_mbox_loc_flat
I0725 15:21:39.758033 17185 net.cpp:92] Creating Layer conv6_2_mbox_loc_flat
I0725 15:21:39.758144 17185 net.cpp:470] conv6_2_mbox_loc_flat <- conv6_2_mbox_loc_perm
I0725 15:21:39.758383 17185 net.cpp:444] conv6_2_mbox_loc_flat -> conv6_2_mbox_loc_flat
I0725 15:21:39.758532 17185 net.cpp:142] Setting up conv6_2_mbox_loc_flat
I0725 15:21:39.758563 17185 net.cpp:149] Top shape: 8 2400 (19200)
I0725 15:21:39.758837 17185 net.cpp:157] Memory required for data: 1996422464
I0725 15:21:39.758855 17185 layer_factory.hpp:77] Creating layer conv6_2_mbox_conf
I0725 15:21:39.758936 17185 layer_factory.hpp:77] Creating layer conv6_2_mbox_conf
I0725 15:21:39.758991 17185 net.cpp:92] Creating Layer conv6_2_mbox_conf
I0725 15:21:39.759017 17185 net.cpp:470] conv6_2_mbox_conf <- conv6_2_conv6_2_relu_0_split_2
I0725 15:21:39.759063 17185 net.cpp:444] conv6_2_mbox_conf -> conv6_2_mbox_conf
I0725 15:21:39.762784 17185 net.cpp:142] Setting up conv6_2_mbox_conf
I0725 15:21:39.762820 17185 net.cpp:149] Top shape: 8 126 10 10 (100800)
I0725 15:21:39.762838 17185 net.cpp:157] Memory required for data: 1996825664
I0725 15:21:39.762856 17185 layer_factory.hpp:77] Creating layer conv6_2_mbox_conf_perm
I0725 15:21:39.762902 17185 layer_factory.hpp:77] Creating layer conv6_2_mbox_conf_perm
I0725 15:21:39.762924 17185 net.cpp:92] Creating Layer conv6_2_mbox_conf_perm
I0725 15:21:39.762943 17185 net.cpp:470] conv6_2_mbox_conf_perm <- conv6_2_mbox_conf
I0725 15:21:39.762960 17185 net.cpp:444] conv6_2_mbox_conf_perm -> conv6_2_mbox_conf_perm
I0725 15:21:39.763068 17185 net.cpp:142] Setting up conv6_2_mbox_conf_perm
I0725 15:21:39.763113 17185 net.cpp:149] Top shape: 8 10 10 126 (100800)
I0725 15:21:39.763131 17185 net.cpp:157] Memory required for data: 1997228864
I0725 15:21:39.763154 17185 layer_factory.hpp:77] Creating layer conv6_2_mbox_conf_flat
I0725 15:21:39.763195 17185 layer_factory.hpp:77] Creating layer conv6_2_mbox_conf_flat
I0725 15:21:39.763226 17185 net.cpp:92] Creating Layer conv6_2_mbox_conf_flat
I0725 15:21:39.763270 17185 net.cpp:470] conv6_2_mbox_conf_flat <- conv6_2_mbox_conf_perm
I0725 15:21:39.763306 17185 net.cpp:444] conv6_2_mbox_conf_flat -> conv6_2_mbox_conf_flat
I0725 15:21:39.763360 17185 net.cpp:142] Setting up conv6_2_mbox_conf_flat
I0725 15:21:39.763383 17185 net.cpp:149] Top shape: 8 12600 (100800)
I0725 15:21:39.763401 17185 net.cpp:157] Memory required for data: 1997632064
I0725 15:21:39.763428 17185 layer_factory.hpp:77] Creating layer conv6_2_mbox_priorbox
I0725 15:21:39.763468 17185 layer_factory.hpp:77] Creating layer conv6_2_mbox_priorbox
I0725 15:21:39.763545 17185 net.cpp:92] Creating Layer conv6_2_mbox_priorbox
I0725 15:21:39.763626 17185 net.cpp:470] conv6_2_mbox_priorbox <- conv6_2_conv6_2_relu_0_split_3
I0725 15:21:39.763707 17185 net.cpp:470] conv6_2_mbox_priorbox <- data_data_0_split_3
I0725 15:21:39.763774 17185 net.cpp:444] conv6_2_mbox_priorbox -> conv6_2_mbox_priorbox
I0725 15:21:39.763846 17185 net.cpp:142] Setting up conv6_2_mbox_priorbox
I0725 15:21:39.763909 17185 net.cpp:149] Top shape: 1 2 2400 (4800)
I0725 15:21:39.763950 17185 net.cpp:157] Memory required for data: 1997651264
I0725 15:21:39.763978 17185 layer_factory.hpp:77] Creating layer conv7_2_mbox_loc
I0725 15:21:39.763999 17185 layer_factory.hpp:77] Creating layer conv7_2_mbox_loc
I0725 15:21:39.764130 17185 net.cpp:92] Creating Layer conv7_2_mbox_loc
I0725 15:21:39.764314 17185 net.cpp:470] conv7_2_mbox_loc <- conv7_2_conv7_2_relu_0_split_1
I0725 15:21:39.764477 17185 net.cpp:444] conv7_2_mbox_loc -> conv7_2_mbox_loc
I0725 15:21:39.765349 17185 net.cpp:142] Setting up conv7_2_mbox_loc
I0725 15:21:39.765389 17185 net.cpp:149] Top shape: 8 24 5 5 (4800)
I0725 15:21:39.765461 17185 net.cpp:157] Memory required for data: 1997670464
I0725 15:21:39.765610 17185 layer_factory.hpp:77] Creating layer conv7_2_mbox_loc_perm
I0725 15:21:39.765641 17185 layer_factory.hpp:77] Creating layer conv7_2_mbox_loc_perm
I0725 15:21:39.765686 17185 net.cpp:92] Creating Layer conv7_2_mbox_loc_perm
I0725 15:21:39.765722 17185 net.cpp:470] conv7_2_mbox_loc_perm <- conv7_2_mbox_loc
I0725 15:21:39.765929 17185 net.cpp:444] conv7_2_mbox_loc_perm -> conv7_2_mbox_loc_perm
I0725 15:21:39.766088 17185 net.cpp:142] Setting up conv7_2_mbox_loc_perm
I0725 15:21:39.766181 17185 net.cpp:149] Top shape: 8 5 5 24 (4800)
I0725 15:21:39.766285 17185 net.cpp:157] Memory required for data: 1997689664
I0725 15:21:39.766379 17185 layer_factory.hpp:77] Creating layer conv7_2_mbox_loc_flat
I0725 15:21:39.766520 17185 layer_factory.hpp:77] Creating layer conv7_2_mbox_loc_flat
I0725 15:21:39.766600 17185 net.cpp:92] Creating Layer conv7_2_mbox_loc_flat
I0725 15:21:39.766731 17185 net.cpp:470] conv7_2_mbox_loc_flat <- conv7_2_mbox_loc_perm
I0725 15:21:39.766789 17185 net.cpp:444] conv7_2_mbox_loc_flat -> conv7_2_mbox_loc_flat
I0725 15:21:39.766924 17185 net.cpp:142] Setting up conv7_2_mbox_loc_flat
I0725 15:21:39.767036 17185 net.cpp:149] Top shape: 8 600 (4800)
I0725 15:21:39.767132 17185 net.cpp:157] Memory required for data: 1997708864
I0725 15:21:39.767168 17185 layer_factory.hpp:77] Creating layer conv7_2_mbox_conf
I0725 15:21:39.767212 17185 layer_factory.hpp:77] Creating layer conv7_2_mbox_conf
I0725 15:21:39.767262 17185 net.cpp:92] Creating Layer conv7_2_mbox_conf
I0725 15:21:39.767320 17185 net.cpp:470] conv7_2_mbox_conf <- conv7_2_conv7_2_relu_0_split_2
I0725 15:21:39.767365 17185 net.cpp:444] conv7_2_mbox_conf -> conv7_2_mbox_conf
I0725 15:21:39.769831 17185 net.cpp:142] Setting up conv7_2_mbox_conf
I0725 15:21:39.769857 17185 net.cpp:149] Top shape: 8 126 5 5 (25200)
I0725 15:21:39.769876 17185 net.cpp:157] Memory required for data: 1997809664
I0725 15:21:39.769907 17185 layer_factory.hpp:77] Creating layer conv7_2_mbox_conf_perm
I0725 15:21:39.769934 17185 layer_factory.hpp:77] Creating layer conv7_2_mbox_conf_perm
I0725 15:21:39.769953 17185 net.cpp:92] Creating Layer conv7_2_mbox_conf_perm
I0725 15:21:39.769970 17185 net.cpp:470] conv7_2_mbox_conf_perm <- conv7_2_mbox_conf
I0725 15:21:39.770037 17185 net.cpp:444] conv7_2_mbox_conf_perm -> conv7_2_mbox_conf_perm
I0725 15:21:39.770123 17185 net.cpp:142] Setting up conv7_2_mbox_conf_perm
I0725 15:21:39.770150 17185 net.cpp:149] Top shape: 8 5 5 126 (25200)
I0725 15:21:39.770172 17185 net.cpp:157] Memory required for data: 1997910464
I0725 15:21:39.770208 17185 layer_factory.hpp:77] Creating layer conv7_2_mbox_conf_flat
I0725 15:21:39.770253 17185 layer_factory.hpp:77] Creating layer conv7_2_mbox_conf_flat
I0725 15:21:39.770289 17185 net.cpp:92] Creating Layer conv7_2_mbox_conf_flat
I0725 15:21:39.770334 17185 net.cpp:470] conv7_2_mbox_conf_flat <- conv7_2_mbox_conf_perm
I0725 15:21:39.770357 17185 net.cpp:444] conv7_2_mbox_conf_flat -> conv7_2_mbox_conf_flat
I0725 15:21:39.770388 17185 net.cpp:142] Setting up conv7_2_mbox_conf_flat
I0725 15:21:39.770411 17185 net.cpp:149] Top shape: 8 3150 (25200)
I0725 15:21:39.770496 17185 net.cpp:157] Memory required for data: 1998011264
I0725 15:21:39.770560 17185 layer_factory.hpp:77] Creating layer conv7_2_mbox_priorbox
I0725 15:21:39.770582 17185 layer_factory.hpp:77] Creating layer conv7_2_mbox_priorbox
I0725 15:21:39.770925 17185 net.cpp:92] Creating Layer conv7_2_mbox_priorbox
I0725 15:21:39.770969 17185 net.cpp:470] conv7_2_mbox_priorbox <- conv7_2_conv7_2_relu_0_split_3
I0725 15:21:39.771000 17185 net.cpp:470] conv7_2_mbox_priorbox <- data_data_0_split_4
I0725 15:21:39.771077 17185 net.cpp:444] conv7_2_mbox_priorbox -> conv7_2_mbox_priorbox
I0725 15:21:39.771356 17185 net.cpp:142] Setting up conv7_2_mbox_priorbox
I0725 15:21:39.771450 17185 net.cpp:149] Top shape: 1 2 600 (1200)
I0725 15:21:39.771549 17185 net.cpp:157] Memory required for data: 1998016064
I0725 15:21:39.771567 17185 layer_factory.hpp:77] Creating layer conv8_2_mbox_loc
I0725 15:21:39.771612 17185 layer_factory.hpp:77] Creating layer conv8_2_mbox_loc
I0725 15:21:39.771636 17185 net.cpp:92] Creating Layer conv8_2_mbox_loc
I0725 15:21:39.771703 17185 net.cpp:470] conv8_2_mbox_loc <- conv8_2_conv8_2_relu_0_split_1
I0725 15:21:39.771747 17185 net.cpp:444] conv8_2_mbox_loc -> conv8_2_mbox_loc
I0725 15:21:39.772642 17185 net.cpp:142] Setting up conv8_2_mbox_loc
I0725 15:21:39.772696 17185 net.cpp:149] Top shape: 8 16 3 3 (1152)
I0725 15:21:39.772737 17185 net.cpp:157] Memory required for data: 1998020672
I0725 15:21:39.772800 17185 layer_factory.hpp:77] Creating layer conv8_2_mbox_loc_perm
I0725 15:21:39.772831 17185 layer_factory.hpp:77] Creating layer conv8_2_mbox_loc_perm
I0725 15:21:39.772894 17185 net.cpp:92] Creating Layer conv8_2_mbox_loc_perm
I0725 15:21:39.772939 17185 net.cpp:470] conv8_2_mbox_loc_perm <- conv8_2_mbox_loc
I0725 15:21:39.772999 17185 net.cpp:444] conv8_2_mbox_loc_perm -> conv8_2_mbox_loc_perm
I0725 15:21:39.773088 17185 net.cpp:142] Setting up conv8_2_mbox_loc_perm
I0725 15:21:39.773151 17185 net.cpp:149] Top shape: 8 3 3 16 (1152)
I0725 15:21:39.773223 17185 net.cpp:157] Memory required for data: 1998025280
I0725 15:21:39.773290 17185 layer_factory.hpp:77] Creating layer conv8_2_mbox_loc_flat
I0725 15:21:39.773425 17185 layer_factory.hpp:77] Creating layer conv8_2_mbox_loc_flat
I0725 15:21:39.773533 17185 net.cpp:92] Creating Layer conv8_2_mbox_loc_flat
I0725 15:21:39.773561 17185 net.cpp:470] conv8_2_mbox_loc_flat <- conv8_2_mbox_loc_perm
I0725 15:21:39.773597 17185 net.cpp:444] conv8_2_mbox_loc_flat -> conv8_2_mbox_loc_flat
I0725 15:21:39.773890 17185 net.cpp:142] Setting up conv8_2_mbox_loc_flat
I0725 15:21:39.773926 17185 net.cpp:149] Top shape: 8 144 (1152)
I0725 15:21:39.773970 17185 net.cpp:157] Memory required for data: 1998029888
I0725 15:21:39.774037 17185 layer_factory.hpp:77] Creating layer conv8_2_mbox_conf
I0725 15:21:39.774078 17185 layer_factory.hpp:77] Creating layer conv8_2_mbox_conf
I0725 15:21:39.774123 17185 net.cpp:92] Creating Layer conv8_2_mbox_conf
I0725 15:21:39.774163 17185 net.cpp:470] conv8_2_mbox_conf <- conv8_2_conv8_2_relu_0_split_2
I0725 15:21:39.774466 17185 net.cpp:444] conv8_2_mbox_conf -> conv8_2_mbox_conf
I0725 15:21:39.776504 17185 net.cpp:142] Setting up conv8_2_mbox_conf
I0725 15:21:39.776615 17185 net.cpp:149] Top shape: 8 84 3 3 (6048)
I0725 15:21:39.776674 17185 net.cpp:157] Memory required for data: 1998054080
I0725 15:21:39.776756 17185 layer_factory.hpp:77] Creating layer conv8_2_mbox_conf_perm
I0725 15:21:39.776782 17185 layer_factory.hpp:77] Creating layer conv8_2_mbox_conf_perm
I0725 15:21:39.776813 17185 net.cpp:92] Creating Layer conv8_2_mbox_conf_perm
I0725 15:21:39.776899 17185 net.cpp:470] conv8_2_mbox_conf_perm <- conv8_2_mbox_conf
I0725 15:21:39.776926 17185 net.cpp:444] conv8_2_mbox_conf_perm -> conv8_2_mbox_conf_perm
I0725 15:21:39.777029 17185 net.cpp:142] Setting up conv8_2_mbox_conf_perm
I0725 15:21:39.777061 17185 net.cpp:149] Top shape: 8 3 3 84 (6048)
I0725 15:21:39.777083 17185 net.cpp:157] Memory required for data: 1998078272
I0725 15:21:39.777119 17185 layer_factory.hpp:77] Creating layer conv8_2_mbox_conf_flat
I0725 15:21:39.777151 17185 layer_factory.hpp:77] Creating layer conv8_2_mbox_conf_flat
I0725 15:21:39.777196 17185 net.cpp:92] Creating Layer conv8_2_mbox_conf_flat
I0725 15:21:39.777218 17185 net.cpp:470] conv8_2_mbox_conf_flat <- conv8_2_mbox_conf_perm
I0725 15:21:39.777281 17185 net.cpp:444] conv8_2_mbox_conf_flat -> conv8_2_mbox_conf_flat
I0725 15:21:39.777318 17185 net.cpp:142] Setting up conv8_2_mbox_conf_flat
I0725 15:21:39.777403 17185 net.cpp:149] Top shape: 8 756 (6048)
I0725 15:21:39.777421 17185 net.cpp:157] Memory required for data: 1998102464
I0725 15:21:39.777457 17185 layer_factory.hpp:77] Creating layer conv8_2_mbox_priorbox
I0725 15:21:39.777524 17185 layer_factory.hpp:77] Creating layer conv8_2_mbox_priorbox
I0725 15:21:39.777578 17185 net.cpp:92] Creating Layer conv8_2_mbox_priorbox
I0725 15:21:39.777619 17185 net.cpp:470] conv8_2_mbox_priorbox <- conv8_2_conv8_2_relu_0_split_3
I0725 15:21:39.777650 17185 net.cpp:470] conv8_2_mbox_priorbox <- data_data_0_split_5
I0725 15:21:39.777683 17185 net.cpp:444] conv8_2_mbox_priorbox -> conv8_2_mbox_priorbox
I0725 15:21:39.777722 17185 net.cpp:142] Setting up conv8_2_mbox_priorbox
I0725 15:21:39.777776 17185 net.cpp:149] Top shape: 1 2 144 (288)
I0725 15:21:39.777822 17185 net.cpp:157] Memory required for data: 1998103616
I0725 15:21:39.777848 17185 layer_factory.hpp:77] Creating layer conv9_2_mbox_loc
I0725 15:21:39.777875 17185 layer_factory.hpp:77] Creating layer conv9_2_mbox_loc
I0725 15:21:39.777911 17185 net.cpp:92] Creating Layer conv9_2_mbox_loc
I0725 15:21:39.778002 17185 net.cpp:470] conv9_2_mbox_loc <- conv9_2_conv9_2_relu_0_split_0
I0725 15:21:39.778154 17185 net.cpp:444] conv9_2_mbox_loc -> conv9_2_mbox_loc
I0725 15:21:39.778496 17185 net.cpp:142] Setting up conv9_2_mbox_loc
I0725 15:21:39.778527 17185 net.cpp:149] Top shape: 8 16 1 1 (128)
I0725 15:21:39.778568 17185 net.cpp:157] Memory required for data: 1998104128
I0725 15:21:39.778802 17185 layer_factory.hpp:77] Creating layer conv9_2_mbox_loc_perm
I0725 15:21:39.778887 17185 layer_factory.hpp:77] Creating layer conv9_2_mbox_loc_perm
I0725 15:21:39.778914 17185 net.cpp:92] Creating Layer conv9_2_mbox_loc_perm
I0725 15:21:39.779013 17185 net.cpp:470] conv9_2_mbox_loc_perm <- conv9_2_mbox_loc
I0725 15:21:39.779067 17185 net.cpp:444] conv9_2_mbox_loc_perm -> conv9_2_mbox_loc_perm
I0725 15:21:39.779139 17185 net.cpp:142] Setting up conv9_2_mbox_loc_perm
I0725 15:21:39.779181 17185 net.cpp:149] Top shape: 8 1 1 16 (128)
I0725 15:21:39.779234 17185 net.cpp:157] Memory required for data: 1998104640
I0725 15:21:39.779337 17185 layer_factory.hpp:77] Creating layer conv9_2_mbox_loc_flat
I0725 15:21:39.779392 17185 layer_factory.hpp:77] Creating layer conv9_2_mbox_loc_flat
I0725 15:21:39.779428 17185 net.cpp:92] Creating Layer conv9_2_mbox_loc_flat
I0725 15:21:39.779481 17185 net.cpp:470] conv9_2_mbox_loc_flat <- conv9_2_mbox_loc_perm
I0725 15:21:39.779553 17185 net.cpp:444] conv9_2_mbox_loc_flat -> conv9_2_mbox_loc_flat
I0725 15:21:39.779616 17185 net.cpp:142] Setting up conv9_2_mbox_loc_flat
I0725 15:21:39.779702 17185 net.cpp:149] Top shape: 8 16 (128)
I0725 15:21:39.779760 17185 net.cpp:157] Memory required for data: 1998105152
I0725 15:21:39.779801 17185 layer_factory.hpp:77] Creating layer conv9_2_mbox_conf
I0725 15:21:39.779850 17185 layer_factory.hpp:77] Creating layer conv9_2_mbox_conf
I0725 15:21:39.779949 17185 net.cpp:92] Creating Layer conv9_2_mbox_conf
I0725 15:21:39.780012 17185 net.cpp:470] conv9_2_mbox_conf <- conv9_2_conv9_2_relu_0_split_1
I0725 15:21:39.780045 17185 net.cpp:444] conv9_2_mbox_conf -> conv9_2_mbox_conf
I0725 15:21:39.780930 17185 net.cpp:142] Setting up conv9_2_mbox_conf
I0725 15:21:39.780998 17185 net.cpp:149] Top shape: 8 84 1 1 (672)
I0725 15:21:39.781044 17185 net.cpp:157] Memory required for data: 1998107840
I0725 15:21:39.781065 17185 layer_factory.hpp:77] Creating layer conv9_2_mbox_conf_perm
I0725 15:21:39.781119 17185 layer_factory.hpp:77] Creating layer conv9_2_mbox_conf_perm
I0725 15:21:39.781173 17185 net.cpp:92] Creating Layer conv9_2_mbox_conf_perm
I0725 15:21:39.781205 17185 net.cpp:470] conv9_2_mbox_conf_perm <- conv9_2_mbox_conf
I0725 15:21:39.781236 17185 net.cpp:444] conv9_2_mbox_conf_perm -> conv9_2_mbox_conf_perm
I0725 15:21:39.781313 17185 net.cpp:142] Setting up conv9_2_mbox_conf_perm
I0725 15:21:39.781340 17185 net.cpp:149] Top shape: 8 1 1 84 (672)
I0725 15:21:39.781389 17185 net.cpp:157] Memory required for data: 1998110528
I0725 15:21:39.781440 17185 layer_factory.hpp:77] Creating layer conv9_2_mbox_conf_flat
I0725 15:21:39.781533 17185 layer_factory.hpp:77] Creating layer conv9_2_mbox_conf_flat
I0725 15:21:39.781584 17185 net.cpp:92] Creating Layer conv9_2_mbox_conf_flat
I0725 15:21:39.781682 17185 net.cpp:470] conv9_2_mbox_conf_flat <- conv9_2_mbox_conf_perm
I0725 15:21:39.781764 17185 net.cpp:444] conv9_2_mbox_conf_flat -> conv9_2_mbox_conf_flat
I0725 15:21:39.781826 17185 net.cpp:142] Setting up conv9_2_mbox_conf_flat
I0725 15:21:39.781857 17185 net.cpp:149] Top shape: 8 84 (672)
I0725 15:21:39.781944 17185 net.cpp:157] Memory required for data: 1998113216
I0725 15:21:39.781961 17185 layer_factory.hpp:77] Creating layer conv9_2_mbox_priorbox
I0725 15:21:39.781992 17185 layer_factory.hpp:77] Creating layer conv9_2_mbox_priorbox
I0725 15:21:39.782064 17185 net.cpp:92] Creating Layer conv9_2_mbox_priorbox
I0725 15:21:39.782213 17185 net.cpp:470] conv9_2_mbox_priorbox <- conv9_2_conv9_2_relu_0_split_2
I0725 15:21:39.782232 17185 net.cpp:470] conv9_2_mbox_priorbox <- data_data_0_split_6
I0725 15:21:39.782312 17185 net.cpp:444] conv9_2_mbox_priorbox -> conv9_2_mbox_priorbox
I0725 15:21:39.782384 17185 net.cpp:142] Setting up conv9_2_mbox_priorbox
I0725 15:21:39.782420 17185 net.cpp:149] Top shape: 1 2 16 (32)
I0725 15:21:39.782456 17185 net.cpp:157] Memory required for data: 1998113344
I0725 15:21:39.782564 17185 layer_factory.hpp:77] Creating layer mbox_loc
I0725 15:21:39.782802 17185 layer_factory.hpp:77] Creating layer mbox_loc
I0725 15:21:39.782861 17185 net.cpp:92] Creating Layer mbox_loc
I0725 15:21:39.782933 17185 net.cpp:470] mbox_loc <- conv4_3_norm_mbox_loc_flat
I0725 15:21:39.783010 17185 net.cpp:470] mbox_loc <- fc7_mbox_loc_flat
I0725 15:21:39.783041 17185 net.cpp:470] mbox_loc <- conv6_2_mbox_loc_flat
I0725 15:21:39.783118 17185 net.cpp:470] mbox_loc <- conv7_2_mbox_loc_flat
I0725 15:21:39.783207 17185 net.cpp:470] mbox_loc <- conv8_2_mbox_loc_flat
I0725 15:21:39.783320 17185 net.cpp:470] mbox_loc <- conv9_2_mbox_loc_flat
I0725 15:21:39.783370 17185 net.cpp:444] mbox_loc -> mbox_loc
I0725 15:21:39.783428 17185 net.cpp:142] Setting up mbox_loc
I0725 15:21:39.783455 17185 net.cpp:149] Top shape: 8 34928 (279424)
I0725 15:21:39.783495 17185 net.cpp:157] Memory required for data: 1999231040
I0725 15:21:39.783567 17185 layer_factory.hpp:77] Creating layer mbox_conf
I0725 15:21:39.783612 17185 layer_factory.hpp:77] Creating layer mbox_conf
I0725 15:21:39.783675 17185 net.cpp:92] Creating Layer mbox_conf
I0725 15:21:39.783774 17185 net.cpp:470] mbox_conf <- conv4_3_norm_mbox_conf_flat
I0725 15:21:39.783833 17185 net.cpp:470] mbox_conf <- fc7_mbox_conf_flat
I0725 15:21:39.783879 17185 net.cpp:470] mbox_conf <- conv6_2_mbox_conf_flat
I0725 15:21:39.784030 17185 net.cpp:470] mbox_conf <- conv7_2_mbox_conf_flat
I0725 15:21:39.784107 17185 net.cpp:470] mbox_conf <- conv8_2_mbox_conf_flat
I0725 15:21:39.784170 17185 net.cpp:470] mbox_conf <- conv9_2_mbox_conf_flat
I0725 15:21:39.784373 17185 net.cpp:444] mbox_conf -> mbox_conf
I0725 15:21:39.784525 17185 net.cpp:142] Setting up mbox_conf
I0725 15:21:39.784570 17185 net.cpp:149] Top shape: 8 183372 (1466976)
I0725 15:21:39.784651 17185 net.cpp:157] Memory required for data: 2005098944
I0725 15:21:39.784737 17185 layer_factory.hpp:77] Creating layer mbox_priorbox
I0725 15:21:39.784809 17185 layer_factory.hpp:77] Creating layer mbox_priorbox
I0725 15:21:39.784863 17185 net.cpp:92] Creating Layer mbox_priorbox
I0725 15:21:39.784894 17185 net.cpp:470] mbox_priorbox <- conv4_3_norm_mbox_priorbox
I0725 15:21:39.784940 17185 net.cpp:470] mbox_priorbox <- fc7_mbox_priorbox
I0725 15:21:39.785056 17185 net.cpp:470] mbox_priorbox <- conv6_2_mbox_priorbox
I0725 15:21:39.785115 17185 net.cpp:470] mbox_priorbox <- conv7_2_mbox_priorbox
I0725 15:21:39.785169 17185 net.cpp:470] mbox_priorbox <- conv8_2_mbox_priorbox
I0725 15:21:39.785197 17185 net.cpp:470] mbox_priorbox <- conv9_2_mbox_priorbox
I0725 15:21:39.785236 17185 net.cpp:444] mbox_priorbox -> mbox_priorbox
I0725 15:21:39.785308 17185 net.cpp:142] Setting up mbox_priorbox
I0725 15:21:39.785416 17185 net.cpp:149] Top shape: 1 2 34928 (69856)
I0725 15:21:39.785444 17185 net.cpp:157] Memory required for data: 2005378368
I0725 15:21:39.785614 17185 layer_factory.hpp:77] Creating layer mbox_conf_reshape
I0725 15:21:39.785696 17185 layer_factory.hpp:77] Creating layer mbox_conf_reshape
I0725 15:21:39.785773 17185 net.cpp:92] Creating Layer mbox_conf_reshape
I0725 15:21:39.785830 17185 net.cpp:470] mbox_conf_reshape <- mbox_conf
I0725 15:21:39.785876 17185 net.cpp:444] mbox_conf_reshape -> mbox_conf_reshape
I0725 15:21:39.785934 17185 net.cpp:142] Setting up mbox_conf_reshape
I0725 15:21:39.785956 17185 net.cpp:149] Top shape: 8 8732 21 (1466976)
I0725 15:21:39.785979 17185 net.cpp:157] Memory required for data: 2011246272
I0725 15:21:39.786006 17185 layer_factory.hpp:77] Creating layer mbox_conf_softmax
I0725 15:21:39.786051 17185 layer_factory.hpp:77] Creating layer mbox_conf_softmax
I0725 15:21:39.786236 17185 net.cpp:92] Creating Layer mbox_conf_softmax
I0725 15:21:39.786384 17185 net.cpp:470] mbox_conf_softmax <- mbox_conf_reshape
I0725 15:21:39.786482 17185 net.cpp:444] mbox_conf_softmax -> mbox_conf_softmax
I0725 15:21:39.786550 17185 net.cpp:142] Setting up mbox_conf_softmax
I0725 15:21:39.786568 17185 net.cpp:149] Top shape: 8 8732 21 (1466976)
I0725 15:21:39.786820 17185 net.cpp:157] Memory required for data: 2017114176
I0725 15:21:39.786865 17185 layer_factory.hpp:77] Creating layer mbox_conf_flatten
I0725 15:21:39.786928 17185 layer_factory.hpp:77] Creating layer mbox_conf_flatten
I0725 15:21:39.787022 17185 net.cpp:92] Creating Layer mbox_conf_flatten
I0725 15:21:39.787122 17185 net.cpp:470] mbox_conf_flatten <- mbox_conf_softmax
I0725 15:21:39.787175 17185 net.cpp:444] mbox_conf_flatten -> mbox_conf_flatten
I0725 15:21:39.787238 17185 net.cpp:142] Setting up mbox_conf_flatten
I0725 15:21:39.787266 17185 net.cpp:149] Top shape: 8 183372 (1466976)
I0725 15:21:39.787351 17185 net.cpp:157] Memory required for data: 2022982080
I0725 15:21:39.787449 17185 layer_factory.hpp:77] Creating layer detection_out
I0725 15:21:39.787535 17185 layer_factory.hpp:77] Creating layer detection_out
I0725 15:21:39.787734 17185 net.cpp:92] Creating Layer detection_out
I0725 15:21:39.787809 17185 net.cpp:470] detection_out <- mbox_loc
I0725 15:21:39.787837 17185 net.cpp:470] detection_out <- mbox_conf_flatten
I0725 15:21:39.788130 17185 net.cpp:470] detection_out <- mbox_priorbox
I0725 15:21:39.788174 17185 net.cpp:444] detection_out -> detection_out
W0725 15:21:39.788336 17185 detection_output_layer.cpp:49] Failed to create directory: /home/chiachi//data/VOCdevkit/results/VOC2007/SSD_300x300_score/Main
I0725 15:21:39.792634 17185 net.cpp:142] Setting up detection_out
I0725 15:21:39.792685 17185 net.cpp:149] Top shape: 1 1 1 7 (7)
I0725 15:21:39.792711 17185 net.cpp:157] Memory required for data: 2022982108
I0725 15:21:39.792769 17185 layer_factory.hpp:77] Creating layer detection_eval
I0725 15:21:39.792868 17185 layer_factory.hpp:77] Creating layer detection_eval
I0725 15:21:39.792922 17185 net.cpp:92] Creating Layer detection_eval
I0725 15:21:39.792958 17185 net.cpp:470] detection_eval <- detection_out
I0725 15:21:39.793021 17185 net.cpp:470] detection_eval <- label
I0725 15:21:39.793066 17185 net.cpp:444] detection_eval -> detection_eval
I0725 15:21:39.793926 17185 net.cpp:142] Setting up detection_eval
I0725 15:21:39.794006 17185 net.cpp:149] Top shape: 1 1 21 5 (105)
I0725 15:21:39.794111 17185 net.cpp:157] Memory required for data: 2022982528
I0725 15:21:39.794267 17185 net.cpp:220] detection_eval does not need backward computation.
I0725 15:21:39.794411 17185 net.cpp:220] detection_out does not need backward computation.
I0725 15:21:39.794502 17185 net.cpp:220] mbox_conf_flatten does not need backward computation.
I0725 15:21:39.794555 17185 net.cpp:220] mbox_conf_softmax does not need backward computation.
…
